model/autoencoder_model.pth (torch, 117522 bytes, 12 tensors)

encoder.0.weight f4 [24, 40, 3, 3]
000000 6c c7 11 be 41 7a 82 be 83 0f b1 be 72 26 ab bd
       -0.1423623 -0.25483897 -0.34582147 -0.08356942
000010 5b 61 8b be 39 51 81 be 4e b1 ad bd 25 8f 8e be
       -0.27222714 -0.2525728 -0.08481084 -0.27843586
000020 c4 77 b3 be 1e e7 00 3d e2 73 68 bd 29 b1 1b be
       -0.3505231 0.03147041 -0.05675114 -0.152043
000030 00 39 4e 3d 6a 6f 71 bd bd 07 49 bd d0 9d 26 bc
       0.05034733 -0.058944143 -0.049079645 -0.010169461
000040 1c 74 2f be 7f 30 dc bd cb 71 00 bd 42 f6 a5 bc
       -0.17134136 -0.107514374 -0.03135852 -0.020259026
000050 14 0f 09 be 02 61 67 3d 86 72 eb 3c b1 e2 60 3d
       -0.13384658 0.056489 0.028741132 0.05490369
000060 15 86 64 3c f6 0c 42 bd c4 a4 37 b9 c9 20 47 bd
       0.013947983 -0.04737564 -0.0001751362 -0.04861525
000070 64 39 05 bd 86 38 43 be 2b ba 77 3d 3f f1 33 bb
       -0.032525435 -0.1906453 0.060480278 -0.0027457026
000080 ec 6a a4 3d ff 7d 71 bd 2c 7f e2 bd b3 fe 31 3d
       0.08028206 -0.05895805 -0.11059412 0.04345579
000090 2b f2 ef bc cd 33 92 bd b0 da 75 be 59 ea 81 3d
       -0.02929028 -0.071387865 -0.24009204 0.063435264
0000a0 08 1b 3c 3d 39 20 d2 3b f5 95 bd 3c f3 77 b0 bd
       0.045924217 0.0064125326 0.023142794 -0.086166285
0000b0 35 55 ac bc 3e 73 4c bc ba 20 c1 3c 06 8f 87 be
       -0.021036724 -0.012478648 0.023575176 -0.26476306
0000c0 92 3c ba 3d f3 27 9f 3d ac 20 bc bd 43 d7 00 3d
       0.09093584 0.077712916 -0.09185919 0.03145529
0000d0 c3 21 1f 3d fe 0e 9e bd ab b3 8a bc 3c 43 19 3b
       0.038850557 -0.07717703 -0.016931375 0.0023386022
0000e0 ec 59 63 be 17 bf e1 3d 96 87 c3 3d 5b 25 da bd
       -0.22202271 0.110227756 0.09547345 -0.10651656
0000f0 12 80 c0 3d 56 51 03 3e c7 b2 0e be 09 70 95 bd
       0.093994275 0.12823996 -0.13935386 -0.0729676
000100 f4 20 c1 3c 5b ef e9 be 84 08 11 3d 94 cd eb 3d
       0.023575284 -0.45690426 0.03540851 0.1151382
000110 67 42 4a be 5d bf 92 3d 55 16 80 3d cf 09 87 be
       -0.19751893 0.07165406 0.062542595 -0.2637467
000120 cd 8e c2 bd 65 af 77 bd 08 6c d0 be c4 72 ef 3c
       -0.09499893 -0.060470004 -0.4070742 0.02922953
000130 30 7a d6 3d 68 a9 c5 bd 92 ae 8a 3d d8 1c 53 3d
       0.10472524 -0.09651452 0.06771578 0.05154118
000140 02 0c 45 be c3 91 e6 bd 21 6f a5 bd 57 b1 4a be
       -0.19242862 -0.112582706 -0.08077837 -0.19794212
000150 18 2d 08 3c d8 54 e5 3d 3b d3 b2 bd b3 1a 09 3c
       0.008311532 0.11197823 -0.08731695 0.008368182
000160 47 e9 b4 3d 48 b5 49 be 7c 37 8a bd e7 97 2d bd
       0.088335566 -0.1969806 -0.06748864 -0.042381193
000170 10 7f 05 bd d3 bf b0 3c 53 e5 28 3d ab 38 1a 3d
       -0.03259188 0.021575844 0.041234326 0.0376517
000180 43 f6 bf bd 3f f5 71 3d 34 e5 e3 bd a1 3e 0b be
       -0.093731426 0.059071776 -0.111277014 -0.1359811
000190 b9 97 df bd 12 b1 7e 3d 81 8b 4b bd 2c ce 36 bd
       -0.10917611 0.062180586 -0.04969359 -0.044630215
0001a0 e8 f9 c7 bc c9 c1 32 be 46 aa 72 bd 7f 3e 24 3b
       -0.024411157 -0.17456736 -0.059244417 0.0025061665
0001b0 6c 47 9f bd 2a 4a 59 bd ab 1f 0e 3d b4 e3 5b be
       -0.077772945 -0.053049244 0.03469817 -0.2147358
0001c0 bf 85 a6 bd c4 8c 96 3c f0 c6 88 be d9 0a bf bd
       -0.08130979 0.01837767 -0.26714277 -0.09328241
0001d0 d9 36 d0 3d 8e d7 a2 bc 71 1f 68 bd 31 83 a1 3c
       0.10166711 -0.019878175 -0.05667061 0.019715877
0001e0 cd 1c 6e be c2 54 ad bc cc 5f d1 3b 86 7b 8a be
       -0.23253174 -0.02115858 0.0063895937 -0.27047366
0001f0 dd 8c fa bd c6 6d 17 3d 41 87 81 3d 69 1e 33 3d
       -0.12233899 0.036969922 0.06324626 0.043730173
000200 2a 8c 8b bc 1a 9d 77 bd 63 f7 80 bd c7 4a d0 bd
       -0.017034609 -0.060452558 -0.06297185 -0.10170513
000210 a5 4d cd bd b3 65 96 bd c1 e7 e1 3c f5 48 56 3e
       -0.10024575 -0.07343616 0.02757633 0.20926268
000220 40 65 9c 3c a3 d8 17 3d 22 96 81 bd 71 c3 ed bd
       0.019091249 0.037071835 -0.06327464 -0.11609543
000230 2e 0c 36 bb 92 0c f7 b9 fa d0 70 bd 6c b4 30 bd
       -0.0027778256 -0.00047120877 -0.058793046 -0.043140814
000240 0e 22 9c bb 1f 07 73 bd ae dc 25 be aa 96 3e bd
       -0.004764802 -0.059332963 -0.16197464 -0.046530403
000250 68 59 fd bb a7 8c 4e 3c 22 86 bb 3c bd da 26 3b
       -0.0077316053 0.012606776 0.022891108 0.0025459968
000260 c4 56 0a 3d cb f8 6e bd 9e 96 a5 bc 8b 8e 49 bd
       0.033774152 -0.058342736 -0.020213421 -0.049208205
000270 c6 d6 a0 bc 89 53 80 bd 4c ed 9f 3c 41 e7 cd bc
       -0.019633662 -0.06265933 0.019522332 -0.025134685
000280 be 56 0e 3c d0 d0 5b 3b 26 32 4c bd df e5 37 3c
       0.008687673 0.003354121 -0.049852513 0.011224239
000290 ef 61 e3 3a e3 7c 81 bc 41 cc 9b bc 1a d1 0d bd
       0.0017347912 -0.015806621 -0.019018294 -0.034623243
0002a0 c8 b0 0e 3b 8a 40 93 3d d7 3b 70 3c 71 87 07 be
       0.002177285 0.07190044 0.014662704 -0.1323526
0002b0 d3 66 b4 bc cd 28 f3 bc 79 ac d2 bb 86 d6 b1 bb
       -0.022021687 -0.029682541 -0.0064292517 -0.0054271845
0002c0 35 60 80 3d 7a b7 83 3d 11 cd d0 3c 4a 15 d2 3c
       0.0626835 0.0643148 0.025488408 0.025644917
0002d0 10 1f 63 bd 62 51 a6 ba b5 5b 91 bd 52 3f 76 3c
       -0.055449545 -0.0012689049 -0.0709757 0.015029745
0002e0 bf f1 20 3d 95 25 e2 3d 84 5a 00 3e a6 a4 48 3d
       0.039293047 0.110423245 0.12534529 0.048985146
0002f0 94 9d e1 3d 73 bd 7b bb 80 05 a9 bd f4 0d c9 bc
       0.11016384 -0.003841248 -0.08253002 -0.024542786
000300 17 82 fe bb e4 c9 ed ba a2 71 1f 3c 3f e3 b0 3c
       -0.0077669728 -0.0018141833 0.009731682 0.021592734
000310 d7 b8 8d 3d b7 b7 e1 3c a0 79 a7 bd c5 0f 44 3d
       0.06920021 0.027553422 -0.08177495 0.0478666
000320 da 4f e2 3c 48 17 d3 bd dc da 03 bc f8 b2 0c 3c
       0.027625967 -0.10307175 -0.008047786 0.008587591
000330 33 02 89 bc 41 f0 d1 bb 63 36 e3 bb 87 3c 1e bd
       -0.016724681 -0.0064068143 -0.0069339736 -0.038631942
000340 93 cd 43 bd dd 5a bd bd 67 a3 ae bd d0 80 12 be
       -0.047803473 -0.092458464 -0.0852726 -0.1430695
000350 25 86 01 be 0c 46 9d bd 1f 78 d9 bd 6f 07 b1 3b
       -0.12648828 -0.07679376 -0.106186144 0.0054024975
000360 29 e7 ea 3c cb 67 04 bd f4 10 2b bd cd 7c 58 bc
       0.028674679 -0.032325547 -0.041764215 -0.013213349
000370 4d ff 09 be a3 db c6 bd 40 38 0b 3e 15 ad 13 3d
       -0.13476296 -0.09709861 0.13595676 0.036053736
000380 75 3e e0 3d dd 93 e3 3c 87 6c cb bd b0 9c 1f 3d
       0.10949413 0.027780468 -0.09932809 0.03896779
000390 aa 9e b2 bd 0e f5 4c be 17 73 1a be f0 81 3f 3b
       -0.08721669 -0.20015356 -0.15082966 0.0029221736
0003a0 6c b8 94 bd bd 95 dd 3c 4d 4e 4f 3e 33 e9 91 bd
       -0.07261738 0.02704894 0.20244713 -0.07124557
0003b0 3f 8e 3a bd 6a cf cb bb 5a 03 36 be bf 3e 83 be
       -0.045545813 -0.006219794 -0.17774716 -0.2563381
0003c0 e3 11 cc 3d 27 93 7e bc 5c 6f 2d be 3f 66 3b 3e
       0.09964349 -0.015538014 -0.16937011 0.18300723
0003d0 c3 7f 15 be c7 a6 2c be f9 e3 68 3d 54 45 c7 bd
       -0.14599518 -0.16860496 0.056858037 -0.0973002
0003e0 87 60 25 be 85 03 28 3e 76 1e b2 3c 9b bf a3 bd
       -0.16150104 0.16407593 0.02174304 -0.0799553
0003f0 69 8a 02 bd cb 7f 1a be dc 4a 3d be 57 da a0 3a
       -0.03187028 -0.15087812 -0.18485588 0.0012272102

encoder.0.bias f4 [24]
000000 76 da c3 3d 9c ef a3 3d 74 0c 92 bd da 3e ed 3c
       0.095631525 0.08004686 -0.071312815 0.028960634
000010 90 ac 57 3e 64 bf c4 3d 09 e2 08 3e 97 ad e1 bc
       0.21061921 0.09606817 0.13367476 -0.027548594
000020 a4 91 09 bd b7 b5 13 3d 59 20 8b 3d 7e b5 86 3d
       -0.03358616 0.03606197 0.06793279 0.06577586
000030 e8 0b 96 ba 5b 80 ac 3d 1e 0d 5d 3b fb 6a 70 ba
       -0.001144764 0.08422919 0.0033729742 -0.0009171215
000040 45 e3 80 3b c7 88 84 3d 5c 37 83 bd 87 b4 12 3e
       0.0039333426 0.06471401 -0.06407043 0.14326678
000050 b1 c6 02 3e ef 18 7d 3d 07 d0 b0 b9 c8 d2 82 3d
       0.12771107 0.061791357 -0.00033724328 0.063878596

encoder.3.weight f4 [8, 24, 3, 3]
000000 02 56 8f bd 5e bd 22 bb 3e 6d 1b 3d fd 3d 33 bd
       -0.069988266 -0.002483211 0.03794598 -0.04376029
000010 73 49 b2 bd f5 29 51 bd 21 10 7f 3c 70 04 00 3d
       -0.087054156 -0.051065404 0.01556781 0.031254232
000020 ab d9 33 3d 6a 82 d8 3d e8 b3 66 3d 88 dd 72 3c
       0.043908756 0.105717495 0.056323916 0.014823325
000030 c1 e1 c5 3c c7 2e da 3c b1 09 18 bd 3b 29 c8 bd
       0.0241555 0.026633633 -0.037118617 -0.09773489
000040 32 19 1c bd 03 51 44 bd 5c e9 b1 bc 18 94 84 bc
       -0.038109966 -0.04792882 -0.02171772 -0.016183898
000050 3b 26 9d 3d de c5 53 3d 03 e7 c0 bc eb b9 1a bd
       0.076733075 0.051702373 -0.023547655 -0.03777496
000060 a5 11 a0 3b 3f cb c4 bc d4 ac a5 bc 43 dd 51 bd
       0.004884916 -0.024022697 -0.020224012 -0.051236402
000070 53 19 57 3e 1a 60 63 3e 95 b9 39 bd ce d3 54 3e
       0.21005754 0.22204629 -0.045343 0.20783922
000080 1a 98 aa 3e 87 8d 7f bd 72 80 2e bc cb 41 c3 3d
       0.3331917 -0.06239083 -0.010650741 0.095340334
000090 6e 9d b7 bc 3c c1 47 3b 25 18 72 3d 08 e7 b6 3d
       -0.022413936 0.0030480167 0.059105057 0.089307845
0000a0 f8 af 95 3d c0 42 94 3d 04 12 94 3d 09 7c 03 3d
       0.07308954 0.07239294 0.07229999 0.03210071
0000b0 a8 63 b3 3d 77 66 34 ba 9f 2d 18 be a6 7e 55 bd
       0.08759242 -0.00068817235 -0.14861153 -0.052122734
0000c0 2c 7b 3f bd de 3c 9f 3c 2d 02 c1 3c 95 74 bf 3c
       -0.046748325 0.019438203 0.023560608 0.02337102
0000d0 4b 8e cf bc 40 3e ec 3d ec 8c 53 3d d2 e9 c7 bb
       -0.025336405 0.11535311 0.051648065 -0.0061008716
0000e0 f9 8b dc bd 50 c6 bb bc 6a c1 81 3d c8 52 1d 3d
       -0.10768885 -0.022921711 0.06335719 0.038409024
0000f0 d6 49 86 bd 91 ec 37 3c 9d ef 6a 3d 7a 7c b0 bb
       -0.06557052 0.011225835 0.05735742 -0.0053859325
000100 18 db 3e bd c2 0b 59 3c ea 27 99 3d ab c4 db bc
       -0.046595663 0.013247432 0.07478316 -0.026827177
000110 87 64 8a bd e9 17 f9 bc 28 04 0f bd 14 da 3a bd
       -0.06757455 -0.030406909 -0.034916073 -0.04561813
000120 ef 07 15 3e 09 06 90 3d 9a 9d 43 be 78 e3 2f be
       0.14553808 0.07032401 -0.19103089 -0.17176616
000130 df 3b 1c be ed 7f 5f be 2b 6f 1e be 7f 8c 35 bd
       -0.15257214 -0.21826144 -0.15472095 -0.04432344
000140 1a 2e 23 3d 9f a2 cf 3d a2 cd 6b 3d 2e d2 43 3e
       0.039838888 0.101384394 0.057569154 0.19123146
000150 a5 a5 56 3d 5b 86 9c 3a 0c aa 76 3e c3 54 16 b9
       0.052404065 0.0011941897 0.24088305 -0.00014336691
000160 4f 0e 0e 3c 21 24 ac 3d d8 84 c1 bd 87 3d 6d bd
       0.008670404 0.084053285 -0.09449166 -0.057920005
000170 82 c2 82 bd da b2 a7 bd a1 48 9d bd a4 d6 f6 bb
       -0.06384756 -0.0818841 -0.076798685 -0.0075329114
000180 28 7f d4 3a a2 2f d3 bc f0 0e 2b bd 07 5a 88 3c
       0.0016212212 -0.025779549 -0.041762292 0.01664449
000190 36 bb 14 be 35 d7 ac bc 23 cd 05 bd e8 86 5c bd
       -0.1452454 -0.021098712 -0.032666337 -0.053839594
0001a0 90 5f ac bc 21 5f af 3a ba 81 a3 bd 48 9d 56 bc
       -0.021041662 0.0013379791 -0.07983728 -0.013099022
0001b0 67 bc 84 3e 20 4a 9a 3e 24 1d 8c bd 5a 08 cc 3d
       0.2592499 0.30134678 -0.06841496 0.099625304
0001c0 16 ec 37 3d df 23 25 be 1d 7d b6 bd 1f e9 10 bd
       0.044902883 -0.16126965 -0.08910582 -0.03537857
0001d0 18 80 c9 3c 8b ce ac 3d 77 51 91 3d f5 3e 28 3d
       0.024597213 0.084378324 0.07095616 0.041075666
0001e0 fd 85 ef 3d 20 55 91 bd 6a f4 e6 bd 7c 02 e0 3d
       0.11695478 -0.070963144 -0.11277087 0.10937974
0001f0 e6 2f 0e bc d2 55 80 bd f6 3e b8 ba 61 33 05 3d
       -0.008678412 -0.06266369 -0.001405685 0.032519702
000200 2e a5 86 3b 99 95 a7 bc ff 63 c2 3c 28 b6 36 3d
       0.0041090464 -0.020457076 0.023729322 0.04460731
000210 cb 42 8f bd ae 6d 7a bd 5a 0c c1 3c 3c 57 06 3d
       -0.069951616 -0.061139755 0.02356546 0.032798037
000220 95 ed 3d be ef b0 56 be af 4e e6 3c 78 55 d4 bd
       -0.18547662 -0.20965932 0.028113691 -0.10367864
000230 0a 35 b3 39 40 8e 00 bd b7 8b 5f bd b6 97 ed bc
       0.00034181058 -0.03138566 -0.0545766 -0.029003005
000240 76 62 37 bc a6 24 c3 bd 10 37 6e bd 5e 6b 62 bd
       -0.0111929085 -0.095284745 -0.05815798 -0.055278175
000250 53 54 43 3d dd cd 24 be 67 83 fe bc ba 06 b4 3b
       0.04768784 -0.16094156 -0.031068517 0.005493966
000260 a1 9d ee bc e4 e7 a6 3d f3 b9 06 3e 98 04 5a bd
       -0.029127898 0.081496984 0.13156871 -0.053227037
000270 55 18 a6 bd 66 09 11 3d 0f d7 ea 3c 2d ab 25 be
       -0.0811011 0.035409354 0.028667001 -0.1617858
000280 49 c6 dd bd d0 7a 9c 3c 01 b9 f0 3c b5 81 a8 3d
       -0.108288355 0.01910153 0.029385092 0.08227865
000290 18 79 03 3d a3 c4 5d 3d bb 03 43 3d 41 06 fd 3c
       0.032097906 0.054142606 0.04761098 0.030886771
0002a0 9a ca ce bd a6 82 0b be cc 44 65 3d 57 50 9f 3c
       -0.10097237 -0.13624057 0.055973813 0.019447489
0002b0 6c 96 e8 3a 8c 40 2d bd e0 46 80 3d 66 83 84 3d
       0.0017745025 -0.042297885 0.06263518 0.06470375
0002c0 1b 12 e3 3c ee ad a7 3d 58 96 7c bd 3f 11 45 bd
       0.027718594 0.08187471 -0.061666816 -0.04811215
0002d0 19 dc f7 3c 5f 36 ae bd af df 79 3d c4 95 0c bd
       0.030256318 -0.08506464 0.061004337 -0.034322515
0002e0 75 9b 4b 3d ae 86 60 bd 4c 81 3b 3d ec 2b 7a bd
       0.049708802 -0.05481594 0.045777604 -0.061077043
0002f0 76 d8 5a 3d c2 a2 78 bc c2 4e be 3c 56 b6 6d 3d
       0.05342909 -0.015175523 0.023230914 0.058035217
000300 61 2c 11 bc 0f d6 d5 3d e4 06 68 3e b7 86 f9 3c
       -0.008860678 0.10441219 0.22658879 0.030459745
000310 e2 5d ad bd 1f 9c 81 3c ea 6c 76 bc ba c2 27 bd
       -0.08465172 0.015821515 -0.015040616 -0.04095719
000320 4f 54 19 3c 5a 24 a8 bd 3c f8 c4 bc 0b 46 b9 3a
       0.00935848 -0.082100585 -0.024044149 0.0014135254
000330 93 b8 ab bc 87 51 d4 bb 91 3e 6a bd 30 8d 1f 3d
       -0.020962035 -0.0064794454 -0.057188574 0.038953006
000340 b6 3b a1 3d f4 b0 bc 3d d7 9b db 3d aa 10 76 3d
       0.07872717 0.09213439 0.107230835 0.060074486
000350 29 65 4d 3e 3e 95 6d 3d 45 81 02 3d 3b e3 cd bb
       0.20058121 0.058003657 0.031861562 -0.0062831915
000360 11 c1 b6 3d d2 29 f2 3d 9d 33 6e 3d 14 01 b9 3d
       0.08923543 0.11824383 0.05815469 0.09033409
000370 ce 68 91 3c bb 86 b5 3c 0c a4 12 bd fb ee 8b 3c
       0.01775017 0.022158971 -0.03580098 0.017081728
000380 66 6d 88 bc b6 91 3f 3d 64 fc 81 bd cb 57 bd bd
       -0.016653728 0.04676982 -0.06346968 -0.09245261
000390 39 c0 85 3c 6c 6c 5c 3d 9d fa 15 3d b7 f6 b9 3d
       0.01632701 0.053814337 0.036615957 0.0908026
0003a0 09 9d 2c bd 9d fa 26 3d 5c 7d 50 3d 43 5f 84 bc
       -0.042141948 0.040766347 0.050900802 -0.016158706
0003b0 a7 1e af 3d 44 bb d7 bb 70 f1 f3 3c 85 d9 db bc
       0.08550768 -0.006583603 0.029778212 -0.02683712
0003c0 3a b6 fa bc ad ec 2d bd 73 72 ae 3c 43 3f 77 3c
       -0.03060447 -0.04246204 0.021294808 0.015090766
0003d0 ff a7 ac 3d 55 d9 a1 3c 02 3f 3d 3d 95 74 d5 3d
       0.0843048 0.019756952 0.046202667 0.10422627
0003e0 c1 02 6e 3e 0d 21 de 3d 80 ea 22 3d bc d1 f4 3d
       0.23243238 0.10846148 0.039774418 0.11954066
0003f0 5a 62 bc 3c 64 9c 8c bd 6d 8a 28 3d d2 88 95 bc
       0.022996116 -0.06865767 0.041147638 -0.018253718

encoder.3.bias f4 [8]
000000 08 43 18 3e 11 ff 00 bd 82 00 1e 3e 9f 0c a2 3d
       0.1486932 -0.03149325 0.15429881 0.079125635
000010 ad 61 c6 3d 69 ac f9 3d d8 de 16 3e b0 b4 25 3e
       0.09686599 0.12191088 0.14733446 0.16182208

encoder.7.weight f4 [20, 392]
000000 87 80 39 be 8a a7 b9 3c 76 63 4a 3e b3 b3 44 3e
       -0.18115436 0.022662897 0.19764504 0.19209175
000010 4a be 5d 3e 8d de 67 3d 15 55 6c be 40 c5 13 be
       0.21654621 0.056608725 -0.23079331 -0.14430714
000020 21 8e 4b 3c 40 71 08 3e 0c e8 ef 3c a8 bc b1 3d
       0.012424023 0.13324451 0.029285453 0.086785614
000030 15 d0 16 bd bd 50 c2 bd 6c 39 08 be d6 d1 28 bb
       -0.036819536 -0.09488056 -0.13303155 -0.0025759838
000040 ac 13 81 bd a4 ad 78 be c1 8d 82 3c b2 04 8a bd
       -0.0630258 -0.24284989 0.015936734 -0.06739177
000050 08 93 bd 3c 93 fa 1f 3e e4 2b 6d 3d 59 96 31 be
       0.023141399 0.1562293 0.057903185 -0.1734251
000060 34 b2 66 be 6b a3 92 bd db ae fa 3d 6c c2 45 3e
       -0.22528917 -0.07160076 0.12240382 0.19312447
000070 62 41 a5 3e 40 6b 89 3e 6c 81 bb bd cf bb 2a be
       0.32276446 0.26839638 -0.09155545 -0.16673206
000080 db fb 40 be d5 07 0b 3e b7 a5 2f 3e e3 1c 12 3e
       -0.18846075 0.13577206 0.17153059 0.14268832
000090 58 9a 65 3e c9 59 aa 3e 87 6f 72 3e bf 63 f2 3d
       0.22422159 0.33271626 0.23675357 0.11835431
0000a0 52 88 d5 3d 7a 85 05 3e 01 04 5c bc 08 ce c6 3d
       0.10426392 0.13039199 -0.013428689 0.09707266
0000b0 f1 d3 65 3e 1b 43 c6 3d d6 03 88 3d 3c 2e 16 3d
       0.2244413 0.09680768 0.06641357 0.036665186
0000c0 6e a5 09 bd a9 c3 81 3d 38 17 97 bc ef fb 9b bd
       -0.03360503 0.06336147 -0.018443689 -0.07616412
0000d0 49 ee 6e bd 16 65 01 bd 10 00 35 3d 2b bc 69 3d
       -0.058332715 -0.031590544 0.044189513 0.057064217
0000e0 b8 d6 56 bd 07 61 da bc d6 1c 7a bb 13 9e db bd
       -0.052450866 -0.026657594 -0.003816416 -0.1072351
0000f0 1a 03 8a bd ca bb 7c ba 27 2e 02 3d d3 18 85 bd
       -0.06738873 -0.000964102 0.031782296 -0.064988755
000100 7f 1b b7 bc d2 ad c7 3d 1c 8b f8 3d 4d 62 61 3c
       -0.022351978 0.097499505 0.12135908 0.013756347
000110 cb 02 58 bd b8 c6 27 3c 19 46 fb 3c ba 99 10 3e
       -0.05273704 0.010240249 0.030673074 0.14121142
000120 c3 8c ba 3d 1f 3a ba 3d 6a 4d 82 3d e6 e3 a3 bc
       0.091088794 0.09093117 0.06362422 -0.020006131
000130 32 6b cc bd c7 e0 78 3d 67 ec eb 3c 28 96 98 3c
       -0.099813834 0.06076124 0.028799249 0.018626288
000140 51 16 18 3d 1f c6 ff 3d fa d1 30 3e 27 78 7d bd
       0.037130658 0.124889605 0.172676 -0.061882164
000150 65 ae 6a 3d 36 67 81 3d b4 65 2b bd cc ae d7 bc
       0.05729522 0.06318514 -0.04184504 -0.026328467
000160 24 93 53 3c 67 76 85 3d 2b dd 1a 3c 80 e8 4c bc
       0.012913499 0.06516724 0.009452145 -0.012506604
000170 22 7f a6 3d ab 76 20 bd 72 62 26 bd b5 be 8d bd
       0.081297174 -0.03917567 -0.04062123 -0.0692114
000180 03 0b 93 3a 2d 86 5c bd ba 79 77 3c c4 02 1d 3e
       0.0011218492 -0.053838897 0.0151047055 0.15333086
000190 d7 2b 18 bd 78 1e 5d be d7 8e 23 be fa d0 21 bd
       -0.037151184 -0.21593654 -0.15972458 -0.039505936
0001a0 e1 95 15 3e bf aa 07 3d 5d b2 2c be 26 fa b0 bd
       0.14607956 0.03312182 -0.16864915 -0.08641462
0001b0 b1 a0 a3 3b 0f 90 a1 bd 08 e2 7e bc 23 3d f7 bc
       0.004993521 -0.07888805 -0.01555682 -0.03018052
0001c0 cf a3 6e bd 80 eb 8b 3c 1f 39 7b bd bd b5 bb 3b
       -0.05826169 0.017080069 -0.06133377 0.005728452
0001d0 41 44 fd bd b8 70 0b be 48 fc 85 3c 8a 41 54 be
       -0.12366534 -0.13617218 0.016355649 -0.20728126
0001e0 e6 93 0e bd 85 10 3c bd e3 4c 73 be 09 88 d4 39
       -0.034809016 -0.04591419 -0.23759799 0.00040537145
0001f0 bb 3e 88 3d 62 d0 00 bd 97 4e 36 be 00 c7 0e 3e
       0.0665259 -0.03144873 -0.17803417 0.139431
000200 2f 9d 42 3d e7 42 25 be a5 2b da bd 14 36 51 3e
       0.047513183 -0.16138802 -0.10652856 0.20430785
000210 07 c9 42 bd 2d 42 fd bd 16 98 d3 3d f5 c2 58 3e
       -0.047554996 -0.12366138 0.103317425 0.2116812
000220 89 36 b9 bb 63 92 22 be 4e e2 bd bc 61 0d ce bc
       -0.005652253 -0.15876155 -0.0231792 -0.025152864
000230 1f ef bb 3d 05 8e 74 3e 87 2e 40 3d a2 a5 40 bd
       0.09176468 0.23882301 0.046919372 -0.04703296
000240 3f ca d2 bd 73 d9 2a be b4 bb 3c 3d 65 7f 55 3d
       -0.10292482 -0.16684513 0.046077445 0.052123446
000250 f8 60 55 be 3c 36 fa 3c 35 6a a3 bd fc f7 f7 bd
       -0.20837772 0.03054344 -0.07979242 -0.12107846
000260 1a c2 fe 3b 4c 40 82 ba 45 bf 80 bd 94 db 29 be
       0.0077746036 -0.0009937375 -0.06286482 -0.16587669
000270 2d 23 00 3e e6 52 d4 bd 5d 34 39 be 87 fa ca bc
       0.12513418 -0.10367374 -0.18086381 -0.024777664
000280 3d f5 8f bc 6e 54 89 bd 30 58 09 be 73 3e 57 3e
       -0.017572993 -0.06705557 -0.13412547 0.21019916
000290 2a ac 18 3d c9 4a 1c be ba 72 a0 3d 3e cf c2 3c
       0.037273563 -0.15262903 0.07834382 0.023780461
0002a0 8a a6 5d bd 23 20 96 3d 19 99 be bd 8a 0c fd bd
       -0.054113902 0.07330348 -0.09306545 -0.12355907
0002b0 03 f7 64 bd 4e f1 71 bd 14 11 75 3d 21 a4 4f bc
       -0.05589963 -0.059068017 0.05983074 -0.012673409
0002c0 b8 dc a1 3d 04 ca f9 bb 07 3d 5a be 7e 9b 75 be
       0.07903427 -0.007622959 -0.21312343 -0.23985097
0002d0 97 1b 9d 3c 35 e5 4c 3c 4f 2f 18 3e d3 6d 37 3e
       0.019178195 0.012505819 0.14861797 0.17912988
0002e0 89 b4 a6 3d db 99 8d bd d3 ae b9 bd 0a 98 55 3d
       0.08139903 -0.06914111 -0.09066548 0.05214695
0002f0 4b d9 61 3d 0b 80 c1 bc c4 b2 54 3e 52 19 75 bc
       0.055138867 -0.023620626 0.20771319 -0.01495965
000300 1c 8c be bd 8b f4 98 3d 4c c9 12 bc 47 82 b5 bc
       -0.093040675 0.07468518 -0.008959126 -0.022156848
000310 c0 02 9e 3d b2 25 18 bb ee 1b 10 3d bf 2a 64 3d
       0.07715368 -0.0023215828 0.035182886 0.05570483
000320 cc 07 36 3e 00 75 40 3e f9 b8 63 3d 9d 69 92 3c
       0.17776412 0.18794632 0.055596326 0.017872626
000330 dc 9a 8b 3c a5 95 6e bb e4 bb 4c 3d ae 12 bd 3d
       0.017041616 -0.0036405113 0.049983874 0.092320785
000340 54 78 a4 3c aa 85 bd bc 19 51 07 be e1 02 88 3d
       0.020076908 -0.023135025 -0.1321453 0.06641174
000350 91 92 b5 3d b6 e7 a8 3d 75 fb 10 3e bc 19 c8 bc
       0.08865846 0.0824732 0.14158423 -0.024426334
000360 08 0c 16 be 61 b5 94 be 55 01 e9 bc 2b fc c9 3b
       -0.14653027 -0.2904463 -0.028443018 0.006164094
000370 c9 56 85 bc f0 6b 26 3e 13 d3 67 3d 00 cf ff bd
       -0.016276734 0.16252112 0.05659778 -0.12490654
000380 b3 66 ff bd 79 95 10 3a 1d cf b7 3d bb e7 b6 3d
       -0.1247076 0.0005515437 0.089750506 0.08930918
000390 0d e0 1b bd ce 8b 42 3c f7 7b 46 be 7e ee 5e bd
       -0.03805547 0.011874152 -0.19383226 -0.054426663
0003a0 3d 5e 02 3e 2c 48 af bd b2 93 59 be 3e b8 91 bd
       0.12731262 -0.085586876 -0.21247748 -0.071152195
0003b0 c1 ef 9a 3a 4f bc 32 be d8 27 92 bc 24 29 86 bd
       0.001182072 -0.17454647 -0.017841265 -0.06550816
0003c0 e6 29 5d be 83 1e 08 be f3 cb cb 3a 3c cf e5 bb
       -0.21598014 -0.1329289 0.0015548453 -0.0070132297
0003d0 3d 2f eb bd d8 13 dd bc 17 12 72 bc 01 44 83 3e
       -0.11483619 -0.026987001 -0.014774821 0.2563782
0003e0 05 39 3f 3e 28 fa 9c 3e 6d b2 9f 3d d7 71 3e bd
       0.18674095 0.30659604 0.07797704 -0.046495285
0003f0 a6 d4 ce bc f0 24 08 bd af 94 5e 3e d3 63 3f 3e
       -0.025247883 -0.03323835 0.21736406 0.18690424

encoder.7.bias f4 [20]
000000 29 b4 a9 bd 7f 8f b4 bb f7 7b b3 3d 42 fb 51 be
       -0.08286316 -0.00551027 0.08763879 -0.20506003
000010 23 13 9f 3d 50 4c 73 3d 0d 21 cd bc ea d3 94 bd
       0.07767322 0.05939895 -0.025040174 -0.07266982
000020 b2 a3 eb 3d bc c1 87 3d f9 71 95 be ee 81 22 bf
       0.11505832 0.06628749 -0.29188517 -0.63479507
000030 32 e2 d1 be 72 81 0a bf 41 f1 c4 be 34 c6 a9 be
       -0.40992886 -0.5410377 -0.38465312 -0.3315903
000040 6d 6d a2 be e3 df fb be 28 94 f5 be 5c 70 c7 be
       -0.3172411 -0.4919425 -0.47964597 -0.3895291

decoder.0.weight f4 [392, 10]
000000 81 61 27 3e fa 71 29 be 4d f9 14 bd e3 48 93 be
       0.16345789 -0.16547385 -0.036370564 -0.28766546
000010 6e 0f 40 3f d5 98 51 be 93 8f f0 be 34 6e 8c bf
       0.75023544 -0.20468457 -0.46984538 -1.0971131
000020 53 11 95 3e 89 02 6f 3f 99 76 67 bd c6 a9 16 3b
       0.2911478 0.93363243 -0.056509588 0.0022989376
000030 5b 3a b8 3e 7a 29 c9 be 2a 52 bf 3e 53 04 17 3e
       0.35982022 -0.39289457 0.37367374 0.14747743
000040 ab 38 d2 be 22 28 9d bf 1c e9 01 3f b9 58 46 3f
       -0.4105886 -1.2277873 0.5074632 0.7747913
000050 77 0d 5a bc f0 b3 d1 3d 8e 87 b8 3e 0d 58 a8 be
       -0.013308874 0.102393985 0.3604092 -0.32879677
000060 a5 44 eb 3e 36 f3 0e bd 32 7e 9f 3d 67 f5 4f bf
       0.4595081 -0.034899913 0.07787742 -0.8123383
000070 6e d6 9d 3e 2f 9e 61 3f fc 17 a8 be e5 6a 48 3e
       0.3082766 0.88131994 -0.328308 0.19572027
000080 36 cc c9 3e 37 32 b7 3d 01 b9 00 3f 79 74 b1 3e
       0.39413613 0.089451246 0.50282294 0.34659174
000090 33 5d 09 3e 00 83 4a bf a5 c8 e6 3e 1e 2e 5a 3f
       0.13414459 -0.7910614 0.45074955 0.8522662
0000a0 35 eb 97 be c5 38 6b 3e 41 0b dd 3e 94 7a ac bc
       -0.29671636 0.22970875 0.4317265 -0.021054544
0000b0 56 91 e6 3e 8a 1f 89 3e d7 f2 64 3d c8 d4 4f bf
       0.45032758 0.26781875 0.055895653 -0.81184053
0000c0 dc 81 d4 3e 74 96 5e 3f 6e e3 0a be 75 8b 00 3e
       0.41505325 0.86948323 -0.1356332 0.12553199
0000d0 fd 77 a1 3e 3f 7a ae be 54 1e 87 3e c9 ba 44 3e
       0.31536856 -0.3407764 0.26390326 0.19211878
0000e0 d4 e1 88 be 36 91 5a bf 06 0f 16 3f 59 43 6c 3f
       -0.26734793 -0.85377824 0.58616674 0.92290264
0000f0 6a 38 39 3e a7 e1 6d be f4 49 9b 3d 59 d8 50 be
       0.18087927 -0.23230611 0.07582465 -0.2039503
000100 d7 50 1a 3f 8c 50 46 38 56 13 30 bf 76 d9 a3 bf
       0.602796 4.7281894e-05 -0.68779504 -1.2800739
000110 f1 18 35 3f a3 5b 85 3f 7f 74 86 3d 79 10 af bd
       0.7074118 1.041859 0.065651886 -0.08548064
000120 cf e4 07 3e 54 1b e5 be 72 5a e3 3e 62 da 71 3e
       0.13270877 -0.44747412 0.44404942 0.23618463
000130 9c d4 cc be 89 aa c3 bf 0e 44 03 3f 88 ce 2a 3f
       -0.40005958 -1.5286418 0.5127572 0.6672139
000140 98 1e 34 be dc ae b7 3d 79 b0 a7 3e 1d bb 0f bf
       -0.17589796 0.08968899 0.32751825 -0.5614489
000150 ab 57 9d 3e 05 52 7f 3e 47 75 9d be b6 07 a5 bf
       0.30730948 0.24933632 -0.30753538 -1.2892978
000160 b7 d7 e2 3e d4 54 13 3f 92 3b 83 be bb da 21 3e
       0.44305202 0.5755131 -0.25631386 0.15806095
000170 41 6f 5e 3e 68 ab c1 be 7e ce 5e 3e e7 97 23 3e
       0.21722127 -0.37826085 0.21758458 0.15975915
000180 91 8f bb bd a0 d0 49 bf e3 b9 20 3f c1 87 33 3f
       -0.091582425 -0.7883396 0.6278364 0.7012902
000190 38 5d 4b 3d 92 d8 b7 3e b8 f8 f6 3e b0 d6 4c be
       0.049649447 0.35907418 0.48236632 -0.20003772
0001a0 7c ef 0a 3f 89 80 90 3e 79 43 90 bd 87 d6 48 bf
       0.54271674 0.28223065 -0.070441194 -0.7845234
0001b0 86 c0 0e 3f 3d 02 10 3f dd 2a 0b be f1 28 da 3e
       0.5576252 0.56253415 -0.1359057 0.4260936
0001c0 49 f8 c9 3e 71 21 d0 bd f2 c7 fe 3e 9a 66 a5 3e
       0.3944724 -0.101626284 0.4976192 0.3230484
0001d0 fb 24 b0 bd 76 e5 6c bf a6 f0 f2 3e 45 72 2c 3f
       -0.086008035 -0.9253763 0.47449225 0.6736186
0001e0 4b 6b f2 3c 73 09 a6 3e aa e0 3f 3e 8f 4b 03 be
       0.029592177 0.32429084 0.18738046 -0.12821792
0001f0 e6 fd e6 3e c6 8b cf 3e bb 40 b9 bd 1c b5 47 bf
       0.45115584 0.40536326 -0.090455495 -0.78010726
000200 b4 5b ae 3e a5 4a f8 3e 2d c8 3b 3d a3 9b d4 3a
       0.3405434 0.4849445 0.0458452 0.00162207
000210 c4 0b ca 3c ef e9 1d be 3c ad 92 3e 7e 94 5c 3e
       0.024663813 -0.1542127 0.28647792 0.2154102
000220 b1 74 7b be 37 92 74 bf 38 fa 98 3e cf 96 02 3f
       -0.24556233 -0.95535606 0.29878402 0.51011366
000230 5d 06 b6 bd cd b6 2b 3d 35 d7 8d be 16 50 da be
       -0.088879324 0.04192238 -0.27703252 -0.42639226
000240 26 4c f9 3e 30 47 da 3e 7c 51 9f bd ac e7 8a bf
       0.4869091 0.42632437 -0.07779214 -1.0851951
000250 57 4b d8 3e dd b5 73 3e 68 e9 1e bd 16 4d 79 3b
       0.4224498 0.23799844 -0.038796812 0.0038040332
000260 ef 3d 93 bd d4 d9 f8 be e3 60 c1 3e eb d8 8f 3e
       -0.07189547 -0.4860369 0.3776923 0.28095183
000270 f3 9c 75 bd 4e 6d 5d bf b7 b4 8b 3e a7 41 67 3e
       -0.05996413 -0.8649491 0.27286312 0.22583638
000280 25 8b 87 3d 4f 08 d4 3d b6 36 5c 3e 08 ee e5 be
       0.066183366 0.10353147 0.21505246 -0.44908166
000290 c6 1a f3 3e c0 32 db 3e bb bd b3 bc 3c 03 40 bf
       0.47481364 0.42812157 -0.021941056 -0.75004935
0002a0 8c d2 eb 3e 7d fa c7 3e 7e 0b 32 3e fc 1d 33 3e
       0.46059072 0.39058295 0.17387196 0.17491907
0002b0 76 c0 83 3e 68 df 72 be e4 e0 5c 3f 2d b8 f9 3e
       0.25732774 -0.23718035 0.86280656 0.48773327
0002c0 da 0a 85 be 66 62 2e bf ae 77 39 3f 5e a2 08 3f
       -0.25984842 -0.68118894 0.7244824 0.5337275
0002d0 26 df c6 3d 2a a2 84 3e 18 37 90 3e c0 35 74 be
       0.09710531 0.2590497 0.28167033 -0.23848629
0002e0 28 3f 0f 3f ea e8 d1 3e 58 a8 e3 be c3 18 8d bf
       0.55955744 0.40998012 -0.44464374 -1.1023182
0002f0 71 a7 04 3f 99 67 f3 3e 64 21 d7 bd 38 79 03 3f
       0.51817995 0.47539976 -0.10504416 0.5135684
000300 d7 eb 73 3e b6 1c d4 bd 19 a8 e4 3e 7e 77 02 3f
       0.23820435 -0.10357039 0.44659498 0.5096358
000310 7f 05 89 be 02 a9 8f bf c2 99 cf 3e 34 33 db 3e
       -0.26762006 -1.1223452 0.40546995 0.42812502
000320 d9 f8 42 be 14 0a 31 3d ac 65 97 be 5b 5e f3 be
       -0.1904024 0.043222502 -0.29569757 -0.47532925
000330 06 74 18 3f e2 76 1b 3f e0 f4 d5 be 65 94 96 bf
       0.5955204 0.60728276 -0.41788387 -1.1764036
000340 fb c0 96 3e 71 49 2d bd 7b 2d 3f be 97 a4 27 3d
       0.29444107 -0.042306367 -0.18669693 0.04092845
000350 9f ae 06 bf ed 14 09 bf cc 68 1a 3f b1 c5 1e 3f
       -0.526102 -0.53547555 0.6031616 0.62020403
000360 fe 05 a1 3b d0 0e 82 bf d0 3b c8 3e 37 5d e7 bd
       0.0049140444 -1.016077 0.39108133 -0.11297076
000370 3c 4e 1f be 8c 4d a0 3e 4e 55 30 be 79 82 05 bf
       -0.15557188 0.31309164 -0.17220041 -0.5215221
000380 53 15 25 3f 24 ab e0 3e 73 2d 49 3a 35 05 29 bf
       0.64485663 0.4388057 0.0007674314 -0.6602357
000390 f5 8c 83 3e a7 31 c1 3e 1b 68 b4 bd 27 af 21 3e
       0.2569348 0.37733194 -0.08808919 0.15789472
0003a0 71 12 eb be 66 52 9d be be 8e e1 3e 78 d7 94 3e
       -0.45912507 -0.30726928 0.44054216 0.2907064
0003b0 71 5a e7 3d 65 3c 22 bf 5e dd e9 3d 9c c1 c5 3e
       0.11296547 -0.63373405 0.114191756 0.38624275
0003c0 43 75 4c 3e 6b ac d8 3d 75 22 33 be d8 86 ef be
       0.19966607 0.10579761 -0.17493613 -0.46782565
0003d0 04 8e 2f 3f a9 ac 20 3f a9 10 65 be c6 11 0d bf
       0.68576074 0.6276346 -0.22369637 -0.55105245
0003e0 7e 31 eb 3e 64 14 ac 3e fa 21 78 3d 23 6f 9c 3e
       0.45936197 0.33609307 0.060579278 0.3055354
0003f0 a4 9b 81 3e 7a 5f dd be 8b aa 4c 3f 23 30 36 3f
       0.25314057 -0.43236905 0.7994773 0.711672

decoder.0.bias f4 [392]
000000 2c a6 54 3f 0c 89 81 3f 89 f6 68 3f e8 27 7c 3f
       0.8306606 1.0119948 0.9100118 0.9849839
000010 e0 10 73 3f 12 40 6c 3f 46 50 8f 3f 3e a1 04 3f
       0.94947624 0.92285264 1.1196373 0.51808536
000020 f6 83 5e 3f e3 43 8b 3f bf db 8e 3f 4d 9e 94 3f
       0.86920106 1.0880092 1.1160811 1.161081
000030 80 67 84 3f 63 05 30 3f 07 c8 e1 3e 43 8b fb 3e
       1.0344086 0.6875822 0.4409792 0.49129686
000040 c8 77 23 3f 76 70 6c 3f 03 c2 9a 3f 93 58 a0 3f
       0.63854647 0.923591 1.2090458 1.2527031
000050 00 74 45 3f b8 58 f6 3e ce 6e c7 3e f0 48 ba 3e
       0.77130127 0.48114562 0.38951725 0.36383772
000060 36 13 0d 3f 4b f3 65 3f 94 f3 8e 3f 13 c7 3e 3f
       0.5510744 0.8982436 1.1168084 0.74522513
000070 40 94 e0 3e 95 09 b3 3e 8f 23 bf 3e 7a 7e a2 3e
       0.43863106 0.34968248 0.37331817 0.3173712
000080 30 68 16 3f 01 54 6d 3f b4 8c 1b 3f 57 9b dd 3e
       0.5875273 0.92706305 0.6076157 0.43282577
000090 c8 c1 05 3f c6 a4 d2 3e 94 d0 c0 3e a0 a1 e9 3e
       0.5224881 0.41141337 0.37659132 0.45631123
0000a0 11 6f 26 3f 1e 30 15 3f 89 f5 57 3f ca c3 29 3f
       0.65013224 0.58276546 0.8435903 0.66314375
0000b0 52 e1 36 3f 3d 9e 3f 3f cd 8e 39 3f 66 3e 55 3f
       0.7143756 0.7485083 0.7248352 0.8329834
0000c0 83 f0 8f 3f 34 eb 2b bf 1d 4f dc bd 66 15 16 3f
       1.1245273 -0.67155766 -0.10757277 0.586264
0000d0 0d 08 41 3f 51 8c 45 3f d4 7f c4 3e 65 e3 1d 3f
       0.7540291 0.7716723 0.38378775 0.616751
0000e0 47 30 d4 be 82 4a df 3d 49 55 dc 3e 9e 82 7a 3f
       -0.41443083 0.10902883 0.43033817 0.97855556
0000f0 69 28 86 3f d6 7c 64 3f 1f 68 6e 3f b1 12 89 be
       1.0481082 0.89252985 0.93127626 -0.26772073
000100 ec d7 cd 3e f6 32 50 3f 70 d4 8b 3f a3 d3 a4 3f
       0.40203798 0.8132776 1.0924206 1.2877086
000110 f0 7d 84 3f a2 bd a2 3f e4 cd 1e bf d4 e3 06 bc
       1.0350933 1.2714121 -0.62032914 -0.008233029
000120 24 ac 0e 3f 13 76 60 3f 0d 66 9f 3f 80 94 78 3f
       0.55731416 0.87680167 1.2453018 0.97101593
000130 2c c3 ae 3f fd 7e ac be 8d f6 1a 3e 93 27 c0 3e
       1.3653312 -0.33690634 0.15133114 0.37530193
000140 5a ff 19 3f 1e e1 80 3f d6 10 75 3f 92 ee b2 3f
       0.6015526 1.00687 0.95728815 1.3979056
000150 61 88 8e be a1 93 9b 3d bc 37 63 3e 7d 05 f0 3e
       -0.27838424 0.07596517 0.2218923 0.46879187
000160 9d f6 10 3f 08 fa 52 3f 84 b9 91 3f 5a 24 1a bf
       0.566263 0.8241277 1.138474 -0.6021172
000170 d3 c6 36 3e ce 2b 23 bf 2e 60 1a be 2f b8 c7 3e
       0.17849283 -0.63738716 -0.15075752 0.39007708
000180 d6 0c bf 3e e8 16 75 3f 14 31 19 3f 7a df d5 be
       0.3731448 0.9573808 0.5984051 -0.41772062
000190 eb d2 1f 3f f0 d3 fc 3e 84 97 0a 3f e8 0e cc bd
       0.6243121 0.49380445 0.54137444 -0.09963781
0001a0 db 82 9a bc 08 78 90 3f bc 7a 39 3e 74 85 3d bd
       -0.018861225 1.1286631 0.18113226 -0.04626985
0001b0 63 50 07 3f bf 80 08 3f 1d b0 02 3f 9b 3b 19 3f
       0.52857035 0.5332145 0.5104998 0.59856576
0001c0 86 ae 8e 3f 88 a3 00 3f ea c6 30 3f 84 2a e1 3e
       1.114701 0.5024953 0.6905352 0.4397775
0001d0 b7 2c d9 3e 22 70 d1 3e 86 dd 5c 3f 5b df 6e 3f
       0.42416927 0.40905863 0.8627552 0.93309563
0001e0 a9 f7 d3 3e a2 e0 11 3f 42 d5 1d 3f 2e 4e c3 3e
       0.41399887 0.5698339 0.6165353 0.38145584
0001f0 a6 8e 10 3f 07 e0 98 3f 3b 78 8a 3f 77 c4 bb 3e
       0.56467664 1.1943368 1.0817941 0.36673328
000200 f1 d1 14 3f 25 b6 f4 3e 58 15 20 3f ea 33 f0 3e
       0.58132845 0.47795215 0.6253257 0.46914607
000210 62 05 8f 3f c7 f3 80 3f 07 a1 23 3e a7 9c 0b 3f
       1.1173518 1.0074395 0.15979396 0.5453591
000220 d0 c5 e9 3e 63 92 e0 3e 6d 40 1d 3f a4 18 37 3f
       0.4565873 0.43861684 0.6142643 0.71521974
000230 f5 a9 28 be 5c c9 9d bd df 35 16 bd 3e 12 00 bf
       -0.16471083 -0.07704422 -0.03667247 -0.50027835
000240 c3 ac 7d bd 86 2b 3e be 42 39 0b bf 1f 4c 0e 3f
       -0.061932337 -0.1857129 -0.54384243 0.555849
000250 aa ed 83 3f 12 ba 72 3f 2a 1c 6f 3f 63 8a 71 3f
       1.0306904 0.9481517 0.9340235 0.94351786
000260 2f 0d 85 3f a5 1c 58 3f 68 5d a8 3e 17 88 66 3f
       1.0394648 0.8441871 0.32883763 0.90051407
000270 e7 bd 7c 3f 18 13 49 3f 5b c3 5a 3f a7 aa 58 3f
       0.9872727 0.7854476 0.8545434 0.84635395
000280 71 fc 2c 3f f4 19 19 3e cb 59 01 3f 59 9a 03 3f
       0.67572695 0.14951307 0.5052764 0.5140739
000290 69 4f 48 3f fa 1f 4b 3f 2e b7 86 3f d1 e9 1f 3f
       0.7824617 0.7934567 1.0524652 0.6246615
0002a0 0c 1a a8 3e cf 69 01 3f 4d d6 7a 3e 56 0f 02 3f
       0.32832372 0.50552076 0.24495812 0.5080465
0002b0 14 a5 36 3f f4 38 76 3f fc 11 e1 3e 50 12 1a 3e
       0.7134564 0.96180654 0.43959033 0.15046048
0002c0 0a 67 af 3e 9c 2f 8d 3e d0 f0 cb 3e a1 f9 0a 3f
       0.342583 0.27575386 0.39832163 0.54287153
0002d0 1e 1a 5b 3f b5 33 99 3e 70 15 a3 3d e2 85 f7 3e
       0.85586727 0.29922262 0.07963073 0.48344332
0002e0 6b 6e 84 3e 05 bb 89 3e 75 e9 0d 3f 7b 60 13 3f
       0.25865492 0.26900497 0.5543435 0.5756909
0002f0 de 49 36 3e 81 79 fa be 03 21 8e 3a a5 b5 06 3e
       0.17801616 -0.48920825 0.0010843578 0.1315523
000300 88 01 c1 3d 42 8d 83 be c2 4d 12 3e fa 46 14 3e
       0.0942412 -0.2569371 0.14287475 0.144802
000310 a1 c5 cf 3e e5 75 dd bd 89 37 37 bf f9 8f 66 bf
       0.40580466 -0.10813502 -0.71569115 -0.90063435
000320 cc c3 1e bf 50 96 1b bf 39 a0 c2 be 67 ab 07 3f
       -0.6201751 -0.60776234 -0.38012865 0.52995914
000330 e4 76 8b be 57 8c ec 3d 65 fb b4 3e 3f 4c e8 3d
       -0.27239144 0.11550205 0.3534805 0.11342668
000340 3a 2e 2b 3e 87 af 36 bf cb 5f 68 3f ac 22 14 3e
       0.16716853 -0.71361583 0.9077117 0.14466351
000350 a0 42 47 3e 97 c9 17 bd 96 2a 4f 3e b9 34 bb 3d
       0.19459009 -0.037057485 0.20231089 0.091409154
000360 04 27 c5 3b 8c 32 60 3f 30 43 8c 3e 8f b9 71 3e
       0.006016614 0.8757713 0.2739501 0.23605941
000370 0c 2a 1d bc 71 eb 96 be 7f 5c 97 bd c6 75 bb 3e
       -0.009592544 -0.29476503 -0.07390689 0.36613292
000380 bd 90 78 3f 3a 32 a6 3e 19 cb c3 3e 19 ee 55 3d
       0.97095853 0.32460195 0.3824089 0.05222902
000390 f2 99 0d be bb 67 61 be c9 fe 83 3e dc ba 6a 3f
       -0.13828257 -0.22012226 0.25780323 0.91691375
0003a0 e4 a2 ee 3e 30 15 06 3f 9d d3 a3 3e ad af 3e bd
       0.4660865 0.5237608 0.31997386 -0.046554256
0003b0 33 51 14 bc dc e2 bc bd 43 75 8f 3f 60 03 80 3f
       -0.0090525625 -0.092229575 1.120766 1.000103
0003c0 9d 09 89 3f fb 26 83 3f 67 8a 72 3f a7 96 51 3f
       1.0706059 1.0246271 0.94742435 0.818705
0003d0 b1 d8 0d 3f 6d 16 15 bf cf 90 e2 3e 20 bf 85 3e
       0.5540877 -0.58237344 0.44251105 0.2612238
0003e0 3e 2f ee 3e cf 16 00 3f 0a c5 c1 3e 72 f2 89 3e
       0.46520418 0.50034803 0.3784564 0.26942784
0003f0 9e f3 35 bf 3b 63 49 3e 2c 7f 18 3f 52 3c 0f 3f
       -0.71074855 0.1966676 0.5956905 0.55951416

decoder.3.weight f4 [8, 24, 3, 3]
000000 42 6b 75 3d 49 99 95 bd a6 9d 86 bd 75 e5 1e 3e
       0.059916742 -0.073046274 -0.06573038 0.15517218
000010 03 bc 78 bc c4 c2 94 be 0c bb 49 3e d7 6b 0e 3e
       -0.015181544 -0.29054844 0.19700259 0.13908325
000020 9c 31 16 be f7 0f 6f 3d ad 86 17 3e ef 60 db 3d
       -0.14667362 0.058364835 0.14797468 0.10711848
000030 69 df 30 3d d6 fa ac 3e e5 c5 8c 3e eb 5f 8b bc
       0.04318181 0.33785123 0.27494732 -0.01701351
000040 de 08 2b 3e 88 c6 11 3e 2b c8 ab 3e 29 74 03 3f
       0.16702601 0.1423589 0.33551154 0.5134912
000050 de 4f a7 3e 40 66 6c 3e af b5 0f 3f 9c b8 f0 3e
       0.3267812 0.2308588 0.561366 0.47015846
000060 46 c6 e6 3b 27 2c 34 3e 0f 87 01 3e bf 0e 09 3f
       0.007042679 0.17594968 0.12649177 0.53538126
000070 94 f2 5d 3f ba 46 c5 3e 2f 4c 50 3f 25 f5 bf 3f
       0.8669827 0.38530523 0.81366247 1.4996687
000080 38 f1 5f 3f 49 98 f1 3e 5c 04 68 3f 4d 0d 05 3f
       0.87477446 0.47186497 0.9063165 0.5197342
000090 26 4e 76 bc 11 5b 02 3f 8b 16 b4 3e 84 69 67 3e
       -0.0150332805 0.50920206 0.3517345 0.22598845
0000a0 5a d3 70 3f d8 10 3f 3f 06 a6 86 3e fa 15 13 3f
       0.94072497 0.74635077 0.2629854 0.5745541
0000b0 08 14 d7 3e fd 81 b5 bd 3a 28 89 bd 02 08 1d bd
       0.4200747 -0.08862684 -0.06697126 -0.038337715
0000c0 fa 97 37 bd ec f5 92 3d 67 24 62 3d c0 6e ec 3c
       -0.04482267 0.07175812 0.055210497 0.028861403
0000d0 a4 7a 0a 3e 1b 67 2c 3d b3 25 82 3e 30 60 b3 3e
       0.13523346 0.042090517 0.25419387 0.35034323
0000e0 86 4e 42 3e eb 9a 08 3f 22 c3 27 3f d0 14 be 3e
       0.18975267 0.53361386 0.65532124 0.37125254
0000f0 7b 6c e0 3e 8a 46 fe 3e f5 03 80 3e fa 3d 82 be
       0.43832764 0.49663192 0.2500302 -0.2543791
000100 2b 6f ba be e9 6f 39 be 4c 6c 04 bf 08 06 46 bf
       -0.3641294 -0.18109097 -0.5172775 -0.7735295
000110 7e f1 cf be 6b 4e 8c be 90 a7 f3 be d9 e5 95 be
       -0.4061393 -0.27403578 -0.47588778 -0.29276922
000120 28 bc e3 be c7 2c b4 be 7d ba 50 be 1b 6a 11 bf
       -0.4447949 -0.35190412 -0.2038364 -0.5680253
000130 72 f2 df be b4 1b 0f bf a0 ea 97 be 69 b2 ca be
       -0.4373966 -0.55901647 -0.29671192 -0.3958924
000140 9d 28 11 bf 81 e6 a4 bd f9 80 c1 bc de fe eb 3c
       -0.56702596 -0.08051778 -0.02362107 0.028808054
000150 7c 40 1d bd 19 f2 f8 3c 03 90 6b 3d d3 3f d1 3c
       -0.038391575 0.030388879 0.057510387 0.02554313
000160 84 cc d5 bc 35 0d 92 3d 6a b6 0b be 9e c6 22 3d
       -0.026098497 0.07131425 -0.13643804 0.039740197
000170 e6 af 79 3d 77 3b 1d be 59 2c 21 bd dd 36 0c 3e
       0.060958765 -0.15354715 -0.039348934 0.13692804
000180 4e af aa bb 97 04 cd bd cb f3 c6 bc 24 02 59 3c
       -0.005208886 -0.10010641 -0.024286171 0.013245139
000190 37 55 5b bd d2 04 7c bb 1d c1 e3 3d 5e 8c 94 bd
       -0.053548064 -0.0038455022 0.11120818 -0.072533354
0001a0 82 7d 6b bd ad cd 9d 3d b4 8f 4e 3c db 43 d8 bc
       -0.05749274 0.07705245 0.012607504 -0.026399544
0001b0 7d 0f 1d bd 85 b8 5e 3e 8c d4 2e 3e 26 4a 96 3d
       -0.03834485 0.21750076 0.17073268 0.073383614
0001c0 f6 33 3a 3e e0 c7 3e 3d 8f 42 dc 3d 66 ca 40 3e
       0.18183884 0.046577334 0.107548825 0.18827209
0001d0 06 6a 3a 3e 11 99 8d 3e fb 4f e1 3e b2 c7 50 3e
       0.18204507 0.27655843 0.44006333 0.20388678
0001e0 9a 6c 09 3c 6d fb 03 bd ca a6 7e 3e 49 5c a6 bd
       0.008387709 -0.0322222 0.24868312 -0.08123071
0001f0 2f a2 21 be 95 3f 7b 3c bf 71 10 be b3 20 f1 be
       -0.15784524 0.015334983 -0.1410589 -0.4709526
000200 d2 af c4 be be b6 4e be a0 3b 88 be 38 3f 66 be
       -0.3841539 -0.20186898 -0.2660799 -0.22485054
000210 30 8b 1b be be d6 1c bd ca 15 fa 3d a5 3a c5 3b
       -0.15189815 -0.03829073 0.12211187 0.006018954
000220 c1 67 56 3e cd 3a 06 3e 50 54 38 be 2d 88 07 bb
       0.20938016 0.13108368 -0.18000913 -0.0020680532
000230 9e b0 e2 3c 4a cb 39 be ab 21 61 be 63 c0 a9 bd
       0.027672108 -0.18143955 -0.219855 -0.08288648
000240 af c7 15 bf ce 04 f7 be 8a 6c 8e be f9 d9 0d be
       -0.5850782 -0.48245853 -0.27817184 -0.13852681
000250 83 fd 8e bd 19 a0 ca bd 88 93 82 be b5 75 b0 be
       -0.06981947 -0.098938175 -0.25503182 -0.34464803
000260 cd 08 5d be 20 67 85 3d e7 c6 5c 3d 1c ee 16 3e
       -0.21585388 0.0651381 0.053900626 0.14739269
000270 b3 41 0d 3d b7 99 aa bd b4 c5 05 bd 60 82 32 bd
       0.034486484 -0.083301 -0.032659248 -0.043581367
000280 6b c5 04 be c5 8f f9 bd cf 0d df be fc 23 1e bf
       -0.12965934 -0.12185625 -0.43565223 -0.6177366
000290 f2 36 55 be c4 b1 2e bf 66 ed 8e bf 3d c6 31 bf
       -0.20821741 -0.6824 -1.1166198 -0.6944311
0002a0 91 a4 94 be aa 70 35 bf 22 98 f6 be 28 77 85 be
       -0.29031804 -0.70875037 -0.48162943 -0.26067472
0002b0 f0 0c 98 be ad f3 2c be 35 8d 82 be e0 e4 ec bd
       -0.2969737 -0.1688983 -0.25498357 -0.11567092
0002c0 9b 25 b3 bc a8 81 ec bd d0 2e a1 3d 8b a9 26 3e
       -0.021868518 -0.115481675 0.07870257 0.16275613
0002d0 89 a1 9e 3e 24 c5 b0 3d d4 5b 67 bd e3 bd 2a 3f
       0.30982617 0.086313516 -0.05648406 0.66695994
0002e0 39 b6 86 3e 7c d4 81 be de a5 14 3f 04 8a b2 3e
       0.263109 -0.25357425 0.58065593 0.34870923
0002f0 9e 6a 82 be de 9a 25 3e cd 08 b7 3e 6d 70 04 3e
       -0.25471967 0.16172358 0.35748902 0.12933512
000300 0f da 6a 3d fd db 7a 3e 9f 33 42 3e 36 14 6d 3d
       0.057336863 0.24497981 0.18965004 0.057880603
000310 be 83 13 3e 1c 2c 1e 3e 09 2d 92 3d bf ed 30 3d
       0.14405724 0.15446514 0.07137496 0.043195482
000320 45 0a 58 bd 4d 34 e9 3d 95 64 37 3e eb 69 94 3c
       -0.05274417 0.11386929 0.17909463 0.018116912
000330 bb f5 ce 3d da 52 ad 3d 95 27 fb bb ae 3d 0b 3d
       0.10105463 0.08463068 -0.0076646307 0.03399437
000340 41 01 21 3e 6e ec 0c 3e aa bb 00 3d 2b c2 7d 3e
       0.15723135 0.13762066 0.03142897 0.247811
000350 a4 c8 56 3e 4c a5 a9 3d 8e 6d 3c 3e 3f 49 bf 3d
       0.20974976 0.08283481 0.18401167 0.093401425
000360 54 9d e1 3c 61 d0 60 3d 8d 28 d8 3d 40 00 90 bd
       0.02754084 0.054886226 0.105546094 -0.07031298
000370 63 f2 15 be cb bb 5d 3e 57 8b 23 3c aa 7d 9f 3d
       -0.14643244 0.21653669 0.009981952 0.077876404
000380 a3 6e 26 3e 3d ac 0f 3e d0 ef f9 3b 7c 6e 52 bd
       0.16253142 0.14030547 0.007627465 -0.051374897
000390 5c 90 f2 3d 11 0d 96 be b9 1d 89 be 8f 89 d3 3d
       0.118439406 -0.29306844 -0.2678049 0.103289716
0003a0 87 eb ef bc 81 35 50 be d3 43 75 be 45 b2 8a be
       -0.029287113 -0.2033291 -0.23951654 -0.27089134
0003b0 cd c9 56 be 21 dd 37 be fc 39 10 be 3e b1 1b be
       -0.20975418 -0.17955448 -0.1408462 -0.15204331
0003c0 4f 87 bc bd c2 1a 7c bc d2 15 6c 3c c0 9a 12 3e
       -0.092054956 -0.015387239 0.014409499 0.14316845
0003d0 9a 47 e5 3e ea c4 b6 3e 74 20 79 3e c6 7d 5e 3f
       0.4478119 0.35697109 0.24328786 0.86910665
0003e0 ce 03 3a 3f 44 e7 88 3d fb 79 02 3f f6 ed da 3e
       0.72662055 0.066847354 0.5096738 0.42759675
0003f0 88 b1 35 3e 90 3a d3 3e 27 00 c4 3e 0a a2 92 bd
       0.17743504 0.41255617 0.38281366 -0.07159813

decoder.3.bias f4 [24]
000000 46 38 d5 3c e3 57 b7 3e 25 f1 d0 bd ff 9a ef 3e
       0.02602781 0.3580924 -0.10202245 0.4679794
000010 8a d7 46 be 57 e4 e6 be aa 8b 51 3d 95 58 48 3f
       -0.19418159 -0.45096084 0.051158585 0.78260165
000020 92 8a fb 3d c9 7f b6 be 28 cc 17 3f 06 18 cc 3d
       0.122822896 -0.35644367 0.5929589 0.099655196
000030 b4 39 7f 3c 5f bb f7 be bd 9e d6 3d db 55 8f bd
       0.015577722 -0.4838514 0.10479496 -0.069987975
000040 a5 05 68 3c 63 2a 62 be 2b 62 ad bd 1d da 73 be
       0.014161502 -0.22086482 -0.0846599 -0.23813672
000050 9c e9 ed be ac d5 2f 3f 91 45 2c 3c 18 bf d8 3d
       -0.46467292 0.6868541 0.010514633 0.10583323
