model/autoencoder_model_super.pth (torch, 117682 bytes, 12 tensors)

encoder.0.weight f4 [24, 40, 3, 3]
-0.02905265 -0.0051565664 0.0328576 0.05749353 0.030260153 0.066531196 -0.008139005 0.010938586
0.046613235 -0.028314356 -0.032591324 -0.0360565 0.075173475 0.04822033 0.07320663 0.08893424
0.021614183 0.08234427 0.030043408 -0.055414114 0.013688432 0.017331911 -0.012246028 -0.006108241
0.028724957 0.05684031 0.031144874 0.020735182 -0.046567313 0.008192514 -0.02119968 -0.02555979
0.043284748 0.020436248 0.0029965346 0.04647435 -0.00246216 -0.0023624946 0.015476669 0.07602526
-0.0017588323 0.051990137 0.08019016 0.038639795 0.00057650363 -0.025896912 -0.059426762 -0.018484833
0.0079635065 0.036180083 0.046862714 0.021680843 -0.012813439 -0.016911257 -0.018046383 0.007422332
0.025561774 0.06228275 0.02725767 -0.016528118 0.02331934 -0.02104149 0.059475683 -0.031448197
-0.07493369 -0.0018204519 0.000622921 0.010309996 0.026606506 0.069085255 -0.018359581 -0.01657616
-0.05191261 -0.040452372 -0.062324524 -0.0028979264 0.058065563 0.06548594 0.05801004 0.054143246
0.013414062 -0.070827484 -0.04496134 -0.04156245 0.03900819 0.024751713 0.053986706 0.019445537
0.023524944 -0.0127115445 -0.051709805 -0.058333658 -0.00276683 0.06537461 0.026902579 0.02633535
0.06191002 -0.0035475239 0.074366316 -0.10029299 -0.0862339 -0.08442725 0.039160665 -0.015406885
-0.0077397637 0.014557669 0.06432058 -0.013163563 -0.037177574 -0.05394506 -0.017008591 -0.046973728
-0.049431898 -0.018683156 -0.023793757 0.03885586 -0.0020368746 -0.09676837 -0.01140908 -0.08153467
0.04540971 0.044094708 -0.03207081 0.021826899 -0.04307106 -0.036830254 -0.064300105 -0.018512817
-0.07665102 0.04692251 0.02850308 0.025088659 0.011662116 0.03569675 0.046067018 -0.06609361
-0.10809511 -0.051060967 -0.018278642 -0.032099053 -0.03276869 0.027256351 0.003823119 0.0067772283
-0.10580487 -0.014096584 -0.08448684 0.0087980535 -0.022410385 0.013279563 -0.046640266 -0.03308372
-0.011715827 -0.08757235 -0.10436442 -0.040094666 -0.048339766 0.02546708 0.007847603 -0.051357053
-0.05148901 0.040816 -0.04713483 -0.012016741 -0.021841925 0.01666363 0.04036625 0.0129846865
0.021575185 0.035263114 0.0030800882 -0.08153661 -0.063910484 -0.08201181 -0.0026123312 -0.007859013
0.004513991 -0.02971329 0.019468388 0.005800404 -0.06543778 -0.046697363 -0.06839569 -0.17704691
-0.20889579 -0.24587902 -0.22717498 -0.23070757 -0.21120799 -0.029409396 -0.0324748 -0.017831255
0.0008633909 0.004491608 0.019781083 0.041589282 0.04927003 0.0335364 -0.004864447 -0.07055417
-0.00948985 -0.04550505 -0.017628677 0.047753543 -0.0136997895 -0.03244806 0.054166645 -0.100853994
-0.054871947 -0.010417998 0.048007827 0.014556671 0.046026267 0.035012178 -0.024497142 0.039302975
-0.063143775 -0.09628879 -0.012197049 0.032313492 0.037533272 -0.041459594 0.046327665 0.01253129
0.028891997 -0.116794184 -0.059867136 -0.077861205 0.02397403 -0.018800067 -0.0051321676 -0.019100718
-0.010325251 -0.02183433 -0.035771858 -0.0445237 -0.010756161 0.028972795 -0.051209517 -0.019498836
0.045508973 -0.029505422 -0.03291675 -0.05712662 -0.093816005 -0.06288909 0.024996739 -0.024835661
0.023195881 -0.005104883 -0.00096956396 -0.017192107 -0.052298643 -0.089389265 -0.036392484 0.043584526
00000000: d3ff edbc 6af8 a8bb b195 063d 567e 6b3d
00000010: 24e4 f73c 8241 883d 7659 05bc c137 333c
00000020: 85ed 3e3d 82f3 e7bc 7b7e 05bd fbaf 13bd
00000030: 8df4 993d ae82 453d 5ced 953d 2823 b63d
00000040: 3a10 b13c 1da4 a83d 981d f63c e9f9 62bd
00000050: 7245 603c a7fb 8d3c 90a3 48bc a427 c8bb
00000060: 9a50 eb3c 63d1 683d 8923 ff3c d4dc a93c
00000070: 5ebd 3ebd e539 063c f4aa adbc c462 d1bc
00000080: 594b 313d eb69 a73c 8261 443b e35b 3e3d
00000090: 315c 21bb 15d4 1abb db91 7d3c 22b3 9b3d
000000a0: 9e88 e6ba 9cf3 543d bd3a a43d c344 1e3d
000000b0: 8120 173a c325 d4bc 7a69 73bd 816d 97bc
000000c0: 5e79 023c 9131 143d 1ef3 3f3d 069c b13c
000000d0: 75ef 51bc 7a89 8abc 02d6 93bc 0937 f33b
000000e0: ed66 d13c 321c 7f3d 7a4b df3c fa65 87bc
000000f0: 3308 bf3c 345f acbc c69c 733d d3cf 00bd
00000100: d676 99bd 3b9c eeba 854b 233a 42eb 283c
00000110: e3f5 d93c 927c 8d3d d566 96bc baca 87bc
00000120: 51a2 54bd 63b1 25bd 0048 7fbd 23eb 3dbb
00000130: 28d6 6d3d 7e1d 863d f09b 6d3d 4fc5 5d3d
00000140: a7c6 5b3c 000e 91bd 6229 38bd 633d 2abd
00000150: 0dc7 1f3d 1bc4 ca3c 2a21 5d3d 3f4c 9f3c
00000160: 62b7 c03c 1544 50bc a9cd 53bd 46ef 6ebd
00000170: b453 35bb 20e3 853d cc62 dc3c 3bbd d73c
00000180: 5c95 7d3d 937d 68bb 5e4d 983d 6966 cdbd
00000190: 669b b0bd 32e8 acbd ef66 203d 296d 7cbc
000001a0: d89d fdbb 4a83 6e3c 82ba 833d fcab 57bc
000001b0: 8347 18bd 7ff5 5cbd 9a55 8bbc 8667 40bd
000001c0: 1a79 4abd 6b0d 99bc 20eb c2bc 5227 1f3d
000001d0: 167d 05bb 7f2e c6bd 26ed 3abc a6fb a6bd
000001e0: 88ff 393d a79c 343d af5c 03bd 53ce b23c
000001f0: 486b 30bd 52db 16bd c6af 83bd 31a8 97bc
00000200: 36fb 9cbd d131 403d 4b7f e93c bb86 cd3c
00000210: 7612 3f3c c136 123d c5b0 3c3d 165c 87bd
00000220: f860 ddbd 4e25 51bd 17bd 95bc 4c7a 03bd
00000230: 7638 06bd b648 df3c 4b8d 7a3b 8313 de3b
00000240: 39b0 d8bd 5cf5 66bc 7007 adbd b625 103c
00000250: fc95 b7bc 8692 593c dd09 3fbd cb82 07bd
00000260: bdf3 3fbc 2259 b3bd 03bd d5bd 4e3a 24bd
00000270: ebff 45bd 56a0 d03c 3c93 003c c65b 52bd
00000280: 24e6 52bd ae2e 273d 7410 41bd dde1 44bc
00000290: d6ed b2bc 2a82 883c 1557 253d b9bd 543c
000002a0: 71be b03c 0e70 103d 4edb 493b abfc a6bd
000002b0: 80e3 82bd cff5 a7bd a533 2bbb 17c3 00bc
000002c0: 1aea 933b 4969 f3bc 2b7c 9f3c 5111 be3b
000002d0: 3e04 86bd bc45 3fbd 0a13 8cbd c94b 35be
000002e0: c7e8 55be b6c7 7bbe 8fa0 68be 9b3e 6cbe
000002f0: e846 58be f9eb f0bc 4c04 05bd da12 92bc
00000300: 2f55 623a 572e 933b f00b a23c 8659 2a3d
00000310: 5fcf 493d 775d 093d f065 9fbb b47e 90bd
00000320: 517b 1bbc 8163 3abd 046a 90bc 3899 433d
00000330: 1575 60bc 42e8 04bd d8dd 5d3d 8a8c cebd
00000340: 68c1 60bd 40b0 2abc dba3 443d 1a7f 6e3c
00000350: 0a86 3c3d ee68 0f3d 3bae c8bc 28fc 203d
00000360: 8651 81bd 0f33 c5bd 22d6 47bc 275b 043d
00000370: 7dbc 193d 89d1 29bd 14c2 3d3d 0a50 4d3c
00000380: e9ae ec3c ca31 efbd 3e37 75bd b275 9fbd
00000390: 2f65 c43c 9902 9abc be2b a8bb 1c79 9cbc
000003a0: 3e2b 29bc e9dd b2bc 8385 12bd 7c5e 36bd
000003b0: 9c3a 30bc 5b58 ed3c 12c1 51bd 06bc 9fbc
000003c0: 9e67 3a3d 5bb5 f1bc b7d3 06bd 9afd 69bd
000003d0: 9b22 c0bd ffcb 80bd f6c5 cc3c 2874 cbbc
000003e0: 4a05 be3c dd46 a7bb 562a 7eba 76d6 8cbc
000003f0: 1a37 56bd b811 b7bd 4910 15bd b085 323d

encoder.0.bias f4 [24]
-0.31953177 -0.050596897 -0.0077824504 -0.21339315 -0.0021654402 -0.39792126 0.02747616 0.036707174
0.015066382 0.023919776 -0.016381284 -0.009407099 0.04622615 0.015746964 -0.033879217 -0.014068455
-0.1478845 -0.07974735 0.0023408374 -0.035143092 0.03700467 -0.02835697 -0.0036359823 0.0367367
00000000: ab99 a3be b13e 4fbd ed03 ffbb bc83 5abe
00000010: 0fea 0dbb 56bc cbbe af15 e13c 435a 163d
00000020: fcd8 763c 68f3 c33c 0b32 86bc 3c20 1abc
00000030: a257 3d3d c7ff 803c efc4 0abd 617f 66bc
00000040: 096f 17be 9452 a3bd bc68 193b 34f2 0fbd
00000050: 3592 173d e04c e8bc a949 6ebb 3979 163d

encoder.3.weight f4 [8, 24, 3, 3]
0.30384943 0.19081025 0.28166986 -0.03578882 -0.06656103 0.012817296 0.019271124 -0.043662716
-0.05214976 0.024347072 0.012643076 0.027144661 0.04616588 0.04265571 0.05010897 0.043874256
-0.05338967 0.036025763 0.029691124 0.00026814546 -0.01954234 -0.017853841 -0.06015431 0.01256081
0.027438557 -0.036088597 -0.008467972 -0.06190342 -0.043765005 0.00028534123 0.03964513 -0.015091905
0.046584707 0.0073490147 0.047687124 0.0072775693 -0.018686805 -0.051554218 0.032867152 0.057161216
-0.0664465 -0.013002988 -0.05775926 0.008882183 0.014686634 0.05743884 0.09377323 0.09554075
-0.009459028 -0.05776234 -0.06414828 -0.12478094 -0.087061144 -0.13716574 0.040076513 0.026322557
-0.009620545 0.03455919 -0.020871058 -0.035126988 0.045932572 0.01930128 -0.07269642 0.013949579
-0.006739219 -0.024473349 0.023682632 -0.04747002 -0.05073147 0.06105465 -0.02986121 0.05027701
-0.04234715 0.06022867 0.018458765 -0.026410554 -0.0016415132 -0.03638715 -0.00020677975 -0.01248383
0.01138703 -0.032698877 0.015766341 0.058455463 -0.00040893766 -0.042583983 -0.039861657 0.0034795105
-0.0042855376 -0.056627966 -0.06862136 0.058337897 0.006133007 0.035831735 -0.027047388 0.011677453
-0.037163194 -0.0572566 0.047741666 -0.004939375 -0.04969328 -0.03256753 0.054859005 0.026464047
-0.0369537 -0.037729878 0.01002304 0.0488879 0.0074702254 0.023777865 -0.06299744 0.07185492
-0.049483754 0.04282128 -0.005821949 0.056972563 0.033931784 -0.045590453 0.050166834 -0.041337233
0.0036948016 -0.061379805 0.04712551 0.046769764 0.04073696 -0.050120275 -0.06095247 0.064936705
-0.046903558 0.06367386 -0.003953601 -0.035668638 0.008939024 0.025226753 0.06443548 -0.020793285
0.019817613 -0.040424887 -0.04152129 0.021713264 -0.013372959 -0.021299725 -0.064252056 -0.019362487
0.049902327 0.06620359 -0.05995076 0.030767662 -0.06802243 -0.07190997 0.044883892 -0.046467688
0.052405763 -0.0314841 -0.027585564 0.03067214 -0.05031066 0.015749265 0.05734535 0.083446726
0.025381187 -0.05365307 -0.071374096 0.013274923 -0.060784467 0.05880784 0.0015665985 0.022182576
-0.0065788087 0.016103582 0.056727808 0.17074223 0.099325374 0.42452434 0.041243695 0.23280518
0.4500728 0.13495833 0.22913696 0.26043636 0.0019584084 0.025150776 0.016847214 0.008261108
0.022039091 0.022833414 0.06028525 0.046407923 0.023778744 0.023665378 -0.00030347923 0.05393258
0.002071397 -0.022458332 0.041020043 -0.0017163843 -0.03508428 0.03608257 0.026211442 0.041362993
-0.045766387 -0.04440301 -0.03795189 -0.048124835 -0.03935537 -0.044905096 0.046991866 0.013192384
-0.035796445 0.032746542 -0.03733052 0.025862508 -0.0025023674 0.000910129 0.04329005 0.04764336
0.022352818 -0.07240584 -0.012512558 -0.058119804 -0.050346717 0.007204621 8.647041e-06 0.035636134
-0.004873644 0.028871035 0.0004876838 -0.030043503 0.023559073 0.00026586777 -0.05179963 -0.011729564
0.00088275434 0.028191343 0.0030772004 -0.0038563656 -0.020023726 -0.05652492 0.033063836 0.0009962224
-0.048146646 -0.051184457 -0.06854567 -0.06890952 0.008042651 0.030051852 -0.0009838651 -0.08894344
-0.07912803 -0.0021116436 0.015739715 -0.07739668 -0.008927433 0.031900954 0.0039075227 -0.021957662
00000000: 2792 9b3e c363 433e 0837 903e 4c97 12bd
00000010: 2651 88bd a3ff 513c 7ade 9d3c add7 32bd
00000020: fd9a 55bd 8373 c73c e724 4f3c 7b5e de3c
00000030: 6f18 3d3d c1b7 2e3d 103f 4d3d 7eb5 333d
00000040: 20af 5abd c08f 133d cd3a f33c e095 8c39
00000050: 4217 a0bc 3842 92bc 5e64 76bd dbcb 4d3c
00000060: d3c6 e03c a3d1 13bd 40bd 0abc 718e 7dbd
00000070: ef42 33bd da99 9539 ef62 223d 0a44 77bc
00000080: 9bcf 3e3d 01d0 f03b 9353 433d ad78 ee3b
00000090: 1215 99bc 842a 53bd b59f 063d e121 6a3d
000000a0: 1a15 88bd 7c0a 55bc f994 6cbd 9386 113c
000000b0: 35a0 703c fd44 6b3d 2e0c c03d deaa c33d
000000c0: 0afa 1abc 3498 6cbd 2c60 83bd 268d ffbd
000000d0: 1d4d b2bd 2d75 0cbe 4527 243d 67a2 d73c
000000e0: 7e9f 1dbc f08d 0d3d c8f9 aabc 51e1 0fbd
000000f0: cb23 3c3d b81d 9e3c dce1 94bd c68c 643c
00000100: abd4 dcbb 557c c8bc 1402 c23c ec6f 42bd
00000110: cdcb 4fbd 7114 7a3d 7f9f f4bc 44ef 4d3d
00000120: 3574 2dbd 56b2 763d d636 973c f25a d8bc
00000130: 0b28 d7ba b10a 15bd 04d3 58b9 fa88 4cbc
00000140: aa90 3a3c 42ef 05bd 6a28 813c ff6e 6f3d
00000150: af66 d6b9 8b6c 2ebd fa45 23bd 8008 643b
00000160: b26d 8cbb baf2 67bd 5b89 8cbd b8f3 6e3d
00000170: 64f7 c83b 4cc4 123d 7c92 ddbc ca52 3f3c
00000180: 6f38 18bd e685 6abd c48c 433d 7bda a1bb
00000190: 2e8b 4bbd 8865 05bd d6b3 603d 21cb d83c
000001a0: c35c 17bd a58a 1abd ad37 243c ae3e 483d
000001b0: cbc8 f43b ccc9 c23c cd04 81bd ac28 933d
000001c0: 7aaf 4abd 5e65 2f3d 0cc6 bebb 105c 693d
000001d0: 0efc 0a3d 0ebd 3abd bd7b 4d3d 3b51 29bd
000001e0: 7c24 723b 6469 7bbd ae06 413d a791 3f3d
000001f0: ccdb 263d eb4a 4dbd 4ca9 79bd 89fd 843d
00000200: f21d 40bd 7167 823d 358d 81bb 4719 12bd
00000210: fc74 123c 56a8 ce3c c0f6 833d ae56 aabc
00000220: 8c58 a23c 9194 25bd 3a12 2abd 04e0 b13c
00000230: 411a 5bbc c37c aebc 9596 83bd 149e 9ebc
00000240: 6266 4c3d bf95 873d ee8e 75bd 770c fc3c
00000250: 584f 8bbd 8945 93bd 2cd8 373d e754 3ebd
00000260: 6da7 563d 79f5 00bd 1ffb e1bc 2444 fb3c
00000270: 8d12 4ebd 9a04 813c f5e2 6a3d 1ee6 aa3d
00000280: 35ec cf3c 52c3 5bbd 952c 92bd 107f 593c
00000290: 22f9 78bd 7de0 703d 5356 cd3a 3cb8 b53c
000002a0: 0c93 d7bb a9eb 833c 6b5b 683d 0dd7 2e3e
000002b0: 1a6b cb3d 415b d93e 26ef 283d 7b64 6e3e
000002c0: f16f e63e 8432 0a3e e1a2 6a3e ea57 853e
000002d0: a458 003b 0009 ce3c 2b03 8a3c 9959 073c
000002e0: 538b b43c 240d bb3c abed 763d 3c16 3e3d
000002f0: a4cb c23c e5dd c13c 4b1c 9fb9 69e8 5c3d
00000300: 46c0 073b 89fa b7bc a204 283d 4df8 e0ba
00000310: 89b4 0fbd 51cb 133d 61b9 d63c 3e6c 293d
00000320: 8975 3bbd eedf 35bd 7173 1bbd 8c1e 45bd
00000330: 1933 21bd 68ee 37bd 8b7a 403d de24 583c
00000340: 4b9f 12bd 3d21 063d e3e7 18bd 9cdd d33c
00000350: c2fe 23bb b995 6e3a e850 313d af25 433d
00000360: 421d b73c 8349 94bd 7901 4dbc 080f 6ebd
00000370: 5c38 4ebd be14 ec3b c212 1137 32f7 113d
00000380: 17b3 9fbb f382 ec3c d0af ff39 cb1d f6bc
00000390: f5fe c03c 2b64 8b39 d92b 54bd 5b2d 40bc
000003a0: a468 673a 88f1 e63c dbaa 493b 14bb 7cbb
000003b0: cc08 a4bc ad86 67bd f26d 073d ad93 823a
000003c0: 6b35 45bd cba6 51bd ac61 8cbd 6f20 8dbd
000003d0: 53c5 033c 4d2f f63c 09f5 80ba fa27 b6bd
000003e0: e00d a2bd 8063 0abb 93f0 803c 2782 9ebd
000003f0: 5e44 12bc 93aa 023d ad0a 803b 8ee0 b3bc

encoder.3.bias f4 [8]
-0.26580048 -0.019753432 -0.30293664 -0.018752335 -0.16583063 0.018823689 -0.41341022 -0.038520273
00000000: 0017 88be f3d1 a1bc 831a 9bbe 7f9e 99bc
00000010: 81cf 29be 2334 9a3c 81aa d3be 6fc7 1dbd

encoder.7.weight f4 [20, 392]
0.033664875 -0.008168734 0.012407839 0.0044998415 0.03914841 -0.021490935 0.074598655 0.019592516
0.021603 -0.056611545 -0.06944602 0.0050326427 0.0009093261 0.10612457 -0.0787108 -0.040780526
-0.035245545 -0.046285562 0.0954238 0.064349554 0.061075278 -0.099007115 -0.01896826 0.0065754275
-0.0044334563 -0.026504984 -0.007528948 0.054452885 0.034420535 -0.034360588 -0.004008548 0.023504553
-0.006863507 -0.028745221 0.08413859 -0.018281216 0.031059485 0.111908145 0.08218863 -0.005891785
-0.028514411 0.011551035 -0.019013835 -0.046053693 -0.07822689 0.008565431 -0.03795873 0.010225178
0.010056324 -0.011601615 0.024476582 -0.0036753234 0.022428181 -0.028860481 -0.071299784 -0.0024784028
0.029097525 -0.03485003 0.00895535 0.004681369 -0.017133245 -0.0052177045 0.02188235 0.0045641
-0.0688812 -0.014260044 -0.060025956 0.030816905 0.028943488 -0.025396576 0.036319528 0.0022935274
-0.0006896392 0.02061392 0.007884294 -0.05597724 0.022703765 -0.056828137 0.016497945 -0.04733272
0.028011015 -0.058053784 -0.022131288 0.023470717 0.0034347104 -0.035623256 -0.01209147 -0.0013120996
-0.0285676 -0.033287495 -0.07090694 -0.05938213 -0.062612265 -0.057932608 -0.050241917 -0.011188296
-0.07527623 -0.034264896 0.012571129 -0.016532535 -0.016342103 -0.03380673 -0.04895259 -0.029984556
0.06510253 -0.0836876 -0.03201015 -0.092269935 -0.043793753 -0.05725395 -0.06922694 -0.023070425
-0.06469333 0.0077463654 -0.0537005 -0.030711917 -0.03189402 -0.06418276 0.05074555 0.026935432
0.025938727 0.0918548 0.059150193 0.051800054 -0.045977525 0.030323151 -0.10526935 0.024855537
0.018414844 0.025707081 -0.062390283 -0.12262581 0.048130598 -0.019157996 0.102857 0.10475156
0.027652979 0.009299634 -0.11396478 0.02920054 0.032985736 0.03887253 0.023303723 0.08448929
-0.018354312 -0.053967778 -0.033912987 0.0326892 0.04148243 0.0021816273 -0.03507377 0.003581436
0.035332434 -0.0021303222 -0.029817693 -0.015359034 0.004486773 0.02866052 -0.0012028685 -0.034535903
-0.004099053 0.016336361 -0.026312308 0.037850723 -0.042740993 -0.035968658 0.027177187 0.042822484
0.026426561 -0.039831582 0.010204183 0.034879163 -0.044032007 0.026168162 -0.028009016 0.035523828
0.014788821 0.047834974 -0.033650942 -0.0034155443 0.02906927 0.035185203 0.028814357 0.0059362454
0.012841375 0.0028858145 -0.012441951 -0.023905272 0.04644187 0.05258802 -0.0037167023 -0.037654635
0.00411761 0.01939019 -0.0059000286 -0.03710675 -0.012791007 0.07455217 0.042466726 0.009742214
0.01479298 0.027398543 0.09045003 0.047037676 0.032503568 0.035117354 -0.0027950027 0.062026795
-0.0024234538 0.004632386 0.0023311162 -0.0035989163 -0.007077527 0.06254148 0.08830275 0.009955775
0.0843576 0.021473287 -0.003077734 0.02330052 -0.003781456 0.014820401 0.07268497 0.017651718
0.032608125 -0.013226544 0.05532873 0.020552594 0.038721904 0.042504635 0.020097325 0.055483
0.0021866683 0.06551744 0.017933942 0.039456945 0.05354428 0.01409326 -0.0029969318 0.019178465
0.056214057 0.010258764 0.04189746 0.08034964 0.08404267 -0.05662441 -0.036295306 -0.073323525
-0.0014175592 -0.0049569462 -0.005828412 -0.018787388 0.010340381 0.21286726 0.008179376 -0.18878216
00000000: 2ee4 093d 27d6 05bc 404a 4b3c 6873 933b
00000010: 155a 203d c20d b0bc 2ec7 983d 7c80 a03c
00000020: c6f8 b03c 82e1 67bd b739 8ebd dee8 a43b
00000030: d75f 6e3a d757 d93d 2133 a1bd 7b09 27bd
00000040: a25d 10bd ee95 3dbd 8e6d c33d b3c9 833d
00000050: 122a 7a3d 3ec4 cabd 5363 9bbc af76 d73b
00000060: 8746 91bb fb20 d9bc 65b5 f6bb fd09 5f3d
00000070: 8cfc 0c3d b0bd 0cbd 235a 83bb 9f8c c03c
00000080: 45e7 e0bb 197b ebbc da50 ac3d 7dc2 95bc
00000090: 7670 fe3c 1930 e53d 8352 a83d e00f c1bb
000000a0: 0e97 e9bc 8d40 3d3c e7c2 9bbc cca2 3cbd
000000b0: 6b35 a0bd 0656 0c3c 9d7a 1bbd 8187 273c
000000c0: 48c3 243c b314 3ebc 1d83 c83c b2dd 70bb
000000d0: 4ebb b73c d16c ecbc 9f05 92bd b36c 22bb
000000e0: ef5d ee3c e8be 0ebd 76b9 123c 2b66 993b
000000f0: 055b 8cbc 47f9 aabb 9d42 b33c 728e 953b
00000100: 9611 8dbd f6a2 69bc c7dd 75bd bc73 fc3c
00000110: e51a ed3c 7b0c d0bc c9c3 143d 014f 163b
00000120: e7c8 34ba 86de a83c 202d 013c 6448 65bd
00000130: 3ffd b93c 9fc4 68bd b326 873c f4df 41bd
00000140: 5b77 e53c cec9 6dbd ad4c b5bc a945 c03c
00000150: e118 613b b1e9 11bd 4d1b 46bc c2fa abba
00000160: 9906 eabc 7858 08bd a837 91bd ad3a 73bd
00000170: dc3a 80bd be4a 6dbd 78ca 4dbd 1d4f 37bc
00000180: 6d2a 9abd 5959 0cbd 23f7 4d3c 3d6f 87bc
00000190: e0df 85bc ed78 0abd 8382 48bd 2ca2 f5bc
000001a0: 7a54 853d 6864 abbd 131d 03bd 05f8 bcbd
000001b0: 1461 33bd 1e83 6abd dbc6 8dbd 30fe bcbc
000001c0: f07d 84bd 39d5 fd3b 0ef5 5bbd 8f97 fbbc
000001d0: 4ea3 02bd 4072 83bd 91da 4f3d b2a7 dc3c
000001e0: 747d d43c 5f1e bc3d 7947 723d 4b2c 543d
000001f0: ee52 3cbd 4268 f83c 7597 d7bd d79d cb3c
00000200: bada 963c a897 d23c f48c 7fbd 3e23 fbbd
00000210: 9724 453d 3bf1 9cbc b1a6 d23d fc87 d63d
00000220: 8088 e23c 7e5d 183c 5e66 e9bd f935 ef3c
00000230: 0d1c 073d cd38 1f3d 73e7 be3c b908 ad3d
00000240: c85b 96bc 510d 5dbd 58e8 0abd 1ce5 053d
00000250: 7be9 293d a2f9 0e3b 83a9 0fbd 86b6 6a3b
00000260: beb8 103d e09c 0bbb 3c44 f4bc 75a4 7bbc
00000270: c805 933b 78c9 ea3c 92a9 9dba 8575 0dbd
00000280: 5951 86bb d5d3 853c e98c d7bc 5c09 1b3d
00000290: 2e11 2fbd df53 13bd b1a2 de3c a166 2f3d
000002a0: 847c d83c 7126 23bd 722f 273c 74dd 0e3d
000002b0: e85a 34bd 9d5e d63c 2a73 e5bc 6f81 113d
000002c0: d04c 723c 9bee 433d 92d5 09bd 53d7 5fbb
000002d0: ad22 ee3c 5c1e 103d 160c ec3c d684 c23b
000002e0: a164 523c ef1f 3d3b 53d9 4bbc fdd4 c3bc
000002f0: d539 3e3d 8966 573d eb93 73bb bf3b 1abd
00000300: 04ed 863b 2dd8 9e3c 0755 c1bb 3ffd 17bd
00000310: 5f91 51bc cfae 983d 97f1 2d3d cf9d 1f3c
00000320: 415e 723c e972 e03c de3d b93d 94aa 403d
00000330: 7622 053d 37d7 0f3d 5d2c 37bb cf0f 7e3d
00000340: cfd2 1ebb 45cb 973b a4c5 183b ccdb 6bbb
00000350: 9aea e7bb bf15 803d 12d8 b43d 8c1d 233c
00000360: adc3 ac3d bfe8 af3c cfb3 49bb bbe0 be3c
00000370: 4ed2 77bb 44d1 723c dcdb 943d 569a 903c
00000380: 1990 053d 25b4 58bc 61a0 623d ea5d a83c
00000390: dc9a 1e3d 5719 2e3d 25a3 a43c 2442 633d
000003a0: 354e 0f3b 022e 863d 34ea 923c 9b9d 213d
000003b0: 3f51 5b3d 6be7 663c 2c68 44bb 281c 9d3c
000003c0: b640 663d 6014 283c ac9c 2b3d 5a8e a43d
000003d0: 901e ac3d ffee 67bd 63aa 14bd a52a 96bd
000003e0: 65cd b9ba e16d a2bb 43fc bebb 02e8 99bc
000003f0: b46a 293c e0f9 593e ca02 063c 1c50 41be

encoder.7.bias f4 [20]
-0.2731612 -0.36601067 -0.2321379 0.22792673 0.3230082 -0.3253089 0.29155257 0.22422592
-0.12762694 -0.3913122 -0.020062497 -1.1689788 -1.1468492 -0.28467205 -1.0088954 -1.100763
-0.64584804 -0.3056832 -0.21764496 -1.098611
00000000: c9db 8bbe c065 bbbe 8fb5 6dbe a065 693e
00000010: 5561 a53e e38e a6be 6146 953e 7b9b 653e
00000020: a3b0 02be 135a c8be 1b5a a4bc 19a1 95bf
00000030: f4cb 92bf 89c0 91be 7c23 81bf cde5 8cbf
00000040: 4c56 25bf 8282 9cbe 52de 5ebe 499f 8cbf

decoder.0.weight f4 [392, 10]
-0.00054191746 0.2615489 0.7462983 -0.0009626536 -0.6704915 0.38281798 0.06566176 -0.0219528
0.010037308 0.4316529 0.0046333633 0.29874107 0.6366657 -0.0026738215 -0.4039304 0.08437651
-0.07381291 0.022355186 -0.004690408 0.2600255 0.000100263474 0.28638548 0.30581728 -8.98533e-05
-0.020774873 0.12576479 -0.05426107 0.062575884 0.014136765 0.10973038 -0.00422495 -0.34016013
0.4469645 -0.0053130127 -0.0779493 -0.20012957 -0.093774214 -0.06312301 -0.0040414403 -0.20011169
-0.0016815943 -0.5494788 0.41987062 0.0019071433 -0.42877024 -0.23869136 -0.2842053 0.016018493
-0.06712753 -0.40520498 0.0015552009 0.21230116 0.119204335 -0.002084744 -0.1914513 0.013852743
-0.07089128 -0.020196307 -0.026288792 0.124462225 -0.000848621 0.33089924 -0.060743626 -0.0020247514
-0.22043471 0.17125493 -0.29125157 0.000111944355 -0.006113482 -0.2130804 -0.000679211 0.3432076
0.6042403 0.00072214403 -0.4502741 0.58150923 0.010871021 -0.020655362 -0.0048984652 0.71747786
-0.0022153829 0.46263823 0.3276323 -0.0014581846 -0.11709503 0.13571449 -0.2140452 -0.03574098
0.032982714 0.18325311 -0.005428733 -0.21910186 0.0617129 0.054522123 0.3732205 0.018749634
-0.21033627 0.01555523 0.045220833 -0.1672363 -0.0063884314 0.2812489 0.48660326 0.004256715
-0.18228112 0.1257514 -0.14156719 0.06523886 -0.04830997 0.04731269 -0.013189439 -0.16801563
0.30324766 -0.00375426 0.25402611 0.43695852 -0.05496518 -0.04739314 0.009511806 0.1186578
0.0039942474 0.18830514 1.17065 0.0018518665 0.1728583 -0.09351882 -0.025903039 -0.035425715
-0.014559165 0.11324726 0.011625676 -0.95325875 0.08051344 0.0019617835 -0.15801343 -0.6214192
0.07950025 -0.056140244 -0.041913632 0.12397623 -0.0026560342 0.41697127 0.6409896 0.00078249554
-0.57265455 0.71729434 0.03147845 -0.0045544817 -0.00022155006 0.7179238 -0.00839357 0.20088123
0.24603312 0.004897832 -0.21236058 0.28339684 -0.021430386 -0.02104509 -0.031948913 0.21667378
-0.0033928442 0.30836797 0.34644964 0.0007172554 -0.38989472 0.25136188 -0.14633954 0.03142207
-0.008696342 0.30676457 0.004115592 0.16679548 0.5456208 -0.00244131 -0.00056391256 -0.1035659
-0.08071636 0.010391926 -0.011902345 0.31399983 -0.010295708 -0.5114371 0.5549218 0.0020690863
-0.023105117 -0.022278693 0.1260742 0.06704583 0.015267038 0.17219612 -0.0018905749 0.35387057
-0.20125939 0.00051661447 0.1778052 -0.36234996 0.021701304 0.041887052 0.06270869 -0.046311036
-0.002197928 -0.032574307 0.17927524 -0.0026015788 -0.16179778 0.68758804 -0.07720194 0.012674011
0.02647015 0.05373037 0.0037399582 0.37965977 0.57128775 -0.004427323 -0.564791 0.7416492
-0.09671687 0.06513711 0.036302805 0.59555066 -0.0023045046 0.24983786 0.15381739 0.004670222
-0.37316316 0.26341727 0.012251087 0.031088594 -0.033962328 0.38819975 0.0024883563 0.18262488
0.33392987 0.004322469 -0.2796782 -0.14443813 -0.081539184 0.04075636 -0.023153411 0.14854246
-8.557761e-05 0.32603294 0.45059586 -0.006901067 -0.23725666 0.22958936 -0.24363227 -0.005841793
0.05606472 0.3469154 -0.0057652257 0.1940187 0.1265452 -0.002965137 0.18960631 -0.11623667
00000000: 770f 0eba bde9 853e 680d 3f3f 975a 7cba
00000010: 55a5 2bbf b800 c43e ac79 863d 5cd6 b3bc
00000020: 8573 243c 9c01 dd3e 78d3 973b 97f4 983e
00000030: 86fc 223f 483b 2fbb f7cf cebe 97cd ac3d
00000040: 392b 97bd 3922 b73c feb1 99bb 1022 853e
00000050: 8b44 d238 1ea1 923e 1594 9c3e a06f bcb8
00000060: 1130 aabc 7cc8 003e db40 5ebd c927 803d
00000070: e49d 673c 52ba e03d 7371 8abb 7829 aebe
00000080: 88d8 e43e c818 aebb e2a3 9fbd c4ee 4cbe
00000090: b20c c0bd a346 81bd 0f6e 84bb 14ea 4cbe
000000a0: f168 dcba a5aa 0cbf 48f9 d63e 1cf9 f93a
000000b0: c687 dbbe 826b 74be 5b83 91be 3739 833c
000000c0: 297a 89bd 0777 cfbe e2d7 cb3a 7a65 593e
000000d0: 6721 f43d 33a0 08bb cf0b 44be 9ef6 623c
000000e0: 732f 91bd ba72 a5bc 985b d7bc 0de6 fe3d
000000f0: fe75 5eba a06b a93e 4fce 78bd b1b1 04bb
00000100: a3b9 61be 745d 2f3e ed1e 95be abc3 ea38
00000110: 9b53 c8bb c031 5abe 140d 32ba e8b8 af3e
00000120: 7eaf 1a3f 444e 3d3a 548a e6be cadd 143f
00000130: 5e1c 323c 6f35 a9bc 4e83 a0bb a1ac 373f
00000140: f52f 11bb ebde ec3e 6cbf a73e 8e20 bfba
00000150: 85cf efbd bdf8 0a3e aa2e 5bbe 2265 12bd
00000160: e218 073d b4a6 3b3e 83e3 b1bb 3d5c 60be
00000170: aac6 7c3d 9752 5f3d c216 bf3e d598 993c
00000180: 6462 57be 5ddb 7e3c 7b39 393d fe3f 2bbe
00000190: 0c56 d1bb dbff 8f3e 1024 f93e ea7b 8b3b
000001a0: e7a7 3abe fac4 003e fdf6 10be f49b 853d
000001b0: ade0 45bd f4ca 413d 8418 58bc 4a0c 2cbe
000001c0: 4743 9b3e 080a 76bb b60f 823e 07b9 df3e
000001d0: 2b23 61bd 4f1f 42bd 68d7 1b3c dc02 f33d
000001e0: 2de2 823b 10d3 403e dcd7 953f 54ba f23a
000001f0: c401 313e cc86 bfbd 9c32 d4bc 8e1a 11bd
00000200: 9089 6ebc 2eee e73d 9f79 3e3c c408 74bf
00000210: 3be4 a43d 4491 003b 46ce 21be 5415 1fbf
00000220: 07d1 a23d 50f3 65bd a1ad 2bbd 40e7 fd3d
00000230: dc10 2ebb 427d d53e e517 243f 6320 4d3a
00000240: 7d99 12bf 9aa0 373f 8cef 003d c33d 95bb
00000250: e44f 68b9 dbc9 373f 2f85 09bc cfb3 4d3e
00000260: 1bf0 7b3e fe7d a03b 0d75 59be 6419 913e
00000270: c78e afbc c166 acbc dddc 02bd bbdf 5d3e
00000280: 7b5a 5ebb 68e2 9d3e d961 b13e 3206 3c3a
00000290: 48a0 c7be 81b2 803e 08da 15be 6eb4 003d
000002a0: 1a7b 0ebc 3f10 9d3e 17dc 863b 6fcc 2a3e
000002b0: cead 0b3f 63fe 1fbb 88d3 13ba 5c1a d4bd
000002c0: 9e4e a5bd e642 2a3c 0e02 43bc 96c4 a03e
000002d0: 54af 28bc 8bed 02bf 5b0f 0e3f 8299 073b
000002e0: f146 bdbc ce81 b6bc 9819 013e 534f 893d
000002f0: 9922 7a3c 2e54 303e 2bcd f7ba 862e b53e
00000300: f116 4ebe 696d 073a 9112 363e ef85 b9be
00000310: efc6 b13c c291 2b3d 6a6d 803d a4b0 3dbd
00000320: 1d0b 10bb a36c 05bd ee93 373e 407f 2abb
00000330: 51ae 25be c505 303f 0d1c 9ebd a8a6 4f3c
00000340: eed7 d83c 6014 5c3d 161a 753b c462 c23e
00000350: ea3f 123f 1413 91bb 2596 10bf b9dc 3d3f
00000360: 7f13 c6bd 9b66 853d 40b2 143d 0276 183f
00000370: 2c07 17bb 7fd5 7f3e 4e82 1d3e a908 993b
00000380: 3e0f bfbe a1de 863e c9b8 483c 82ad fe3c
00000390: 151c 0bbd 1ec2 c63e b113 233b 0402 3b3e
000003a0: dbf8 aa3e 7fa3 8d3b fb31 8fbe 97e7 13be
000003b0: 04fe a6bd 24f0 263d 39ac bdbc 841b 183e
000003c0: 2178 b3b8 caed a63e 80b4 e63e 5922 e2bb
000003d0: 69f3 72be 7919 6b3e bd7a 79be 836c bfbb
000003e0: 1fa4 653d e59e b13e 38ea bcbb d7ac 463e
000003f0: 1195 013e be52 42bb 2828 423e 7e0d eebd

decoder.0.bias f4 [392]
0.3676194 0.22265129 0.21216992 -0.081390314 -0.28560817 -0.22932252 -0.6383662 0.79172426
0.4652039 -0.53569967 0.23874858 -0.15680945 0.13579926 -0.35449547 0.7799282 0.22436327
0.27047077 0.18517701 -0.0016213203 -0.14378054 0.04188965 0.6790779 0.43964356 0.18072064
0.37947166 0.063084275 0.053877983 0.18072593 0.71980023 -0.056657247 -0.18974984 -0.119388714
0.13915034 0.11123002 -0.54894406 0.707464 0.43496236 -0.03566549 0.028456727 -0.038391232
-0.5745528 -1.2190372 0.37077525 -0.10297812 -0.6129858 -0.6583406 -0.22526048 -0.65989405
-0.55747503 -0.12349718 0.022040427 -0.09056122 0.37456116 -0.13757539 -0.743135 -0.2873146
0.043078426 0.26925546 -0.3449364 -0.104998745 -0.16615696 -1.3246442 -0.20753166 -0.021495579
-0.029890928 -1.2083752 -0.74621916 0.21927175 -0.7625123 -0.060174257 -0.02181205 0.13856137
-0.0626777 -0.59402484 -0.20657788 0.08257867 -0.016223155 -0.8460406 -0.084264554 -0.49857613
-0.4059207 0.084978625 -0.26502666 -0.14347394 -0.12985708 -0.5399803 -0.028990673 -0.36356947
-0.9939957 0.18051341 0.03456503 0.83087415 0.85291475 0.8316045 0.66888124 0.7723288
0.854523 0.89241534 -0.12787612 -0.21012071 -0.4120338 -0.4282823 0.0074011027 0.076887086
0.024864601 0.1026233 -0.9762742 0.4159624 0.21895893 0.20645376 -0.25238445 0.23717017
-0.96522874 0.38577437 0.48684615 -0.27857462 -0.44922867 -1.2029328 -0.0872303 -0.020444956
0.36902243 0.4920285 0.068133086 0.04986759 -0.13154806 0.056033082 0.43983227 1.1955813
1.0081149 0.6884066 -0.59678406 0.21528317 0.1813515 0.4729907 0.5306508 1.1136423
0.6967749 0.45900446 -0.6892009 0.25690866 -0.1632337 -0.36462867 0.33165514 0.4311586
0.5969371 0.059738148 -0.06830772 0.9048748 0.3717258 -0.48666438 0.23057471 -0.3806236
0.34718883 0.6292532 -0.49011204 -0.61099255 0.74455684 -0.6463149 -0.21489206 0.27558628
0.26783207 -0.7524869 0.16991223 0.050352894 0.5988248 -0.8637558 0.38414115 0.16088247
-0.8123883 0.2840088 0.4114819 0.3757272 -0.10269918 -0.09055542 0.40974033 0.09701726
0.21735395 -0.011228236 0.40214676 0.057764422 0.5183727 0.1562006 -0.5355951 0.23443969
0.26023096 0.47772634 0.5224008 0.35080466 -0.06063951 0.10650533 -0.3555681 -0.17690353
0.2829345 0.3033978 0.37819877 0.55192 -0.19026335 0.41546556 0.56336457 0.81799585
0.55172944 0.6202261 0.34672308 -0.042348303 0.06356932 0.6605196 -0.14123315 0.32652366
0.21062937 -0.90256613 0.22932398 0.16475055 -0.4702572 0.1401524 0.3685967 -0.80280256
0.013475062 -0.09585751 0.15921684 0.46032596 -0.028622793 -0.28867096 -0.121950634 0.07407898
-1.1103988 0.14209062 -0.44615075 -0.17392913 0.0397667 -0.02028004 0.017288363 0.1672067
0.101276144 -0.17104664 0.24574015 -0.25848928 0.07384313 -0.41876236 0.3163224 0.7607973
0.65357476 0.29832235 0.5599622 0.57892275 0.188729 -0.70110923 0.20633548 0.22413467
0.021551115 0.15476373 0.31083256 0.040246055 -0.1579191 0.5653726 -0.65047544 0.40478897
00000000: 9c38 bc3e b3fe 633e 1243 593e f7af a6bd
00000010: 3c3b 92be 86d3 6abe f86b 23bf 71ae 4a3f
00000020: 352f ee3e 9d23 09bf 827a 743e a892 20be
00000030: f60e 0b3e 6e80 b5be 60a9 473f 7cbf 653e
00000040: 257b 8a3e 0b9f 3d3e 7b82 d4ba 353b 13be
00000050: 7b94 2b3d 0dd8 2d3f f618 e13e d50e 393e
00000060: 1c4a c23e 5432 813d 29af 5c3d 3810 393e
00000070: d444 383f 6e11 68bd c84d 42be 1282 f4bd
00000080: 6d7d 0e3e 91cc e33d 9987 0cbf 5c1c 353f
00000090: 63b3 de3e fa15 12bd 151e e93c 2040 1dbd
000000a0: e415 13bf 6909 9cbf 41d6 bd3e 31e6 d2bd
000000b0: a3ec 1cbf 0289 28bf afaa 66be d1ee 28bf
000000c0: afb6 0ebf 17ec fcbd 208e b43c 2978 b9bd
000000d0: 7bc6 bf3e 90e0 0cbe 183e 3ebf e61a 93be
000000e0: 0173 303d dadb 893e 819b b0be 9509 d7bd
000000f0: 0d25 2abe f18d a9bf 2e83 54be 7f17 b0bc
00000100: d2dd f4bc 0aac 9abf 3808 3fbf c688 603e
00000110: 0234 43bf 4879 76bd 2faf b2bc 08e3 0d3e
00000120: 2a5d 80bd 0312 18bf 2789 53be 011f a93d
00000130: 6ce6 84bc 1e96 58bf e592 acbd 5f45 ffbe
00000140: d7d4 cfbe 4609 ae3d 93b1 87be d5ea 12be
00000150: 41f9 04be 263c 0abf d97d edbc c725 babe
00000160: 8176 7ebf 82d8 383e 1094 0d3d 2bb4 543f
00000170: 9f58 5a3f 08e4 543f cd3b 2b3f 57b7 453f
00000180: 05c2 5a3f 5575 643f f5f1 02be e229 57be
00000190: 18f6 d2be d147 dbbe f384 f23b fa76 9d3d
000001a0: d9b0 cb3c 2a2c d23d 1bed 79bf 06f9 d43e
000001b0: c536 603e 9d68 533e 8938 81be bddc 723e
000001c0: 3b19 77bf 3884 c53e e643 f93e 55a1 8ebe
000001d0: 4d01 e6be b4f9 99bf cda5 b2bd 2e7c a7bc
000001e0: 82f0 bc3e 29eb fb3e 5c89 8b3d f541 4c3d
000001f0: 89b4 06be f282 653d b231 e13e cf08 993f
00000200: e909 813f 6a3b 303f d7c6 18bf 3173 5c3e
00000210: 35b4 393e d62b f23e bbd8 073f d58b 8e3f
00000220: d75f 323f a202 eb3e 786f 30bf 8889 833e
00000230: bc26 27be 9cb0 babe b4ce a93e d2c0 dc3e
00000240: dfd0 183f fdaf 743d ebe4 8bbd e0a5 673f
00000250: d852 be3e 132c f9be c71b 6c3e 19e1 c2be
00000260: bcc2 b13e bd16 213f f7ef fabe 026a 1cbf
00000270: 479b 3e3f e574 25bf aa0c 5cbe a519 8d3e
00000280: 4921 893e fba2 40bf 79fd 2d3e d63e 4e3d
00000290: 954c 193f 1a1f 5dbf 26ae c43e 60be 243e
000002a0: aef8 4fbf 9a69 913e c1ad d23e 515f c03e
000002b0: f353 d2bd 1f75 b9bd 7cc9 d13e fcb0 c63d
000002c0: 0992 5e3e a3f6 37bc 2ee6 cd3e 639a 6c3d
000002d0: 13b4 043f 0df3 1f3e c31c 09bf f510 703e
000002e0: fe3c 853e 8c98 f43e 0fbc 053f ab9c b33e
000002f0: 2361 78bd 771f da3d 060d b6be 3326 35be
00000300: cadc 903e f556 9b3e 45a3 c13e a14a 0d3f
00000310: 65d4 42be e7b7 d43e a938 103f 2d68 513f
00000320: 243e 0d3f 23c7 1e3f b085 b13e 6a75 2dbd
00000330: a230 823d d017 293f 6c9f 10be 1c2e a73e
00000340: 3aaf 573e 930e 67bf e8d3 6a3e 5eb4 283e
00000350: 8dc5 f0be 1c84 0f3e b5b8 bc3e 7884 4dbf
00000360: 82c6 5c3c f150 c4bd bd09 233e d8af eb3e
00000370: 597a eabc aecc 93be 41c1 f9bd b8b6 973d
00000380: 8c21 8ebf 3480 113e df6d e4be 7a1a 32be
00000390: 68e2 223d 5422 a6bc 53a0 8d3c 3c38 2b3e
000003a0: de69 cf3d da26 2fbe 4ea3 7b3e b558 84be
000003b0: 113b 973d 0568 d6be 02f5 a13e 9dc3 423f
000003c0: ad50 273f b5bd 983e af59 0f3f 4834 143f
000003d0: 2d42 413e e57b 33bf 9c49 533e 8f83 653e
000003e0: f78b b03c 627a 1e3e 7225 9f3e 0cd9 243d
000003f0: 8bb5 21be 42bc 103f 8f85 26bf 8040 cf3e

decoder.3.weight f4 [8, 24, 3, 3]
0.024517749 -0.027569901 -0.007941536 0.07738078 0.11008374 -0.032714535 0.14344475 0.17041579
-0.005202127 0.11159526 0.12574817 0.13058151 0.3044315 0.21762797 0.057671513 0.20218387
0.15104231 0.083405726 0.1906203 0.09198365 -0.0486437 0.16538616 0.03458431 -0.17353407
-0.28571776 -0.15973525 -0.044415366 0.037304647 0.057721276 0.08342404 0.14683206 0.047229193
0.025941562 -0.05796273 0.099044584 -0.053921677 -0.04708469 0.04613851 0.14232324 0.414833
0.15528718 -0.04702484 0.1188273 0.048247755 0.022009952 0.17733191 0.15900758 0.0022971474
0.32300562 0.1397149 -0.05145946 0.16219813 -0.048346307 -0.07627353 0.17174387 0.11825516
-0.36672795 0.30484352 0.102154516 -0.0141255455 0.18366903 -0.29171523 0.09726223 0.1288792
0.010559162 -0.05714248 0.20004176 0.09033978 0.07023005 -0.10983453 0.17128246 0.18038386
0.153565 -0.06691834 0.086498074 0.17270112 0.0814351 0.06270399 -0.08189819 0.18210764
0.12405975 0.081282444 0.009880193 -0.04957788 0.13774903 -0.086191244 -0.15776742 0.07332599
-0.12564129 -0.14646731 0.16706778 0.29805416 -0.13687082 0.33421302 0.15500449 -0.13116156
0.26426142 -0.17869176 0.079473995 0.18832664 0.31458065 0.019728879 0.316374 0.17916127
-0.06898073 0.073762454 0.018002188 0.23294169 -0.11458216 -0.05424915 0.013242296 -0.05804019
-0.03705284 -0.030200869 0.17231238 0.05542708 0.08450106 0.22698174 0.013082424 -0.09104138
0.26277953 0.15467496 0.008797363 0.15448682 0.23966782 0.042393796 0.0061815456 0.057451278
0.228697 0.12715241 0.16924846 0.0382335 0.09799524 0.15045199 0.04324527 0.25527802
0.17080729 0.0826447 0.30039814 0.17488709 0.035766073 -0.19220598 0.09230715 0.09581944
0.002854879 0.11664431 0.1267048 0.21237439 0.0056835203 -0.31262892 0.20501167 -0.045446828
-0.6777306 0.15028238 0.14569998 -0.7827708 0.4099854 0.23590806 0.049058862 0.73025095
-0.014226511 -0.10079927 0.005648296 0.065737724 0.16945632 0.19943309 0.21118893 0.03209952
0.041529644 0.06322216 0.076331966 0.17992759 0.0906365 -0.043839186 0.10146435 0.080015965
0.08227887 0.16860446 0.03906559 0.13269691 0.055054855 0.16162162 -0.11519118 0.2622796
0.07410541 -0.062100023 -0.12601694 -0.021872267 0.20316754 0.18383554 0.2526302 0.17540357
-0.81092733 0.20384453 0.41910574 0.312308 0.028170684 -0.0026347442 -0.040272743 0.21007593
0.12622647 0.49533468 0.31140566 0.023196172 -0.3856175 0.072493866 0.24704151 0.25315744
0.20479862 0.6060541 0.45468792 0.2393161 0.082191385 -0.060116254 0.06255219 -0.5678597
-0.06534055 -0.07878035 -0.123687394 -0.09335084 -0.093258396 -0.0752522 0.12587263 -0.0816961
0.10833082 0.14249165 0.11662234 0.16049632 0.17295356 0.21154797 0.1411591 0.1322803
0.21422991 0.2517666 0.042904828 -0.032584637 0.003939796 -0.18140122 -0.08748782 -0.1042041
-0.26212233 -0.15389395 -0.2633903 0.09983628 0.0654337 -0.09312772 0.113516934 0.0067642783
-0.022503223 0.049619667 0.021476073 -0.26544845 0.07781452 0.009358113 0.06163867 0.17569576
00000000: 72d9 c83c 46da e1bc 371d 02bc d079 9e3d
00000010: 9573 e13d adff 05bd 2ee3 123e 7a81 2e3e
00000020: 9b76 aabb 0e8c e43d 21c4 003e 29b7 053e
00000030: 72de 9b3e ded9 5e3e f738 6c3d 4a09 4f3e
00000040: d6aa 1a3e 9fd0 aa3d f831 433e ed61 bc3d
00000050: 9e3e 47bd fd5a 293e 47a8 0d3d eab2 31be
00000060: 9949 92be a391 23be e3ec 35bd c2cc 183d
00000070: 256d 6c3d 39da aa3d 255b 163e 6673 413d
00000080: 6683 d43c 546a 6dbd e3d7 ca3d fadc 5cbd
00000090: e0db 40bd bcfb 3c3d 2fbd 113e fe64 d43e
000000a0: 9a03 1f3e 1e9d 40bd ba5b f33d 709f 453d
000000b0: 374e b43c 7f96 353e e2d2 223e bd8b 163b
000000c0: fe60 a53e 6c11 0f3e 28c7 52bd 4417 263e
000000d0: c706 46bd 4c35 9cbd a0dd 2f3e c32f f23d
000000e0: c4c3 bbbe 7314 9c3e 6336 d13d d56e 67bc
000000f0: bc13 3c3e b35b 95be 6c31 c73d e9f8 033e
00000100: 5600 2d3c 3c0e 6abd bfd7 4c3e 1004 b93d
00000110: c6d4 8f3d edf0 e0bd ab64 2f3e 8cb6 383e
00000120: 2540 1d3e 7c0c 89bd e725 b13d 90d8 303e
00000130: 72c7 a63d f36a 803d 3dba a7bd 6d7a 3a3e
00000140: 0a13 fe3d 6977 a63d 88e0 213c 2d12 4bbd
00000150: 150e 0d3e 0985 b0bd c88d 21be f02b 963d
00000160: 1ca8 00be 87fb 15be d113 2b3e 8e9a 983e
00000170: dd27 0cbe f81d ab3e 7fb9 1e3e 374f 06be
00000180: 464d 873e f9fa 36be 43c3 a23d b3d8 403e
00000190: b710 a13e 759e a13c c6fb a13e 0d76 373e
000001a0: c545 8dbd c510 973d 5379 933c 4488 6e3e
000001b0: 0daa eabd 5b34 5ebd 37f6 583c 8dbb 6dbd
000001c0: b8c4 17bd d067 f7bc a872 303e 8107 633d
000001d0: e40e ad3d e76d 683e aa57 563c e773 babd
000001e0: 0a8b 863e 1d63 1e3e d122 103c cb31 1e3e
000001f0: 7b6b 753e 1ea5 2d3d 908e ca3b 0852 6b3d
00000200: 8c2f 6a3e 3e34 023e 784f 2d3e bb9a 1c3d
00000210: bab1 c83d 1610 1a3e f421 313d cdb3 823e
00000220: 1be8 2e3e a041 a93d c9cd 993e 9a15 333e
00000230: 727f 123d a5d1 44be 880b bd3d fc3c c43d
00000240: ec18 3b3b 36e3 ee3d e7be 013e ac78 593e
00000250: d33c ba3b e610 a0be 94ee 513e 7426 3abd
00000260: c17f 2dbf a0e3 193e 6032 153e ab63 48bf
00000270: 9be9 d13e e291 713e f2f1 483d baf1 3a3f
00000280: 5016 69bc d96f cebd 5715 b93b 80a1 863d
00000290: f585 2d3e 3038 4c3e e941 583e c97a 033d
000002a0: fd1a 2a3d 9f7a 813d ef53 9c3d f03e 383e
000002b0: a19f b93d b890 33bd 8bcc cf3d 69df a33d
000002c0: d381 a83d a6a6 2c3e 3d03 203d b3e1 073e
000002d0: 3381 613d 2380 253e 5ae9 ebbd 8349 863e
000002e0: 94c4 973d 985c 7ebd 960a 01be 782d b3bc
000002f0: 270b 503e 623f 3c3e bf58 813e fe9c 333e
00000300: ef98 4fbf 9fbc 503e 0795 d63e d6e6 9f3e
00000310: 35c6 e63c acab 2cbb 08f5 24bd 251e 573e
00000320: 8341 013e 829c fd3e 9070 9f3e e605 be3c
00000330: a86f c5be aa77 943d 73f8 7c3e da9d 813e
00000340: bbb6 513e 5d26 1b3f dbcc e83e 480f 753e
00000350: f553 a83d 763c 76bd 5d1b 803d 415f 11bf
00000360: 44d1 85bd 9857 a1bd d14f fdbd ba2e bfbd
00000370: 42fe bebd d31d 9abd c1e4 003e 4950 a7bd
00000380: 8ddc dd3d 55e9 113e b2d7 ee3d 2659 243e
00000390: bd1a 313e 08a0 583e 038c 103e 7d74 073e
000003a0: 165f 5b3e 8de7 803e f9bc 2f3d 7877 05bd
000003b0: 6719 813b 3ec1 39be d02c b3bd f668 d5bd
000003c0: e634 86be 6096 1dbe 18db 86be f776 cc3d
000003d0: 1b02 863d bfb9 bebd 917b e83d e1a6 dd3b
000003e0: ae58 b8bc fe3d 4b3d 97ee af3c dce8 87be
000003f0: 385d 9f3d c552 193c d478 7c3d 97e9 333e

decoder.3.bias f4 [24]
0.08528064 0.111841984 0.0994725 -0.050660588 0.058377575 -0.7302849 0.117894605 0.03731395
-0.02075425 -0.4156908 -0.01815645 0.072071254 0.022451919 0.12515725 0.03551311 0.023915358
0.12275639 0.062103365 0.042503577 0.0013239057 0.016831033 -0.03937985 -0.0003346359 -0.029091394
00000000: 9ea7 ae3d 690d e53d 3db8 cb3d 7a81 4fbd
00000010: 531d 6f3d f4f3 3abf ba72 f13d 83d6 183d
00000020: d104 aabc 6dd5 d4be d6bc 94bc 189a 933d
00000030: 16ed b73c 3929 003e 3276 113d 24ea c33c
00000040: b467 fb3d 1960 7e3d 3b18 2e3d e786 ad3a
00000050: 3ce1 893c c44c 21bd 1272 afb9 1351 eebc

decoder.5.weight f4 [24, 40, 2, 2]
0.2429668 0.26409245 0.12100263 0.17463271 0.24580339 0.2637824 0.11923579 0.16377059
0.23103766 0.25750518 0.11445837 0.15440893 0.22200197 0.23843831 0.10318482 0.13983588
0.1991028 0.21839865 0.07309631 0.123478554 0.18049622 0.2017372 0.042383153 0.09828007
0.14599986 0.16685875 -0.00045918603 0.06358306 0.098795086 0.13771297 -0.032877788 0.035296965
0.052305706 0.090842746 -0.079855144 -0.016126096 0.014544417 0.04574651 -0.13214596 -0.05103528
-0.0119278645 0.020262327 -0.15448068 -0.07539653 -0.025958344 0.021877473 -0.15488589 -0.08442851
-0.013363271 0.03109798 -0.1328099 -0.053076874 0.036381226 0.06554489 -0.087999605 -0.02362074
0.06773392 0.10270396 -0.059518334 0.012842859 0.08426234 0.13303551 -0.034174904 0.047826443
0.10945664 0.17046797 0.02231194 0.1084904 0.121353775 0.19898504 0.0511154 0.14925586
0.11288112 0.20653468 0.07159349 0.18753089 0.12624495 0.22123113 0.10148606 0.21556194
0.44073913 0.51391596 0.43328503 0.50388604 0.12758763 0.22769274 0.09172314 0.21598856
0.102694005 0.19680926 0.06342716 0.17367052 0.0898677 0.17115386 0.030444043 0.13646337
0.077692114 0.14727874 -0.007900387 0.08620036 0.0461053 0.098450124 -0.067263685 0.026643155
0.023174092 0.072438754 -0.1098258 -0.027819945 -0.013443402 0.024538273 -0.1500091 -0.08124359
-0.062375907 -0.014032856 -0.19147775 -0.115275845 -0.0637252 -0.02628069 -0.20605786 -0.12947248
-0.060777772 -0.016718855 -0.20928141 -0.12139194 -0.031752467 0.0020379561 -0.18501796 -0.109178826
0.019126719 0.0627236 -0.12696296 -0.051529292 0.08182937 0.107038595 -0.0558311 0.005327164
0.13532273 0.15374562 -0.0030139338 0.05011575 0.15847632 0.19257754 0.040108632 0.07517447
0.19260979 0.21400493 0.056303997 0.10920141 0.21184234 0.23835 0.0876776 0.144522
0.22480196 0.24263407 0.10766652 0.14879571 0.2410642 0.26073897 0.11269626 0.17184022
0.019187354 -0.059546616 -0.031717997 -0.028739106 0.021468522 -0.058185406 -0.018138928 -0.020376319
0.038849983 -0.041779116 -0.021297272 -0.008205605 0.048532702 -0.029454434 0.010090973 0.010958069
0.08173284 0.0023902974 0.03416399 0.041408487 0.12540525 0.037748817 0.09184904 0.07813199
0.17237757 0.08009117 0.14651364 0.12093615 0.23138213 0.110948764 0.19402355 0.15751457
0.2803763 0.15084702 0.25058195 0.19850223 0.31054845 0.16930515 0.29729998 0.2222553
0.29819226 0.15300333 0.28881505 0.1952268 0.27297565 0.11193886 0.25522888 0.16249627
0.25043568 0.08050033 0.23320135 0.1284528 0.2359541 0.077370785 0.22199704 0.14011958
0.23046389 0.09881856 0.2308102 0.14908728 0.18683526 0.093305126 0.17667226 0.14455011
0.11588299 0.046803243 0.08458445 0.10854045 0.042234886 0.026415586 0.02055572 0.0795745
-0.028425094 0.021350069 -0.03719242 0.08661437 -0.14559132 -0.017465318 -0.12086218 0.060556393
-0.3717575 -0.27859157 -0.36133042 -0.22835337 -0.17664036 -0.043497473 -0.14235346 0.04126865
-0.07278505 0.0077782865 -0.0701245 0.07903695 0.0068585225 0.012544441 -0.015771372 0.061356056
00000000: 4acc 783e 2037 873e 3ad0 f73d ebd2 323e
00000010: e2b3 7b3e 7d0e 873e e531 f43d 7ab3 273e
00000020: 2395 6c3e b8d7 833e 2669 ea3d 601d 1e3e
00000030: 7c54 633e 2c29 743e 9052 d33d 2331 0f3e
00000040: 9be1 4b3e e5a3 5f3e 85b3 953d 53e2 fc3d
00000050: 00d4 383e 3294 4e3e f599 2d3d 1047 c93d
00000060: fd80 153e 05dd 2a3e e8be f0b9 d637 823d
00000070: 1455 ca3d a104 0d3e dcaa 06bd 8d93 103d
00000080: 823e 563d c30b ba3d 188b a3bd e01a 84bc
00000090: b54b 6e3c b160 3b3d 4551 07be 5f0a 51bd
000000a0: 176d 43bc 2efd a53c 2f30 1ebe 7f69 9abd
000000b0: 98a6 d4bc 6338 b33c 689a 1ebe dbe8 acbd
000000c0: 9ff1 5abc 31c1 fe3c 52ff 07be 2367 59bd
000000d0: 7b04 153d 663c 863d 2339 b4bd 4880 c1bc
000000e0: 15b8 8a3d 7456 d23d 7fc9 73bd db6a 523c
000000f0: bc91 ac3d 763a 083e fcfa 0bbd a9e5 433d
00000100: ce2a e03d 288f 2e3e 88c7 b63c 3730 de3d
00000110: 5488 f83d bcc2 4b3e 625e 513d 87d6 183e
00000120: 372e e73d d47d 533e 9c9f 923d 1908 403e
00000130: 5b46 013e 6a8a 623e ecd7 cf3d 45bc 5c3e
00000140: 8fa8 e13e ff8f 033f 89d7 dd3e adfe 003f
00000150: 55a6 023e 4928 693e 57d9 bb3d 1b2c 5d3e
00000160: 3c51 d23d 5e88 493e 19e6 813d afd6 313e
00000170: 8f0c b83d f542 2f3e c965 f93c 0ebd 0b3e
00000180: 0b1d 9f3d 3dd0 163e a070 01bc d089 b03d
00000190: e9d8 3c3d 38a0 c93d 8bc1 89bd bf42 da3c
000001a0: 98d7 bd3c c55a 943d 59ec e0bd a7e6 e3bc
000001b0: b741 5cbc 7d04 c93c fc9b 19be 0a63 a6bd
000001c0: e17d 7fbd 10ea 65bc be12 44be be15 ecbd
000001d0: 5c82 82bd 9a4a d7bc d500 53be 6f94 04be
000001e0: 1df2 78bd fbf5 88bc de4d 56be 569c f8bd
000001f0: e00e 02bd 3b8f 053b 5975 3dbe 2699 dfbd
00000200: a3af 9c3c 3b75 803d 9402 02be 6110 53bd
00000210: 2896 a73d 0d37 db3d 27af 64bd 7e8f ae3b
00000220: 0b92 0a3e 7e6f 1d3e 6b85 45bb 2c46 4d3d
00000230: 9e47 223e 0c33 453e f348 243d 13f5 993d
00000240: 803b 453e 1c24 5b3e 059f 663d fda4 df3d
00000250: 33ed 583e 0612 743e 5090 b33d 93fd 133e
00000260: 7c32 663e 1175 783e 4480 dc3d e75d 183e
00000270: 89d9 763e 947f 853e 4ccd e63d e2f6 2f3e
00000280: cc2e 9d3c 27e7 73bd bbea 01bd 466e ebbc
00000290: c1de af3c d253 6ebd 1798 94bc 3dec a6bc
000002a0: 2921 1f3d 9420 2bbd 9e77 aebc cd70 06bc
000002b0: 3aca 463d 6d4a f1bc 9c54 253c 7989 333c
000002c0: 8c63 a73d 89a6 1c3b 8aef 0b3d f29b 293d
000002d0: 3c6a 003e 819e 1a3d 591b bc3d aa03 a03d
000002e0: bf83 303e d706 a43d ac07 163e 5fad f73d
000002f0: 70ef 6c3e 1b39 e33d 1cae 463e 804b 213e
00000300: 7b8d 8f3e a477 1a3e 474c 803e 2b44 4b3e
00000310: 3500 9f3e 545e 2d3e b437 983e e596 633e
00000320: a8ac 983e e8ac 1c3e 91df 933e 89e9 473e
00000330: 77c3 8b3e 3340 e53d 5cad 823e 6c65 263e
00000340: 1b39 803e 5bdd a43d 56cc 6e3e 2189 033e
00000350: f49d 713e 9374 9e3d 3153 633e 827b 0f3e
00000360: bafe 6b3e 6361 ca3d 8259 6c3e 56aa 183e
00000370: be51 3f3e c216 bf3d 93e9 343e f204 143e
00000380: 1054 ed3d c2b4 3f3d 9d3a ad3d 754a de3d
00000390: 7dfe 2c3d 8065 d83c 7864 a83c f5f7 a23d
000003a0: bedb e8bc 57e6 ae3c 1457 18bd e062 b13d
000003b0: e415 15be 6d13 8fbc 9786 f7bd fb09 783d
000003c0: 0057 bebe 8ea3 8ebe 4d00 b9be 77d5 69be
000003d0: 36e1 34be 682a 32bd 1bc5 11be 5109 293d
000003e0: 5410 95bd ffe0 fe3b 6f9d 8fbd 20de a13d
000003f0: 75bd e03b 3387 4d3c f732 81bc 7d50 7b3d

decoder.5.bias f4 [40]
-0.04585037 -0.045156438 -0.042860586 -0.043903667 -0.04691442 -0.05365727 -0.057698894 -0.058653556
-0.053721722 -0.03872901 -0.02037272 -0.010600173 -0.0033344857 -0.0039836247 -0.007418268 0.0020670106
0.03528888 0.035781488 -0.08720477 -0.2152031 -0.37894443 -0.2532869 -0.14434527 0.00020400448
0.044035863 0.025734482 0.009328323 0.002704191 -0.004688157 -0.012830347 -0.02254784 -0.036063846
-0.047455627 -0.051321942 -0.051741533 -0.050580427 -0.04614442 -0.044010155 -0.042768136 -0.04549593
00000000: 99cd 3bbd f5f5 38bd 958e 2fbd 55d4 33bd
00000010: 5629 40bd bac7 5bbd ad55 6cbd b63e 70bd
00000020: 4f0b 5cbd 4fa2 1ebd b1e4 a6bc 59ac 2dbc
00000030: 6387 5abb 1189 82bb f114 f3bb af76 073b
00000040: 138b 103d 9c8f 123d 6a98 b2bd 345e 5cbe
00000050: 0105 c2be d2ae 81be 3fcf 13be 09ea 5539
00000060: f35e 343d 1fd1 d23c d3d5 183c cc38 313b
00000070: 1c9f 99bb 6036 52bc 3fb6 b8bc afb7 13bd
00000080: d560 42bd f536 52bd eeee 53bd 6c2d 4fbd
00000090: ee01 3dbd fe43 34bd a42d 2fbd f159 3abd
