model/autoencoder_multiple_model.pth (torch, 417186 bytes, 19 tensors)

encoder.0.weight f4 [32, 40, 3, 3]
0.08371266 0.030879818 0.04136729 0.09237863 0.0146364 -0.0029260986 0.09012005 0.0913455
0.064051315 0.009147566 0.08327333 0.08828453 -0.0031573828 0.060571916 0.058531523 0.008183128
0.009708965 0.008938507 -0.006443732 0.043116905 -0.0013216169 0.007912436 0.083112754 0.08090004
-0.0130704325 0.06472441 0.021885153 0.08841626 0.0065468694 -0.0003094569 -0.004750276 0.05818612
0.0850201 0.05072044 0.0139967725 0.0693793 0.045213807 0.08131892 0.06520038 0.01694294
0.00550955 0.07555482 -0.017940069 0.025992697 0.070405915 0.004358102 0.012590539 0.08627238
0.06422368 0.05169136 0.011567108 0.05924532 0.08449474 0.07435838 0.02972809 0.058257885
-0.0099261785 0.034520756 0.067019865 0.003993659 0.068889454 0.015926508 0.049239744 0.01627959
0.03906134 0.082810275 0.063395314 0.065322846 -0.009767531 -0.0051721903 -0.0036748275 0.0065309987
0.031202985 -0.006095002 0.020959271 -0.0016258381 0.031828202 0.0012789877 0.08884658 0.04402774
-0.009530279 0.074075274 0.03294446 0.06358557 -0.0061098095 0.03946023 0.039027657 0.081453875
0.03471997 0.06780381 0.0008598314 0.06788997 0.056218162 0.009472249 0.059746496 0.021839874
0.027793193 -0.0087117655 -0.007611392 0.004339389 0.08581409 0.038414147 0.044182133 0.070415795
0.05988648 0.059775934 -0.00640426 0.09201718 0.080195576 0.0854219 0.06914852 0.050425585
0.062069945 0.06856773 0.08860389 0.021883495 0.07472434 0.079393916 0.072102845 -0.013461962
0.082857326 0.027813638 0.075314805 0.0770527 0.07874679 0.0825947 0.019452356 0.07300486
0.0537137 0.052962556 0.058905717 0.004758638 0.0030645577 0.01750614 0.011792172 0.07868465
0.069166064 0.080381006 0.081503116 0.006530624 0.015709827 0.049544223 0.008147922 0.071226925
0.05660227 0.07631186 0.01816564 0.0011528378 0.013319121 0.08877082 0.0802065 0.08095738
0.049152065 0.027077891 0.034471974 0.03194616 -0.0011476738 0.03246646 -0.0056885057 0.040341828
0.06684758 0.050012015 -0.008554756 -0.016713073 0.07730935 0.050000843 -0.0055968678 0.030420138
-0.011641291 0.04903317 -0.013181367 0.0747321 0.060704254 -0.017785003 0.006467796 0.025283622
0.06298575 0.035807427 0.08474278 -0.0057982253 0.06475367 -0.017197637 0.043827754 0.0103348885
-0.009869679 0.081966646 0.057138406 0.066253714 0.06883469 0.034625717 0.05846506 0.06189407
0.07931435 0.08535658 0.050820798 0.065012716 0.014936063 0.00128288 0.020923758 0.06759593
0.05619164 0.04151896 0.08358556 0.02612371 0.076048106 0.07280511 0.003815864 0.06891235
0.05891215 0.058418345 0.003884701 0.049691077 0.02948879 0.087759405 0.015477248 0.006640241
0.0779552 0.057565827 0.08262197 0.062391873 -0.003961499 0.047598418 0.029307062 -0.0031126053
0.009625083 0.009478842 -0.0047337846 0.03027757 0.04332662 0.07413608 0.02500663 0.013702299
0.05581974 0.009737823 0.012765042 0.041853778 0.08276006 0.024307428 0.014397687 0.06335604
-0.0021940386 0.03576038 0.074798964 0.002793248 0.04436309 0.03926693 0.08440813 -0.007732809
0.034405254 0.0046495106 0.08783368 -0.008087158 0.071656905 0.08392975 0.067231216 -0.0061958875
00000000: 8b71 ab3d acf7 fc3c bf70 293d 0231 bd3d
00000010: 83cd 6f3c cac3 3fbb dc90 b83d 5913 bb3d
00000020: 562d 833d acdf 153c 358b aa3d 85ce b43d
00000030: 18ec 4ebb 421a 783d c0be 6f3d 8712 063c
00000040: 5a12 1f3c d172 123c f125 d3bb 5a9b 303d
00000050: 1b3a adba 29a3 013c 0537 aa3d ecae a53d
00000060: 5e25 56bc 3b8e 843d 7e48 b33c 9613 b53d
00000070: 1f87 d63b 9a3e a2b9 34a8 9bbb 9254 6e3d
00000080: 051f ae3d 3cc0 4f3d b852 653c bc16 8e3d
00000090: 1d32 393d 898a a63d c787 853d eccb 8a3c
000000a0: 7589 b43b 7cbc 9a3d 0df7 92bc a3ee d43c
000000b0: fa30 903d 69ce 8e3b 8c48 4e3c 93af b03d
000000c0: b487 833d 52ba 533d f883 3d3c 38ab 723d
000000d0: 940b ad3d 3549 983d 5388 f33c d29f 6e3d
000000e0: 69a1 22bc a365 0d3d b641 893d 3ddd 823b
000000f0: ea15 8d3d 4f78 823c 9daf 493d c65c 853c
00000100: c9fe 1f3d 6f98 a93d 67d5 813d fcc7 853d
00000110: ff07 20bc 7a7b a9bb 60d5 70bb fd01 d63b
00000120: 679d ff3c 95b8 c7bb c7b2 ab3c 131a d5ba
00000130: 4a5e 023d b5a3 a73a 32f5 b53d 6e56 343d
00000140: e324 1cbc c7b4 973d c5f0 063d 2739 823d
00000150: cc34 c8bb 0da1 213d 77db 1f3d 4ad1 a63d
00000160: 8736 0e3d b9dc 8a3d 4f66 613a e609 8b3d
00000170: 0445 663d 7e31 1b3c beb8 743d 89e9 b23c
00000180: 8dae e33c cbbb 0ebc fc68 f9bb 6f31 8e3b
00000190: 4cbf af3d 2758 1d3d 53f8 343d 2836 903d
000001a0: 874b 753d 9cd7 743d d4da d1bb 8173 bc3d
000001b0: 943d a43d adf1 ae3d bd9d 8d3d 0f8b 4e3d
000001c0: 0e3d 7e3d 3d6d 8c3d f575 b53d 0445 b33c
000001d0: 1309 993d 4799 a23d a8aa 933d 908f 5cbc
000001e0: 1ab1 a93d 6dd9 e33c a63e 9a3d cecd 9d3d
000001f0: ff45 a13d 6927 a93d 8c5a 9f3c 9283 953d
00000200: e602 5c3d 44ef 583d 1f47 713d 59ee 9b3b
00000210: bfd6 483b 0969 8f3c f433 413c 6b25 a13d
00000220: f0a6 8d3d cc9e a43d 1beb a63d d8fe d53b
00000230: e5b1 803c e2ee 4a3d dd7e 053c 6cdf 913d
00000240: c8d7 673d 6449 9c3d 1cd0 943c d11a 973a
00000250: 7138 5a3c 7acd b53d 4e43 a43d fccc a53d
00000260: ad53 493d 74d2 dd3c 7c32 0d3d fad9 023d
00000270: 8b6d 96ba 8dfb 043d a566 babb 793d 253d
00000280: 62e7 883d 66d9 4c3d 3f29 0cbc dbe9 88bc
00000290: 5d54 9e3d afcd 4c3d ee65 b7bb a733 f93c
000002a0: 1dbb 3ebc 01d7 483d a9f6 57bc 250d 993d
000002b0: 06a5 783d dbb1 91bc ceef d33b 991f cf3c
000002c0: acfe 803d cfaa 123d 9f8d ad3d 0aff bdbb
000002d0: 929d 843d 0fe2 8cbc bb84 333d aa53 293c
000002e0: 6fb4 21bc 21de a73d f609 6a3d 07b0 873d
000002f0: 34f9 8c3d b2d3 0d3d 0f79 6f3d a384 7d3d
00000300: 906f a23d 6ecf ae3d 7829 503d 6325 853d
00000310: 64b6 743c 4f26 a83a 4d68 ab3c bc6f 8a3d
00000320: 3529 663d c90f 2a3d e82e ab3d 6401 d63c
00000330: 1cbf 9b3d d81a 953d 9313 7a3b eb21 8d3d
00000340: de4d 713d 1348 6f3d 7896 7e3b df88 4b3d
00000350: 7a92 f13c 34bb b33d 4894 7d3c 6196 d93b
00000360: faa6 9f3d 25ca 6b3d b535 a93d 9f8e 7f3d
00000370: 76cf 81bb 8ff6 423d 5d15 f03c dafc 4bbb
00000380: 86b2 1d3c 254d 1b3c dd1d 9bbb ab08 f83c
00000390: 4177 313d a8d4 973d b4da cc3c 9c7f 603c
000003a0: 3da3 643d 648b 1f3c 7724 513c de6e 2b3d
000003b0: 1b7e a93d 5f20 c73c 47e4 6b3c d0c0 813d
000003c0: dcc9 0fbb 7a79 123d 3330 993d ed0e 373b
000003d0: 12b6 353d 5cd6 203d 2bde ac3d 8163 fdbb
000003e0: 86ec 0c3d ec5a 983b 25e2 b33d 0080 04bc
000003f0: dbc0 923d 5ce3 ab3d 85b0 893d df06 cbbb

encoder.0.bias f4 [32]
0.116661556 0.111211084 0.06754051 0.065145716 0.12580694 -0.015365399 0.10076079 0.07310688
0.06966612 -0.03478083 -0.046330377 0.04497479 0.10850369 -0.056665227 -0.064670384 0.09769657
0.08745408 0.06926392 0.12931058 0.12598486 0.097875744 0.12932587 0.05655006 0.08397843
-0.039199002 0.113200836 0.112852305 0.144623 0.047807243 0.058489025 0.0926188 -0.0107763335
00000000: 41ec ee3d a3c2 e33d ae52 8a3d 1e6b 853d
00000010: 89d3 003e 28bf 7bbc ac5b ce3d 0fb9 953d
00000020: 1cad 8e3d 5876 0ebd ecc4 3dbd 7c37 383d
00000030: 2f37 de3d cc19 68bd e871 84bd 2415 c83d
00000040: 201b b33d 3eda 8d3d fe69 043e 2d02 013e
00000050: 1473 c83d 006e 043e 09a1 673d e2fc ab3d
00000060: 228f 20bd d7d5 e73d 1c1f e73d 0d18 143e
00000070: 87d1 433d 3092 6f3d edae bd3d 388f 30bc

encoder.3.weight f4 [24, 32, 3, 3]
0.053573247 0.046610244 -0.01906844 -0.04228198 0.020024717 0.05894622 -0.0067527564 0.026602687
0.023775596 -0.006406618 -0.005824653 0.06880064 -0.03405015 -0.016241224 -0.012688649 0.022093581
0.026543647 0.01566488 0.040739797 0.031221747 0.04851112 -0.018695984 -0.028522115 -0.0054816618
0.064895496 0.05698686 0.04892483 0.011552459 0.058961518 0.04568649 -0.020948354 0.03695056
-0.03481519 0.026189039 0.02628562 -0.024673788 0.044695146 -0.032336194 0.037699893 0.012102823
-0.018345429 0.054891642 0.07129937 0.05345788 -0.017167626 -0.0012447209 0.020001465 -0.054058775
-0.03830726 0.002906701 -0.057966676 -0.025439711 0.014852903 -0.032639854 0.01464532 0.063488945
0.058402658 0.04629683 -0.029309371 0.06537545 0.059311308 0.009468953 0.06579038 0.06603366
0.069695875 0.054518145 0.031277176 0.060605325 -0.01609764 0.007135681 0.023220196 0.018597146
0.05382556 0.006105852 -0.034472726 0.01515514 -0.030358799 -0.0348959 -0.013542096 -0.035576772
0.05731678 -0.045569703 0.005752631 -0.012612279 -0.057527296 0.05823591 0.032217816 -0.022498049
-0.028954722 -0.033307113 0.025383268 -0.026463497 -0.0364405 0.03639183 0.05874219 0.046976972
0.03535469 -0.03916778 0.053655576 0.047314916 0.022898324 0.01151312 0.06352721 -0.010136734
0.053965773 -0.0026287327 0.0144000575 0.036850806 -0.02636757 0.074423805 0.0069212588 -0.016682046
0.005529752 0.023364253 0.06827804 0.015509794 -0.020957312 -0.0031543784 -0.026586756 -0.0107184695
0.015326603 0.028824244 -0.038719825 0.027970469 -0.048144452 0.02231538 -0.050400905 0.024629598
-0.004373368 -0.04377902 0.0019521008 -0.0011907944 0.009731371 0.03467722 0.032784447 -0.008799801
0.0064523253 0.00060667493 -0.03626641 0.026517555 0.05279568 0.019869791 -0.005949012 0.059011213
0.063146755 0.01617641 0.060516674 0.054576896 -0.025738634 0.0029196427 -0.025888098 0.052179463
0.00823378 0.037854817 0.018362176 -0.030395962 0.036286727 0.020368915 0.02284678 -0.038030297
0.06906093 0.079447754 -0.031301554 0.019988457 -0.023335522 -0.006839792 -0.015973415 0.06523645
-0.027940396 0.075677514 0.025659837 -0.014312116 -0.0035521304 -0.033922546 1.7788772e-05 0.05311996
-0.0018068347 0.017220933 -0.019747024 0.013551834 0.006032726 0.05272111 -0.020021781 0.04936812
0.07783028 0.0388781 -0.009050397 0.01377309 0.06351352 0.035007518 0.004742482 -0.03325679
0.034894094 -0.040902793 0.061826777 0.00635683 0.009120915 -0.003578887 -0.03128414 -0.04009445
0.06607744 0.029184638 -0.021633286 0.014439778 -0.0012627301 0.04484269 0.05219865 0.071123786
0.040035736 0.050261166 0.039262716 0.07358881 -0.009260989 0.03176067 0.07113289 0.03470193
-0.007965049 0.035377447 0.032159645 -0.052253053 0.022176633 -0.043171093 0.057931833 -0.05757627
0.018859632 0.05349099 0.014411777 0.018170767 0.004202323 0.056834213 0.011537483 0.0102063725
0.0026569874 0.036253344 0.044489283 -0.015083143 -0.0016984728 0.06736096 0.0572668 0.024621388
0.03606909 0.0024659021 -0.02315953 0.023228604 0.0061233793 0.064859435 0.020713247 0.0007350088
0.043159805 0.04115192 0.047837716 0.044774365 0.065063484 -0.03167873 0.07668483 0.05864701
00000000: 9f6f 5b3d 62ea 3e3d 6b35 9cbc df2f 2dbd
00000010: e00a a43c 9771 713d 3a46 ddbb e1ed d93c
00000020: 0ac5 c23c 9bee d1bb bbdc bebb 5ae7 8c3d
00000030: 2c78 0bbd 510c 85bc 0de4 4fbc 99fd b43c
00000040: 1072 d93c a253 803c c6de 263d c0c4 ff3c
00000050: 99b3 463d 5228 99bc 36a7 e9bc 839f b3bb
00000060: eee7 843d 0e6b 693d 6765 483d 8646 3d3c
00000070: a281 713d c221 3b3d e29b abbc 7859 173d
00000080: 5f9a 0ebd 658a d63c f154 d73c af20 cabc
00000090: 4212 373d f572 04bd 346b 1a3d eb4a 463c
000000a0: 2749 96bc 0fd6 603d 6705 923d a6f6 5a3d
000000b0: 1fa3 8cbc e725 a3ba 1dda a33c bc6c 5dbd
000000c0: 13e8 1cbd 5a7e 3e3b 776e 6dbd f166 d0bc
000000d0: 9759 733c 5eb1 05bd edf2 6f3c 7e06 823d
000000e0: a037 6f3d bfa1 3d3d 351a f0bc 90e3 853d
000000f0: 6af0 723d ab23 1b3c 1bbd 863d a83c 873d
00000100: b6bc 8e3d 6b4e 5f3d 7f1c 003d 4a3d 783d
00000110: 33df 83bc 6ed2 e93b 4838 be3c 0b59 983c
00000120: 3178 5c3d 9913 c83b 4633 0dbd 444d 783c
00000130: 04b3 f8bc 01ef 0ebd abdf 5dbc f3b8 11bd
00000140: 00c5 6a3d 4ca7 3abd 9180 bc3b bba3 4ebc
00000150: bea1 6bbd c788 6e3d d4f6 033d d44d b8bc
00000160: 7432 edbc 0a6d 08bd 92f0 cf3c fac9 d8bc
00000170: a242 15bd 990f 153d a79b 703d ed6a 403d
00000180: 14d0 103d 656e 20bd f3c5 5b3d 49cd 413d
00000190: 4495 bb3c 86a1 3c3c 8e1a 823d 8b14 26bc
000001a0: 370b 5d3d d146 2cbb 38ee 6b3c dff0 163d
000001b0: cd00 d8bc 826b 983d bacb e23b c9a8 88bc
000001c0: ec32 b53b 6466 bf3c 5bd5 8b3d ca1c 7e3c
000001d0: abae abbc b0b9 4ebb 78cc d9bc 859c 2fbc
000001e0: 6f1c 7b3c d220 ec3c ae98 1ebd 5322 e53c
000001f0: 1e33 45bd bece b63c 2e71 4ebd 03c4 c93c
00000200: 784e 8fbb a151 33bd a2dd ff3a 6e14 9cba
00000210: 5470 1f3c b309 0e3d fc48 063d 0a2d 10bc
00000220: 076e d33b 4409 1f3a 168c 14bd 583b d93c
00000230: 4840 583d f9c5 a23c eeef c2bb beb5 713d
00000240: 1653 813d 6484 843c 55e0 773d 068c 5f3d
00000250: d4d9 d2bc 7a57 3f3b 4713 d4bc 22ba 553d
00000260: fae6 063c a70d 1b3d 466c 963c f400 f9bc
00000270: 64a1 143d b6dc a63c 2c29 bb3c a8c5 1bbd
00000280: d16f 8d3d 81b5 a23d 0f36 00bd d5be a33c
00000290: 232a bfbc 5520 e0bb aeda 82bc b09a 853d
000002a0: 42e3 e4bc d0fc 9a3d 9434 d23c 5e7d 6abc
000002b0: dcca 68bb 5ef2 0abd 1939 9537 5194 593d
000002c0: 50d3 ecba ea12 8d3c 83c4 a1bc 8308 5e3c
000002d0: 2cae c53b 17f2 573d b804 a4bc 3a36 4a3d
000002e0: 7b65 9f3d a53e 1f3d 1e48 14bc 87a8 613c
000002f0: 6013 823d 0b64 0f3d d366 9b3b 4638 08bd
00000300: 1ced 0e3d b089 27bd 133e 7d3d f44c d03b
00000310: e46f 153c c38b 6abb cc23 00bd 143a 24bd
00000320: 9c53 873d 9f14 ef3c 4a38 b1bc d294 6c3c
00000330: 3182 a5ba f8ac 373d 40ce 553d 59a9 913d
00000340: 83fc 233d a7de 4d3d f1d1 203d bbb5 963d
00000350: 67bb 17bc 7a17 023d 1fae 913d 9c23 0e3d
00000360: d67f 02bc f1e7 103d d5b9 033d 4c07 56bd
00000370: c5ab b53c 2cd4 30bd ee49 6d3d 18d5 6bbd
00000380: 847f 9a3c 5e19 5b3d 601f 6c3c dcda 943c
00000390: a4b3 893b feca 683d b607 3d3c a138 273c
000003a0: da20 2e3b 637e 143d 653a 363d 491f 77bc
000003b0: 4a9f deba 8bf4 893d 9890 6a3d cbb2 c93c
000003c0: 2fbd 133d f99a 213b 0eb9 bdbc ea49 be3c
000003d0: a1a6 c83b 06d5 843d d4ae a93c 9bad 403a
000003e0: 56c8 303d ea8e 283d 7bf1 433d 5365 373d
000003f0: 0140 853d 8ec1 01bd f00c 9d3d d937 703d

encoder.3.bias f4 [24]
-0.012553789 0.11498877 0.07550158 0.025696412 0.067463465 0.09944566 0.09941213 0.0456909
0.057858165 0.06897833 -0.014550193 0.10996146 0.052563373 0.056379512 0.10336701 -0.03086262
0.113893405 0.087585405 0.080998085 0.06281586 0.031168481 0.13264984 0.066370845 -0.023338288
00000000: 68ae 4dbc 3b7f eb3d 93a0 9a3d 4881 d23c
00000010: 492a 8a3d 2baa cb3d 9698 cb3d 6226 3b3d
00000020: affc 6c3d 8344 8d3d ef63 6ebc 7933 e13d
00000030: b14c 573d 34ee 663d 15b2 d33d 9bd3 fcbc
00000040: f240 e93d fa5f b33d 53e2 a53d 9aa5 803d
00000050: 0b55 ff3c 5cd5 073e 70ed 873d f02f bfbc

encoder.7.weight f4 [30, 1176]
0.019727867 -0.021641314 -0.022106452 -0.010636883 0.02655825 -0.011426717 0.0050220024 -0.015383844
-0.01003482 0.016064512 -0.018926978 0.016639609 0.0037323097 -0.017680328 -0.028478887 -0.01822376
-0.0026653172 -0.011006585 -0.00051380176 -0.015492576 -0.026401943 0.006742714 0.016341934 -0.0015388676
0.00085745676 0.007942947 -0.009615422 -0.008726437 -0.02655036 -0.018315518 0.007604457 0.007170747
0.008116232 -0.014947489 0.015946282 0.0024850094 -0.017555894 0.024394829 -0.013128869 0.00075214833
-0.026059285 -0.006855677 -0.0050501525 0.005614853 0.027967049 -0.024044681 0.02683122 0.011405919
0.018615326 -0.031317405 0.006056224 -0.027809454 -0.018650409 -0.0021841147 0.00089800754 -0.021352764
-0.0135403555 -0.02878558 0.016666047 -0.011752905 -0.019901836 -0.020551652 0.0045512766 -0.0036204387
0.011489746 0.017830392 -0.008248771 -0.005107955 0.0005960285 -0.02304669 -0.011623237 0.005588352
-0.031177714 -0.03229387 0.009651342 -0.02007725 0.01368384 -0.034667257 0.012635287 0.017305998
-0.021900889 0.004601454 -0.0121568 -0.02044298 -0.032485213 -0.028835064 -0.026766818 0.0081086615
0.0030411861 -0.03370653 -0.013062335 0.003896077 -0.033899218 -0.026702346 -0.034432694 -0.010949345
0.020371929 0.010776784 -0.014147317 0.021186626 0.007908558 -0.004146632 -0.010556107 0.022426847
-0.026468486 -0.004958647 -0.004387419 -0.007213623 0.0048476565 -0.014297007 -0.024788564 -0.006173051
0.022671565 -0.008509544 -0.004123737 0.006517334 -0.030419298 -0.026896767 0.022033636 -0.032640424
-0.011445023 -0.0019067876 -0.0028287391 0.0037154122 0.008511106 0.019566944 -0.013564223 -0.018372836
-0.008230655 0.007300056 0.023350807 0.012820197 -0.009439206 0.012853993 0.008916248 0.007826742
-0.005560807 0.021497935 -0.009670345 -0.023486998 -0.004747719 -0.010015094 -0.028162979 -0.030317813
0.019290632 0.02432841 -0.02505569 0.006265404 -0.01577481 0.020574795 0.0161016 -0.029787363
-0.011879991 0.019301625 -0.01622935 0.016741937 0.027111832 -0.012232091 -0.013235896 0.0057624956
-0.013447271 0.012341908 0.025066793 -0.013988601 -0.0048895106 0.028000971 0.0030543217 0.013525818
-0.02198623 -0.016944615 -0.025437687 0.009389776 -0.012831241 -0.0025980712 0.02378659 0.025039392
-0.0042140842 -0.023194248 -0.009911854 -0.022709578 -0.014355936 0.026252989 -0.008508304 -0.00019640606
0.024329426 -0.027642254 0.007579571 0.009524019 -0.009007472 -0.0151926745 0.007894956 0.018663274
0.0068517993 0.014990717 -0.0034735773 0.020480007 -0.0013476124 -0.010590915 -0.018721411 0.023005066
-0.013810792 0.017494624 -0.025040334 0.0143907 -0.021346068 -0.008806328 -0.029281372 -0.031385966
-0.020862574 -0.008559696 0.01638821 0.013688599 0.026275812 -0.02013273 0.019399637 -0.013322262
-0.024588488 0.02141748 0.010343907 -0.031533908 0.02577892 -0.0010790568 -0.026708266 0.025508167
-0.011175321 -0.020506807 -0.017943973 -0.027701138 -0.022936782 -0.027714606 0.013376523 0.01867175
0.016285615 0.01640802 -0.028521974 -0.019613337 0.011524547 -0.024132749 -0.02049857 0.002708513
0.01471994 0.0073530744 0.026305906 0.0175381 -0.014719976 -0.014681956 0.00024222073 -0.028613139
-0.019857032 -0.014895636 0.0037254845 0.0045058113 -0.0034077715 -0.009044113 -0.0057723583 -0.0010509251
00000000: 569c a13c 2049 b1bc 9718 b5bc 5246 2ebc
00000010: b090 d93c 2037 3bbc 9c8f a43b 850c 7cbc
00000020: 1669 24bc b999 833c c00c 9bbc ca4f 883c
00000030: c499 743b 56d6 90bc 8e4c e9bc ff49 95bc
00000040: 9aac 2ebb f754 34bc a7b0 06ba 93d4 7dbc
00000050: e348 d8bc fcf1 dc3b 85df 853c d4b3 c9ba
00000060: f3c6 603a 2223 023c 018a 1dbc 54f9 0ebc
00000070: 2480 d9bc 6d0a 96bc cf2e f93b 96f8 ea3b
00000080: f2f9 043c 50e6 74bc c7a1 823c 8adb 223b
00000090: 61d1 8fbc aad7 c73c 781a 57bc d22b 453a
000000a0: 487a d5bc 96a5 e0bb c07b a5bb cdfc b73b
000000b0: 271b e53c 5af9 c4bc 26cd db3c e4df 3a3c
000000c0: 2b7f 983c ae46 00bd 4a73 c63b a7d0 e3bc
000000d0: bec8 98bc 5d23 0fbb 4468 6b3a feeb aebc
000000e0: 5ed8 5dbc bdcf ebbc 3c87 883c 428f 40bc
000000f0: 2d09 a3bc f05b a8bc e022 953b e244 6dbb
00000100: 7d3f 3c3c 0b11 923c da25 07bc a260 a7bb
00000110: cc3e 1c3a 69cc bcbc 646f 3ebc 7f1e b73b
00000120: 6868 ffbc 9446 04bd aa20 1e3c 0c79 a4bc
00000130: 2f32 603c 41ff 0dbd 3c04 4f3c 4fc5 8d3c
00000140: 7e69 b3bc cbc7 963b 512d 47bc 0978 a7bc
00000150: 370f 05bd 8337 ecbc 1646 dbbc 31da 043c
00000160: a34e 473b dc0f 0abd 6703 56bc 5355 7f3b
00000170: e8d9 0abd e1be dabc 4c09 0dbd e264 33bc
00000180: 08e3 a63c 1c91 303c 26ca 67bc 938f ad3c
00000190: e592 013c 78e0 87bb 86f3 2cbc 82b8 b73c
000001a0: 70d4 d8bc 257c a2bb 57c4 8fbb 4160 ecbb
000001b0: 17d9 9e3b fe3d 6abc 6311 cbbc 4e47 cabb
000001c0: b8b9 b93c 9d6b 0bbc 6a20 87bb 5c8f d53b
000001d0: e431 f9bc 9c56 dcbc e27f b43c f7b1 05bd
000001e0: e883 3bbc 2ded f9ba 5e62 39bb 467e 733b
000001f0: 2a72 0b3c db4a a03c 7a3c 5ebc a182 96bc
00000200: dfd9 06bc 4f35 ef3b 314a bf3c ce0b 523c
00000210: e6a6 1abc 8e99 523c 7415 123c bc3b 003c
00000220: 6e37 b6bb 701c b03c 5e70 1ebc ce67 c0bc
00000230: c192 9bbb 5916 24bc 0cb6 e6bc 105d f8bc
00000240: 6307 9e3c 604c c73c 9741 cdbc 054e cd3b
00000250: 2d3a 81bc 798c a83c 81e7 833c a104 f4bc
00000260: 4ba4 42bc 711e 9e3c 6af3 84bc 6326 893c
00000270: a219 de3c 1c69 48bc 5fdb 58bc 51d3 bc3b
00000280: f151 5cbc b735 4a3c e058 cd3c 7230 65bc
00000290: 3038 a0bb 4b62 e53c 042b 483b 649b 5d3c
000002a0: 771c b4bc 6fcf 8abc b262 d0bc 93d7 193c
000002b0: 203a 52bc 6744 2abb 18dc c23c 691f cd3c
000002c0: 4d16 8abb dd01 bebc 5465 22bc 7009 babc
000002d0: 2935 6bbc 8210 d73c 6a66 0bbc 5af2 4db9
000002e0: 814e c73c 0272 e2bc 0d5e f83b a20a 1c3c
000002f0: 1394 13bc b2ea 78bc d859 013c b9e3 983c
00000300: 0f85 e03b a09b 753c f5a4 63bb b0c5 a73c
00000310: 5ea2 b0ba 8485 2dbc a55d 99bc 1f75 bc3c
00000320: a946 62bc e350 8f3c 6321 cdbc f8c6 6b3c
00000330: f3dd aebc 6b48 10bc 7ddf efbc 928e 00bd
00000340: fde7 aabc f83d 0cbc 9140 863c 2546 603c
00000350: 5f40 d73c 65ed a4bc fdeb 9e3c 9e45 5abc
00000360: cc6d c9bc b673 af3c 7e79 293c b329 01bd
00000370: 502e d33c 236f 8dba 4bcb dabc 81f6 d03c
00000380: b218 37bc e4fd a7bc 3dff 92bc 7fed e2bc
00000390: ebe5 bbbc be09 e3bc 3429 5b3c 7ff5 983c
000003a0: 6969 853c 1d6a 863c eaa6 e9bc 26ac a0bc
000003b0: 74d1 3c3c 0bb2 c5bc 9eec a7bc 4f81 313b
000003c0: e72b 713c 0ff2 f03b 7c7f d73c 10ac 8f3c
000003d0: 0e2c 71bc 968c 70bc a2fc 7d39 1a66 eabc
000003e0: 37ab a2bc d30c 74bc 4227 743b 7ca5 933b
000003f0: eb54 5fbb c22d 14bc 0d26 bdbb 32bf 89ba

encoder.7.bias f4 [30]
0.016816407 0.012582652 0.007963652 0.07577358 -0.020406593 0.031041231 -0.00048304003 0.074512005
-0.0027090756 0.048022553 -0.034384374 0.007682421 0.049283348 0.03521919 -0.02157665 -0.007841585
0.01068885 -0.028211722 0.06739889 0.0064944397 0.030628765 0.07175578 0.06947878 0.042813312
-0.021684872 -0.019769669 0.04658827 0.051329337 -0.012029823 -0.0042035384
00000000: 90c2 893c 7827 4e3c fa79 023c 2e2f 9b3d
00000010: ba2b a7bc 2e4a fe3c 8940 fdb9 c099 983d
00000020: bf8a 31bb 4cb3 443d a1d6 0cbd d1bc fb3b
00000030: 56dd 493d ff41 103d 84c1 b0bc fe79 00bc
00000040: 4920 2f3c 451c e7bc 6e08 8a3d 4fcf d43b
00000050: 2de9 fa3c b2f4 923d e44a 8e3d 035d 2f3d
00000060: 79a4 b1bc 00f4 a1bc 58d3 3e3d b63e 523d
00000070: bc18 45bc d6bd 89bb

encoder_info.0.weight f4 [8, 3]
0.19788271 0.6835736 -0.099770084 -0.00026176762 -0.22349061 -0.08822075 -0.16797131 -1.3282603
0.40747154 -0.30817086 -0.5522159 -0.30577952 -0.15044597 -0.3244074 -0.0065843994 -0.4463406
-1.2051244 0.23335986 0.5410676 1.1531641 -0.062645055 0.33651245 0.40978533 0.5300468
00000000: c4a1 4a3e aefe 2e3f 4254 ccbd db3d 89b9
00000010: b9da 64be 15ad b4bd ac00 2cbe 6f04 aabf
00000020: 1ca0 d03e 92c8 9dbe 055e 0dbf 228f 9cbe
00000030: 820e 1abe ba18 a6be f2c1 d7bb c186 e4be
00000040: 8441 9abf e3f5 6e3e 6883 0a3f e29a 933f
00000050: 0d4c 80bd 5c4b ac3e 62cf d13e 26b1 073f

encoder_info.0.bias f4 [8]
0.28797802 -0.077352725 0.19924185 -0.27147713 -0.30509278 0.63905865 0.33842143 -0.542713
00000000: db71 933e 1b6b 9ebd 0e06 4c3e 0dff 8abe
00000010: 1f35 9cbe 5999 233f 9345 ad3e 3def 0abf

encoder_info.2.weight f4 [1, 8]
0.44173488 -0.049899664 1.2807976 -0.2189101 -0.10080241 -0.769648 0.55249 0.33985925
00000000: 132b e23e 9763 4cbd 2df1 a33f f829 60be
00000010: 7e71 cebd a707 45bf fc6f 0d3f 0802 ae3e

decoder.0.weight f4 [1176, 30]
-0.05414287 0.080933355 0.1504707 -0.0073393863 -0.061318852 0.02655225 -0.13887554 0.21168333
0.13514097 0.1830727 0.10557774 0.0620512 0.102569364 0.19647986 -0.07346123 -0.00092245196
-0.17560965 -0.08903247 0.05931282 0.16897298 0.016679103 0.07289411 0.041333728 -0.08646917
0.09092658 0.06554951 0.20699711 0.13842954 0.17882761 -0.10397808 -0.03604891 0.12426084
-0.09996368 0.11372243 -0.17023371 0.05126804 0.11516996 0.15414114 0.13102463 0.0023163278
-0.082085185 -0.0071402485 0.13284063 0.017232861 -0.009610276 0.08844334 -0.17576872 0.0863012
0.15899636 0.08196917 -0.034087114 -0.15312624 0.10953383 0.119286075 0.15299734 0.12706952
-0.012106051 -0.19219182 0.012037074 0.026875135 -0.1332533 0.03758958 -0.01206946 0.14236987
-0.13707665 0.12126453 -0.16404057 -0.16298033 0.03519449 0.1251222 0.05681761 0.13692632
0.10313575 0.088872634 -0.0728001 -0.14584431 0.08092373 0.13191812 0.1020359 0.017756881
-0.010469601 -0.1638343 0.10159198 -0.14362805 0.14999905 -0.11519844 0.16326772 -0.0637162
-0.01982941 0.11778535 0.12369993 -0.051493417 0.026187383 0.13838333 -0.102055006 -0.09240695
0.14330529 0.014575684 -0.13118468 -0.081669316 0.01810877 -0.07797159 -0.042343646 -0.10581102
-0.11856998 0.102704816 -0.06986702 -0.12414586 0.15660185 -0.054517437 0.032063857 0.21840625
0.20311719 0.07508303 0.053657874 -0.10088766 0.12651272 0.07798383 -0.04982508 0.0716313
-0.052751277 -0.10124728 -0.12706344 -0.10986036 0.045522776 0.14682473 0.1567402 -0.047731157
0.15016837 0.1404522 -0.111926384 0.010472378 -0.12387409 -0.07069614 -0.11252625 -0.01415805
-0.17877886 -0.15618135 -0.11738906 -0.12193633 0.10822948 -0.039202657 0.056095943 -0.0424666
0.17490679 0.10579004 -0.084678486 0.02650355 -0.0018649816 -0.08095529 -0.15014905 -0.06343351
0.053910658 0.19485661 0.14742199 0.21018519 -0.096068874 0.14503375 -0.09648976 -0.04254759
0.128066 -0.027903132 -0.042038828 -0.08845742 -0.061124764 -0.08183074 -0.005298234 0.12992644
0.21859178 -0.13502975 0.083845705 -0.02660128 0.18314372 -0.013306595 -0.057095733 0.092820086
-0.06231609 -0.01776357 0.057073433 0.1279087 0.15731776 -0.12141737 -0.14595725 -0.12760904
0.1429304 0.04859142 -0.102694586 -0.1581259 -0.11288562 0.049581654 -0.045727193 0.087216504
0.07944581 -0.039234694 -0.07050975 -0.029343437 0.14134255 -0.04044093 -0.051209718 0.12344822
0.10531402 0.12787971 -0.1494346 0.10256228 0.07812242 0.16289717 -0.03511574 -0.10939373
-0.06523695 0.046035938 -0.07919293 -0.11756805 -0.0832874 0.1504237 -0.059480578 -0.03961471
0.01208124 -0.038011722 0.114066124 -0.115436226 0.013973095 0.09316951 -0.00043290923 -0.085689574
0.04509039 -0.14907537 0.09330485 -0.17787583 0.115101956 -0.048771903 -0.08672193 -0.059496157
-0.074241124 0.110008344 -0.14915513 0.08131344 0.0055481866 -0.028731497 0.13378215 -0.0790064
0.0414809 -0.17050831 0.06773208 0.16949798 -0.16896842 0.050642002 0.1582213 0.19048336
0.008475383 -0.032121874 0.07792034 0.08906381 -0.0024482042 0.073195376 -0.00959959 -0.05417103
00000000: eac4 5dbd 63c0 a53d fe14 1a3e 3c7f f0bb
00000010: 7a29 7bbd 1b84 d93c 6435 0ebe 84c3 583e
00000020: 6562 0a3e 6977 3b3e 2439 d83d 6629 7e3d
00000030: e30f d23d 0432 493e d772 96bd b4d0 71ba
00000040: 04d3 33be a856 b6bd 00f2 723d 4107 2d3e
00000050: 9da2 883c 8249 953d 8e4d 293d c016 b1bd
00000060: b737 ba3d d23e 863d 0df7 533e 79c0 0d3e
00000070: 961e 373e 76f2 d4bd 06a8 13bd 787c fe3d
00000080: c2b9 ccbd 4ee7 e83d bf51 2ebe 70fe 513d
00000090: 3ade eb3d 2dd7 1d3e 522b 063e 88cd 173b
000000a0: 471c a8bd bff8 e9bb 6007 083e ee2b 8d3c
000000b0: 6b74 1dbc c821 b53d b7fc 33be afbe b03d
000000c0: f1cf 223e 74df a73d ee9e 0bbd 20cd 1cbe
000000d0: 4653 e03d 424c f43d 56ab 1c3e 831e 023e
000000e0: 7558 46bc efcd 44be 2637 453c 3e29 dc3c
000000f0: 8e73 08be 88f7 193d fcbe 45bc 68c9 113e
00000100: d25d 0cbe 8a59 f83d 40fa 27be 51e4 26be
00000110: 1928 103d 0920 003e 95b9 683d 6a36 0c3e
00000120: d638 d33d db02 b63d 3818 95bd 3658 15be
00000130: 57bb a53d 8b15 073e 33f8 d03d e176 913c
00000140: b088 2bbc 2ec4 27be 750f d03d 3b13 13be
00000150: 5a99 193e 29ed ebbd a72f 273e a47d 82bd
00000160: 4971 a2bc 7239 f13d 6456 fd3d c3ea 52bd
00000170: ec86 d63c 5cb4 0d3e 3702 d1bd db3f bdbd
00000180: 9fbe 123e dace 6e3c 4755 06be 3e42 a7bd
00000190: d858 943c 92af 9fbd 8870 2dbd 73b3 d8bd
000001a0: d1d4 f2bd e756 d23d 7116 8fbd 2f40 febd
000001b0: 3c5c 203e ad4d 5fbd 6455 033d e3a5 5f3e
000001c0: f4fd 4f3e 22c5 993d 5cc8 5b3d 319e cebd
000001d0: 8d8c 013e fcb5 9f3d 6215 4cbd 6eb3 923d
000001e0: b911 58bd bc5a cfbd eb1c 02be 78fe e0bd
000001f0: 1776 3a3d 3959 163e 8180 203e bf81 43bd
00000200: bdc5 193e b4d2 0f3e a939 e5bd 5694 2b3c
00000210: b3b1 fdbd 23c9 90bd 2a74 e6bd 2af7 67bc
00000220: ce11 37be 01ee 1fbe ad69 f0bd c1b9 f9bd
00000230: 6ba7 dd3d f792 20bd dcc4 653d 75f1 2dbd
00000240: c41a 333e 73a8 d83d ea6b adbd f91d d93c
00000250: 6672 f4ba e3cb a5bd acc0 19be 6ee9 81bd
00000260: 6cd1 5c3d 7e88 473e caf5 163e c93a 573e
00000270: c2bf c4bd ba83 143e 6c9c c5bd 6246 2ebd
00000280: bc23 033e 1c95 e4bc e830 2cbd 2a29 b5bd
00000290: f65d 7abd e096 a7bd cf9c adbb 700b 053e
000002a0: 86d6 5f3e 3d45 0abe 4cb7 ab3d edea d9bc
000002b0: 078a 3b3e e803 5abc 37dd 69bd 7518 be3d
000002c0: 283f 7fbd e884 91bc d5c5 693d 80fa 023e
000002d0: e817 213e aca9 f8bd d175 15be f2ab 02be
000002e0: 595c 123e cc07 473d 8a51 d2bd c2eb 21be
000002f0: 9330 e7bd 2216 4b3d 704c 3bbd 919e b23d
00000300: 7cb4 a23d 8fb4 20bd 6a67 90bd a661 f0bc
00000310: 1abc 103e 63a5 25bd 48c1 51bd 6cd2 fc3d
00000320: e0ae d73d e6f2 023e 6205 19be 2c0c d23d
00000330: a6fe 9f3d 84ce 263e 86d5 0fbd d209 e0bd
00000340: f39a 85bd 2e90 3c3d e72f a2bd 85c7 f0bd
00000350: 9692 aabd ac08 1a3e e8a1 73bd 0943 22bd
00000360: 65f0 453c 2eb2 1bbd 809b e93d d469 ecbd
00000370: 69ef 643c a8cf be3d 18f8 e2b9 047e afbd
00000380: b3b0 383d 37a7 18be 9d16 bf3d 1525 36be
00000390: 93ba eb3d 0cc5 47bd 449b b1bd 3eb2 73bd
000003a0: bb0b 98bd 0e4c e13d 1fbc 18be a987 a63d
000003b0: 90cd b53b 515e ebbc 30fe 083e 1cce a1bd
000003c0: e0e7 293d bb99 2ebe 1eb7 8a3d e190 2d3e
000003d0: 0f06 2dbe fd6d 4f3d c404 223e 120e 433e
000003e0: 55dc 0a3c 3a92 03bd b394 9f3d 1667 b63d
000003f0: 0d72 20bb 75e7 953d 9947 1dbc 71e2 5dbd

decoder.0.bias f4 [1176]
0.13850021 -0.04120301 0.05954485 0.011649028 -0.032132164 0.038629845 0.1447748 0.15269354
0.17432867 0.23345402 0.22067425 0.20804861 0.1528584 -0.04236293 -0.0021177984 0.054012664
0.044664614 0.008951759 -0.027601156 0.01603245 0.0817303 -0.16091666 0.0115298545 0.17913543
-0.039137755 0.02148205 0.09498288 0.14764448 0.13611221 0.046445638 0.11986957 -0.18541406
0.22355959 0.18235096 -0.0829228 -0.12391033 0.19129544 0.056834802 0.076608896 0.1250469
-0.14454629 -0.09533407 -0.11838495 0.18043323 0.09284141 0.09348566 0.19227639 -0.075694405
-0.07132245 0.06110679 0.16733111 0.011875577 0.057025775 0.15446761 -0.0752648 -0.15891929
-0.098402135 0.17317432 0.07232007 0.18619391 0.06834021 0.22523364 0.1674168 0.021434845
0.20859918 -0.030328402 -0.046448898 0.16388221 0.14103879 -0.06979085 -0.09445849 -0.1681057
-0.12997507 -0.10674239 -0.06293169 0.021679278 -0.1349794 0.16660027 0.15033266 0.17820951
-0.019051898 -0.17517191 0.21683203 0.19520696 0.03553126 -0.056608412 0.042007364 -0.027143557
0.132121 0.073982455 -0.071821764 0.040145278 0.11018053 -0.012845126 0.09142806 0.084305786
-0.09676283 -0.08530218 0.08122127 0.064865515 0.10288594 -0.17496872 0.1916231 -0.0043355026
0.11330889 0.07172816 0.19123481 -0.0134112965 -0.11833453 0.050026003 0.010629399 -0.084412046
0.06299076 -0.1467222 0.16807638 0.17437875 -0.043323353 0.13653618 -0.072921045 0.1646064
-0.0015548661 0.021676125 -0.13719282 0.16674572 -0.06878922 -0.12303279 0.12733307 -0.09094382
0.00492069 0.19401985 0.11473743 -0.023729397 0.056505177 0.08360376 -0.17661303 -0.10616603
-0.13329291 0.20069353 -0.09470874 0.18340266 -0.045233503 0.11326888 -0.06002612 -0.0011145838
0.037617434 0.022782942 -0.048497804 0.005530202 -0.122279055 -0.17682558 -0.13661623 0.16732284
0.05388476 0.13939233 0.17894958 0.16711517 0.1937286 0.13893083 0.091562524 -0.092478834
0.12028616 0.09238904 -0.0939806 0.10300812 -0.007384247 0.056589197 0.12273571 0.12853675
0.19406815 0.02243123 0.1693567 0.12426583 -0.045957804 0.23442797 0.13868123 0.11575616
0.04093953 0.038229395 -0.06656908 -0.006000853 0.06915341 0.105418794 0.19198638 -0.10534718
0.044747803 -0.01771661 -0.017290873 -0.068211526 -0.05545824 -0.087139964 0.15588225 0.012478954
0.18522513 -0.04392168 0.20144813 -0.119100355 -0.021020975 0.21093595 0.13600138 -0.080590494
-0.13148461 0.09965517 0.044782564 -0.014801965 0.22793698 -0.028120523 -0.09236374 0.10298044
-0.10340892 -0.045107387 -0.10116674 -0.17765442 0.13506943 -0.008802822 -0.07377937 -0.10143529
0.1544075 -0.18104403 0.0770188 0.10901664 -0.08252872 -0.038683593 0.05296707 0.009463353
0.093676664 0.15453736 -0.022423895 -0.12880255 0.059228543 0.032218542 -0.017375546 -0.12405519
0.23186918 0.18420564 0.14442424 -0.10276582 0.22675629 0.12248907 -0.1258741 0.10523908
0.195562 -0.16792673 0.056756295 -0.17659126 -0.14847237 0.09027454 0.1555739 0.21777977
-0.09242335 0.089588046 -0.09639831 0.09623111 0.20164417 -0.081589945 0.13471344 0.124564186
00000000: 00d3 0d3e 7dc4 28bd 4de5 733d 91db 3e3c
00000010: 049d 03bd 543a 1e3d d83f 143e b25b 1c3e
00000020: 3783 323e 920e 6f3e 6ef8 613e b20a 553e
00000030: ea86 1c3e c084 2dbd c3ca 0abb 623c 5d3d
00000040: 3ef2 363d 66aa 123c d21b e2bc 7c56 833c
00000050: 3762 a73d 56c7 24be b7e7 3c3c 476f 373e
00000060: e94e 20bd 20fb af3c 6286 c23d 1d30 173e
00000070: 0061 0b3e c83d 3e3d 2d7e f53d 2fdd 3dbe
00000080: ceec 643e 36ba 3a3e 6ed3 a9bd b3c4 fdbd
00000090: f4e2 433e 9ccb 683d 20e5 9c3d 4b0c 003e
000000a0: f103 14be 823e c3bd cf73 f2bd 7dc3 383e
000000b0: a323 be3d 6975 bf3d 1ae4 443e ab05 9bbd
000000c0: 8111 92bd 1d4b 7a3d d958 2b3e c891 423c
000000d0: dc93 693d c22c 1e3e 6e24 9abd bdbb 22be
000000e0: 0f87 c9bd 9c54 313e 8b1c 943d 9ea9 3e3e
000000f0: f4f5 8b3d a6a3 663e 4f6f 2b3e 2198 af3c
00000100: 069b 553e 4573 f8bc 3341 3ebd bdd0 273e
00000110: 796c 103e 81ee 8ebd 7473 c1bd e723 2cbe
00000120: 2f18 05be c19b dabd 54e2 80bd be98 b13c
00000130: 0a38 0abe 4399 2a3e cef0 193e 8e7c 363e
00000140: ba12 9cbc 4460 33be 3709 5e3e 55e4 473e
00000150: 3a89 113d 39de 67bd ea0f 2c3d 2a5c debc
00000160: ba4a 073e 1d84 973d 4a17 93bd 606f 243d
00000170: 54a6 e13d 5d74 52bc a23e bb3d 83a8 ac3d
00000180: 972b c6bd e9b2 aebd 5657 a63d 36d8 843d
00000190: ddb5 d23d 002b 33be d938 443e d510 8ebb
000001a0: 7e0e e83d 37e6 923d 0fd3 433e 0ebb 5bbc
000001b0: 6059 f2bd 11e8 4c3d ee26 2e3c 39e0 acbd
000001c0: 4d01 813d 583e 16be 371c 2c3e 5890 323e
000001d0: d473 31bd 24d0 0b3e a157 95bd 958e 283e
000001e0: a6cc cbba 2192 b13c 467c 0cbe 64bf 2a3e
000001f0: 5de1 8cbd 9ef8 fbbd 9a63 023e c140 babd
00000200: bd3d a13b 24ad 463e 75fb ea3d 2764 c2bc
00000210: f971 673d 7338 ab3d 0cda 34be 936d d9bd
00000220: f07d 08be 9b82 4d3e a8f6 c1bd e8cd 3b3e
00000230: c446 39bd 84f9 e73d f3dd 75bd 3a17 92ba
00000240: bd14 1a3d 4ba3 ba3c a2a5 46bd b236 b53b
00000250: 716d fabd c411 35be 20e5 0bbe ae56 2b3e
00000260: 44b6 5c3d ddbc 0e3e 8f3e 373e 3d20 2b3e
00000270: ca60 463e e243 0e3e 2285 bb3d 8b65 bdbd
00000280: 9758 f63d 7736 bd3d e778 c0bd ecf5 d23d
00000290: 8ef7 f1bb 13ca 673d dc5c fb3d 239f 033e
000002a0: cdb9 463e b3c1 b73c d86b 2d3e 157f fe3d
000002b0: 403e 3cbd e30d 703e 7402 0e3e 9111 ed3d
000002c0: 35b0 273d 6d96 1c3d 5f55 88bd cea2 c4bb
000002d0: 4ea0 8d3d cfe5 d73d 1498 443e 43c0 d7bd
000002e0: 7949 373d 6d22 91bc 97a5 8dbc 7cb2 8bbd
000002f0: 2e28 63bd 7076 b2bd 999f 1f3e 8774 4c3c
00000300: a8ab 3d3e 38e7 33bd 6b48 4e3e e3ea f3bd
00000310: 2e34 acbc 98ff 573e f243 0b3e a10c a5bd
00000320: e7a3 06be 0318 cc3d ec6d 373d f183 72bc
00000330: 5068 693e 035d e6bc 3329 bdbd 69e7 d23d
00000340: 0ec8 d3bd 86c2 38bd 8230 cfbd 0aeb 35be
00000350: a44f 0a3e b639 10bc a319 97bd 4ebd cfbd
00000360: 001d 1e3e 9b63 39be 08bc 9d3d 1e44 df3d
00000370: d104 a9bd b072 1ebd 00f4 583d 2e0c 1b3c
00000380: 8dd9 bf3d 0b3f 1e3e 51b2 b7bc d1e4 03be
00000390: a199 723d 97f7 033d 2957 8ebc a610 febd
000003a0: 1d6f 6d3e 67a0 3c3e f3e3 133e e376 d2bd
000003b0: cd32 683e 8ddb fa3d 24e5 00be 9687 d73d
000003c0: 6841 483e fcf4 2bbe 4a79 683d 57d4 34be
000003d0: 2409 18be dce1 b83d c44e 1f3e a901 5f3e
000003e0: 7448 bdbd f079 b73d 7a6c c5bd d114 c53d
000003f0: cf7b 4e3e a118 a7bd 52f2 093e 821b ff3d

decoder.3.weight f4 [24, 32, 3, 3]
0.061179474 -0.03616336 -0.049991336 0.021077383 -0.022792388 -0.0035066502 0.038973775 -0.0099490825
-0.022327878 -0.006122152 0.02547325 -0.0073478566 -0.050557815 0.021798037 -0.073138386 0.060290117
0.07402368 0.031122647 0.03309258 0.11918866 0.019505132 0.03372187 0.029144771 0.02377987
0.045864694 0.043041803 0.004854946 0.022676766 0.03334485 -0.01775209 0.11293139 -0.0071363337
0.092248246 0.05658684 -0.010293212 0.05527766 0.059942782 0.09585789 0.029595315 0.023746895
0.09375435 0.05144969 -0.024915216 0.04055362 0.058139954 0.034107335 0.058643837 0.035320193
0.047161654 0.0811931 0.051750287 0.020929141 0.008278296 -0.005383456 0.07470411 0.01828157
0.02602673 -0.017177986 -0.0053194533 -0.02928018 0.012022276 0.017779874 0.0136979595 0.036618736
0.021032726 -0.020343661 0.01745355 0.11652622 0.089794256 0.07505959 0.047597628 0.009848732
0.06743406 -0.011449684 0.010601667 0.029963482 -0.0063949293 -0.011016678 0.061433014 0.054325867
0.042177867 0.044596255 0.08293742 -0.007899636 -0.0054417984 0.1310442 -0.038231336 0.0092207445
0.050798755 -0.030552112 0.048925508 0.0059451177 -0.050783727 0.042068813 0.07055688 0.05908792
0.053339306 0.036828358 -0.0121375965 0.0066684107 0.046337523 -0.028920515 0.00074528233 0.08326024
-0.016079731 0.02606795 0.021168541 -0.03196953 0.06844228 0.008959384 -0.060763087 -0.015998648
0.08315143 -0.05132466 0.0274761 0.004354359 -0.07360475 0.06825139 0.05171277 0.038151633
-0.02700471 0.005038992 -0.0101532275 0.029235648 0.012490127 -0.0017891503 -0.016377194 0.011590918
0.047446705 -0.061962888 0.07101238 0.022307605 0.044052 0.09599008 -0.015961194 0.03992999
0.095904835 0.042970147 0.12450629 0.032163233 -0.17530209 0.05160472 -0.0018205162 -0.026424248
0.00984388 0.037275884 -0.0144359805 0.011367756 -0.007896147 0.05690511 0.060594093 0.033157688
0.09009392 0.07937975 0.018614504 -0.060447555 0.040256746 0.02813599 -0.043265704 0.09737387
0.07019208 -0.011275253 0.02671104 0.028622877 -0.045977525 0.010358975 0.11015095 -0.0437127
0.050549574 0.058855876 0.01811476 -0.0052829273 0.03628957 0.0065026972 0.0065732426 0.021097811
0.00016378734 0.010947809 0.027555829 0.056806896 0.07694081 0.1184737 0.088606946 0.06401855
0.0693362 -0.05392973 0.05183798 0.068463825 0.061683707 -0.017519256 0.0053231264 -0.026201496
-0.0395952 0.00038704957 0.071871616 0.026184898 0.06471273 0.017669303 0.011309878 0.053636055
-0.018120816 0.07579621 0.021477697 0.01794478 -0.0066979933 -0.015150061 -0.024851734 0.05986435
-0.008506482 0.033388194 -0.026571264 0.06338066 -0.0050034095 0.008285203 0.059553474 0.030266803
0.073860526 0.011966847 0.043661103 -0.038772285 0.030804494 -0.0010221318 0.0033421263 0.09107632
0.036723632 0.032462593 0.118012995 0.06984924 0.006889822 0.032249916 0.09220457 0.06592175
0.097286254 0.07964485 0.037873745 0.07845652 -0.028998934 0.09924508 0.07536443 0.070444636
0.009979286 0.02210639 0.038595267 0.015826236 0.086904414 0.014634273 0.042267382 0.047135837
0.043093093 -0.0013883996 0.055589337 0.0074243145 0.046975095 0.035638765 -0.036944516 0.055825237
00000000: 5497 7a3d 0820 14bd b7c3 4cbd 7aaa ac3c
00000010: 1ab7 babc d4cf 65bb f7a2 1f3d 7a01 23bc
00000020: f4e8 b6bc 559c c8bb 47ad d03c 4ac6 f0bb
00000030: b615 4fbd cc91 b23c 94c9 95bd c5f2 763d
00000040: ba99 973d ecf4 fe3c 168c 073d 2f19 f43d
00000050: 3ac9 9f3c f21f 0a3d 04c1 ee3c 00ce c23c
00000060: 9edc 3b3d 9a4c 303d 3d16 9f3b a0c4 b93c
00000070: 9c94 083d d56c 91bc 9348 e73d e8d7 e9bb
00000080: a6ec bc3d 9ac7 673d dca4 28bc d46a 623d
00000090: 9086 753d 2451 c43d e071 f23c d988 c23c
000000a0: 4802 c03d e9bc 523d ff1a ccbc 8d1b 263d
000000b0: 2924 6e3d 22b4 0b3d 8534 703d e8ab 103d
000000c0: 942c 413d 9148 a63d 1cf8 533d 9773 ab3c
000000d0: b1a1 073c b467 b0bb 78fe 983d 3bc3 953c
000000e0: 0236 d53c d9b8 8cbc cf4e aebb fddc efbc
000000f0: 15f9 443c 19a7 913c 686d 603c 87fd 153d
00000100: d34c ac3c c0a7 a6bc bffa 8e3c 4da5 ee3d
00000110: 0de6 b73d d8b8 993d bbf5 423d 935c 213c
00000120: de1a 8a3d 7597 3bbc 9db2 2d3c fa75 f53c
00000130: 8e8c d1bb 4c7f 34bc 2fa1 7b3d cd84 5e3d
00000140: b3c2 2c3d 90aa 363d 18db a93d 7a6d 01bc
00000150: 1d51 b2bb 7330 063e 7698 1cbd 9b12 173c
00000160: 5b12 503d 6c48 fabc 1d66 483d 43cf c23b
00000170: 9902 50bd 5950 2c3d 2080 903d 2d06 723d
00000180: 517a 5a3d 55d9 163d c5dc 46bc af82 da3b
00000190: 6acc 3d3d b7ea ecbc 0d5f 433a 5884 aa3d
000001a0: a4b9 83bc 748c d53c a669 ad3c 7bf2 02bd
000001b0: 772b 8c3d 61ca 123c b7e2 78bd 990f 83bc
000001c0: 4c4b aa3d cf39 52bd 8f15 e13c 03af 8e3b
000001d0: 16be 96bd 62c7 8b3d c5d0 533d e344 1c3d
000001e0: fb38 ddbc 211e a53b b959 26bc 997f ef3c
000001f0: 64a3 4c3c ec81 eaba 7729 86bc d5e7 3d3c
00000200: 7a57 423d cccc 7dbd f06e 913d 70be b63c
00000210: df6f 343d 7296 c43d 0dc1 82bc a18d 233d
00000220: c169 c43d 7701 303d 27fd fe3d 98bd 033d
00000230: 6482 33be 795f 533d 639e eeba aa77 d8bc
00000240: 3a48 213c 99ae 183d e484 6cbc d33f 3a3c
00000250: d75e 01bc 5515 693d 8331 783d 5bd0 073d
00000260: 2983 b83d da91 a23d 727d 983c db97 77bd
00000270: 42e4 243d 737d e63c 6137 31bd f46b c73d
00000280: dec0 8f3d d7bb 38bc 1cd1 da3c 867a ea3c
00000290: ee52 3cbd b1b8 293c d296 e13d 170c 33bd
000002a0: 120d 4f3d dc12 713d 6865 943c 681c adbb
000002b0: 5fa4 143d 9414 d53b 5b64 d73b 51d5 ac3c
000002c0: 54be 2b39 705e 333c c3bc e13c 59ae 683d
000002d0: 2593 9d3d 57a2 f23d 8f77 b53d 281c 833d
000002e0: 2300 8e3d 6ce5 5cbd 1054 543d c336 8c3d
000002f0: 0ea8 7c3d 8b84 8fbc 9f6d ae3b 85a4 d6bc
00000300: 942e 22bd eaec ca39 6d31 933d b681 d63c
00000310: 1c88 843d 37bf 903c 114d 393c 7bb1 5b3d
00000320: 1b72 94bc 0b3b 9b3d fff1 af3c ee00 933c
00000330: d77a dbbb f637 78bc dd95 cbbc 5234 753d
00000340: c55e 0bbc 0fc2 083d fbab d9bc b8cd 813d
00000350: a4f3 a3bb a9be 073c 58ee 733d 16f2 f73c
00000360: 3044 973d 9810 443c fcd5 323d b0cf 1ebd
00000370: b559 fc3c 0df9 85ba 9307 5b3b 3986 ba3d
00000380: 856b 163d 7ff7 043d ccb0 f13d 1e0d 8f3d
00000390: 04c4 e13b 7d18 043d c0d5 bc3d fc01 873d
000003a0: 043e c73d d71c a33d 8021 1b3d d0ad a03d
000003b0: 2c8f edbc 0141 cb3d ab58 9a3d 4745 903d
000003c0: 2980 233c 7618 b53c 1216 1e3d 06a6 813c
000003d0: f1fa b13d 97c4 6f3c 9020 2d3d 8211 413d
000003e0: 6282 303d f6fa b5ba a5b1 633d aa47 f33b
000003f0: f568 403d f4f9 113d 2253 17bd 01a9 643d

decoder.3.bias f4 [32]
0.0033775594 0.09984449 0.07509512 0.04031407 0.038714487 0.044634435 0.038196046 0.07560437
0.03982372 0.045974344 0.085884124 0.09406305 0.034117695 0.043154754 0.021914795 0.08069243
0.0014680729 0.03469693 0.10219281 0.09050366 0.081682764 0.08964377 0.06703374 0.078325525
0.032251015 0.058376618 0.04008833 0.10543517 0.0030550465 0.026151037 0.042353116 0.07271047
00000000: 0b5a 5d3b 457b cc3d 78cb 993d 5e20 253d
00000010: 1593 1e3d 99d2 363d 7573 1c3d 77d6 9a3d
00000020: 321e 233d 984f 3c3d 04e4 af3d 21a4 c03d
00000030: ffbe 0b3d 0ac3 303d a886 b33c 1342 a53d
00000040: 5a6c c03a 5e1e 0e3d 774a d13d fc59 b93d
00000050: 4b49 a73d 2797 b73d fc48 893d 2269 a03d
00000060: a419 043d 521c 6f3d a933 243d 65ee d73d
00000070: 2d37 483b b33a d63c 767a 2d3d 3ae9 943d

decoder.5.weight f4 [32, 40, 2, 2]
-0.12381801 -0.011676067 -0.040121313 -0.016488232 -0.078618325 -0.041930303 0.0011225038 -0.009931373
0.029393362 0.0063113 0.012260675 -0.04664429 0.04080077 -0.05429751 -0.10020722 -0.04009705
-0.036820162 -0.106796786 -0.018447744 -0.066081166 -0.046767946 -0.016970336 -0.08078976 0.028037319
-0.09819547 -2.3905244e-05 -0.02046234 -0.08380963 0.005722392 -0.08375164 0.00027996142 0.01875969
0.00043816963 0.009611273 -0.04295795 -0.0803688 0.012791519 -0.047522973 -0.061505996 -0.09374003
-0.052162018 -0.058006667 -0.07380586 -0.03390417 0.023466418 -0.012392317 0.010880845 -0.077850565
0.015138575 -0.050601147 0.009832672 -0.012288879 -0.02951407 0.030329594 -0.04979833 -0.0365653
0.035160437 -0.070496455 0.0342891 0.009134356 -0.028996034 0.04970847 -0.00021377763 -0.012968433
0.014277519 0.009221967 -0.020115506 0.016800977 0.014746496 -0.028747257 -0.049498796 0.061778378
-0.05238606 0.012111554 -0.0026028426 0.03177654 0.025622025 0.03339757 0.072821006 -0.007243724
-0.030368237 -0.06969315 -0.05818907 0.0330639 0.04749356 0.03440381 0.011263565 -0.08101806
-0.03372859 0.026964292 -0.013709013 -0.07851197 -0.017231658 0.0022648019 0.071729906 0.052780125
-0.044781085 0.058427908 -0.08947236 0.038799852 -0.041678272 0.05004952 -0.067773126 -0.09280179
0.00324637 -0.03883891 -0.028127069 0.05062093 -0.09312753 -0.08523177 0.04570908 0.026312675
-0.07997667 0.029119238 -0.022151597 -0.08722295 0.008549146 0.04740252 -0.07449188 -0.11402539
-0.08088167 -0.036461603 -0.038629975 0.010049392 0.04387435 -0.030217683 0.032420974 0.042566936
0.0010544293 -0.019590877 -0.042341713 -0.0203495 -0.040944412 0.025455186 -0.024196792 -0.043329265
-0.05050614 -0.07224449 -0.025675943 -0.057860497 -0.106401935 -0.047504544 -0.045494456 -0.052081503
-0.01923481 -0.055128947 -0.026278025 -0.0060345195 -0.024081156 -0.093738146 0.018498942 -0.062148023
-0.05109833 -0.06422731 -0.026927782 0.014500336 -0.0986824 0.0084442785 -0.11218712 -0.052941468
0.014049252 -0.087835185 0.016096931 0.002256578 -0.015809316 -0.10386946 0.009082125 -0.043092217
0.01246332 -0.021050924 -0.13041764 -0.06097713 -0.08868923 -0.1375704 -0.06068494 -0.0914595
0.009312078 -0.006514125 -0.0046541113 0.007653267 -0.077054456 -0.07701591 -0.05024845 -0.11746981
-0.07084925 -0.017455623 -0.0312872 -0.10977408 -0.008797173 -0.04967381 -0.02217759 -0.040696863
-0.009079634 0.009262301 -0.118512824 -0.093027346 -0.0876465 -0.103419535 -0.037805986 -0.03789378
-0.09306724 -0.08505016 -0.07591348 -0.12048772 -0.008626241 -0.034703147 -0.0031837504 -0.11196996
-0.04818338 -0.098532386 -0.082105406 -0.02994689 -0.029634828 -0.11558503 -0.08104844 -0.04870352
-0.062223624 -0.047400225 -0.05753051 -0.047585502 0.024648938 -0.07050594 -0.092069805 -0.030572165
-0.009344551 -0.07720033 -0.08293561 -0.045383792 -0.028970286 -0.027203644 -0.022638349 -0.0799624
-5.8540154e-05 0.06706034 -0.028307134 -0.00894644 -0.05746045 -0.047692772 -0.03710054 -0.0013622178
-0.04175339 -0.076753564 -0.08477793 -0.0041191913 0.0023685882 -0.045948602 -0.085760154 -0.07653824
-0.025213543 -0.020631019 -0.0069460873 0.010352203 -0.05938319 0.0049633016 0.006220109 0.006432562
00000000: 4c94 fdbd f94c 3fbc 3f56 24bd 5412 87bc
00000010: a502 a1bd 1cbf 2bbd fa20 933a 33b7 22bc
00000020: 59ca f03c 06cf ce3b 00e1 483c 150e 3fbd
00000030: b51e 273d 1167 5ebd 7139 cdbd ce3c 24bd
00000040: bdd0 16bd 46b8 dabd b91f 97bc 9055 87bd
00000050: bf8f 3fbd 6005 8bbc 1a75 a5bd 85ae e53c
00000060: b51a c9bd 1f88 c8b7 a3a0 a7bc 62a4 abbd
00000070: e782 bb3b fb85 abbd c9c7 9239 ecad 993c
00000080: 22ba e539 9a78 1d3c adf4 2fbd 6698 a4bd
00000090: 8593 513c 73a7 42bd b6ed 7bbd c6fa bfbd
000000a0: d7a7 55bd 6698 6dbd 8727 97bd 19df 0abd
000000b0: a53c c03c 2509 4bbc 9245 323c 1e70 9fbd
000000c0: c907 783c 2643 4fbd 3719 213c 4b57 49bc
000000d0: 7ec7 f1bc c575 f83c 55f9 4bbd 7fc5 15bd
000000e0: 6404 103d 7260 90bd ba72 0c3d 44a8 153c
000000f0: 1789 edbc 1c9b 4b3d 7f29 60b9 8d79 54bc
00000100: 41ec 693c bc17 173c 46c9 a4bc 34a2 893c
00000110: 4a9b 713c 5e7f ebbc 40bf 4abd 530b 7d3d
00000120: c492 56bd 8a6f 463c 7494 2abb 1e28 023d
00000130: 48e5 d13c e4cb 083d 2e23 953d c35c edbb
00000140: cfc6 f8bc 48bb 8ebd aa57 6ebd 036e 073d
00000150: 9b88 423d 02eb 0c3d d18a 383c ccec a5bd
00000160: fd26 0abd 38e4 dc3c c59b 60bc e2ca a0bd
00000170: 6829 8dbc 126d 143b 21e7 923d f92f 583d
00000180: 5f6c 37bd 1a52 6f3d 493d b7bd 98ec 1e3d
00000190: d6b6 2abd ba00 4d3d a3cc 8abd dd0e bebd
000001a0: 0dc1 543b 8d15 1fbd bd6a e6bc e457 4f3d
000001b0: a5b9 bebd ff8d aebd 7239 3b3d ae8d d73c
000001c0: cfca a3bd 788b ee3c 4477 b5bc f2a1 b2bd
000001d0: b811 0c3c 2529 423d 338f 98bd 2586 e9bd
000001e0: 4aa5 a5bd c358 15bd 773a 1ebd 34a6 243c
000001f0: 97b5 333d 138b f7bc dbcb 043d ab5a 2e3d
00000200: c734 8a3a 0c7d a0bc 816e 2dbd ffb3 a6bc
00000210: 54b5 27bd 6587 d03c 5a38 c6bc 077a 31bd
00000220: 87df 4ebd ebf4 93bd 5b56 d2bc 21ff 6cbd
00000230: 42e9 d9bd 2094 42bd 6558 3abd 6a53 55bd
00000240: 5292 9dbc e4ce 61bd 0345 d7bc 38bd c5bb
00000250: d845 c5bc c9f9 bfbd 188b 973c ed8e 7ebd
00000260: 7c4c 51bd 9c89 83bd a797 dcbc d192 6d3c
00000270: 001a cabd df59 0a3c 5cc2 e5bd 27d9 58bd
00000280: d52e 663c efe2 b3bd b6dd 833c 19e3 133b
00000290: 8a82 81bc 83b9 d4bd 31cd 143c 7781 30bd
000002a0: f432 4c3c fd72 acbc 348c 05be 28c3 79bd
000002b0: b3a2 b5bd 41df 0cbe c690 78bd 1e4f bbbd
000002c0: b091 183c 7174 d5bb 8481 98bb 42c8 fa3b
000002d0: bace 9dbd 84ba 9dbd 52d1 4dbd 0394 f0bd
000002e0: 6919 91bd 18ff 8ebc 0227 00bd 3cd1 e0bd
000002f0: 0522 10bc c476 4bbd c7ad b5bc c1b1 26bd
00000300: bfc2 14bc e8c0 173c dab6 f2bd 1f85 bebd
00000310: 0280 b3bd 9fcd d3bd 73da 1abd 8236 1bbd
00000320: 0a9a bebd c72e aebd 8778 9bbd 44c2 f6bd
00000330: 1455 0dbc e324 0ebd 78a6 50bb 8250 e5bd
00000340: f05b 45bd 59cb c9bd e126 a8bd 2e53 f5bc
00000350: bdc4 f2bc d8b7 ecbd b9fc a5bd 587d 47bd
00000360: 33de 7ebd bd26 42bd 1da5 6bbd 04e9 42bd
00000370: 92ec c93c 6b65 90bd 188f bcbd 7a72 fabc
00000380: e319 19bc 351b 9ebd 25da a9bd 5be4 39bd
00000390: 1853 edbc 2dda debc 0f74 b9bc 54c3 a3bd
000003a0: 0389 75b8 ee56 893d 5de4 e7bc 1794 12bc
000003b0: a65b 6bbd 7f59 43bd bcf6 17bd 728c b2ba
000003c0: 9a05 2bbd f930 9dbd 0da0 adbd 48fa 86bb
000003d0: 513a 1b3b 9a34 3cbd 05a3 afbd 15c0 9cbd
000003e0: a28c cebc 6202 a9bc 019c e3bb 499c 293c
000003f0: ca3b 73bd 31a3 a23b 0ed2 cb3b 3ec8 d23b

decoder.5.bias f4 [40]
-0.052658822 -0.090268314 0.0066176224 -0.058990896 -0.0009190598 0.036770336 -0.05704894 -0.10999521
-0.039382175 -0.06614401 0.0072800377 0.0012440794 -0.018659065 0.04329763 0.018845499 -0.08164399
-0.05431726 -0.10196951 -0.10828967 -0.077601366 -0.059960004 0.0055387276 -0.08330236 -0.046334196
-0.036060132 -0.087559454 0.020144913 0.020301633 -0.03204285 0.014766238 -0.06900512 -0.007325445
-0.029970352 -0.029638903 -0.037893765 0.02024451 0.030719994 0.0004953632 -0.011128442 -0.004238045
00000000: c7b0 57bd 98de b8bd a4d8 d83b 70a0 71bd
00000010: 0fed 70ba 7e9c 163d 26ac 69bd 2b45 e1bd
00000020: 344f 21bd 8376 87bd 628d ee3b 6110 a33a
00000030: e5da 98bc db58 313d e061 9a3c f734 a7bd
00000040: c67b 5ebd 64d5 d0bd f9c6 ddbd 77ed 9ebd
00000050: 9f98 75bd 377e b53b 6d9a aabd edc8 3dbd
00000060: cab3 13bd 5f52 b3bd f206 a53c 9c4f a63c
00000070: 5d3f 03bd 17ee 713c 8e52 8dbd 490a f0bb
00000080: 6284 f5bc 49cd f2bc 7e36 1bbd d1d7 a53c
00000090: 7fa8 fb3c 43db 013a 1254 36bc 4cdf 8abb

decoder_info.0.weight f4 [8, 1]
0.6292205 -1.240048 -0.70444953 -0.37378109 1.1334885 0.9753166 -0.37599516 -0.41017795
00000000: 9814 213f e5b9 9ebf ce56 34bf 3c60 bfbe
00000010: 2716 913f 59ae 793f 7082 c0be d802 d2be

decoder_info.0.bias f4 [8]
1.0182526 0.5034153 -0.8458673 -0.084882975 -0.09678147 -0.394606 -0.6530998 -0.22700465
00000000: 1a56 823f d3df 003f c28a 58bf 20d7 adbd
00000010: 5d35 c6bd cc09 cabe 8c31 27bf e873 68be

decoder_info.2.weight f4 [3, 8]
0.13958126 -1.1368843 -0.07069257 -0.06233439 0.5852908 -0.56593823 0.15377542 -0.10838188
-0.14126046 0.28967297 0.07423619 0.34262657 0.054758713 0.7741694 0.28501326 -0.10180112
0.07875817 0.10106494 0.19194834 -0.06555833 0.066725895 -0.12800199 -0.22528586 0.008097969
00000000: 64ee 0e3e 6d85 91bf 44c7 90bd 5852 7fbd
00000010: 9ed5 153f 54e1 10bf 4e77 1d3e 52f7 ddbd
00000020: 95a6 10be 0450 943e 2509 983d c06c af3e
00000030: ac4a 603d f72f 463f 42ed 913e 1b7d d0bd
00000040: f74b a13d 23fb ce3d 1b8e 443e 7243 86bd
00000050: 96a7 883d f412 03be 56b1 66be 58ad 043c

decoder_info.2.bias f4 [3]
-0.09184954 0.12207722 -0.1245322
00000000: 9d1b bcbd 9f03 fa3d bd0a ffbd
