model/MoS2_model.pth (torch, 839394 bytes, 12 tensors)

encoder.0.weight f4 [60, 40, 3, 3]
00000000: a799 05bd 6de2 96bd e703 55bd ecb1 cabd
00000010: b48e c3bd 9a51 03bb 6a07 aebd ec67 92bd
00000020: b378 e13c a956 6cbd 8310 28bd 1fdd 763d
00000030: 9954 f9bc 2def a9bc 377e 28bd 2497 073b
00000040: 75a1 823c 0d8d 05bc 43fa 82bd 90f7 b4bd
00000050: 8a29 6b3d 9e39 91bd 3cdf be3b b9df 1e3d
00000060: 6808 9cbc 0f77 c13c bc5c fa3b fc49 b2bd
00000070: c5b1 93bd 8870 eb3c c39e 3d3c fc4b 05bd
00000080: 3ae0 cc3d d0c9 0fbd ef77 f1bc 1f79 b83d
00000090: ac61 bbbd cb27 bcbd 26a0 0e3c 4cec fa3c
000000a0: 14fe 4e3d 0ab1 433d 26d4 123d 671e 13bc
000000b0: 6f9a b83d 5fcd dabc 2a96 96bd f40c 1f3d
000000c0: 2f95 9dbc ddce c43c ef6c 823d 9d07 573d
000000d0: 305b ad3d df88 d43d 6b34 9abd a81d a2bd
000000e0: aab1 993d 20b3 2dbd 7055 1bbc 2cc2 753d
000000f0: 4087 6d3d 8bbd a63d b7f5 063e 46f2 8abd
00000100: d2fd 94bd f765 383d 7d66 9ebc 1a58 79bd
00000110: b52c 0f3b 1a12 05bb 2986 a53d 46e2 733d
00000120: 25a4 1dbd 718a adbd b539 b73c 1526 713a
00000130: b12c cb3a d8aa 0c3c d34d 163d 9ac4 463d
00000140: 4cf5 863d 72ac 833d bd97 47bd 6337 c13c
00000150: b317 103b 4046 21bc ca2e 7dbc 0746 513d
00000160: 2619 00bd ec9c 91bc d0ec aa3d 73db 76bc
00000170: fda8 093d cc18 0abc 2327 e0bd c58d 4dbc
00000180: 6590 193d c62b c8bc ef4a ffbb 2faa 80bb
00000190: aa20 ffbb f98e 1f3c 24fd 6dba e01a 64bc
000001a0: b818 75bc b9ee 633d babc 56bd 34de 3ebd
000001b0: 0ada c63c 78e5 f7bc 75af 99bc 26e0 6ebb
000001c0: 00d4 9c3c dacf e0bb e227 9a3c 9580 043c
000001d0: 4520 48bd acc6 3ebd 7591 5d3a 33c7 e8bc
000001e0: 6b4b 32bb 51b3 3cbc a45f 85bc f365 b1bc
000001f0: de06 16bd b58f b63c dbcd 10bd 9683 1bbd
00000200: d61b 063d b793 67bc cb4c 853c 3a3e e5bc
00000210: 867e a4bd 71c5 bbbd 331f 8fbd c6b2 15bd
00000220: d3c3 6cbd 0d64 3a3d a6b5 33bc ec63 c63b
00000230: fcb2 16bd ecc3 84bd babc 3dbd 6ebb 1e3d
00000240: b492 27bc d0cb 9cbc 352d 8dbd b4ee dbbd
00000250: dd4d f4bc fa5a 2dbc 23bf 04bd b804 21bd
00000260: 53d7 11bd cf2e d1bc 49b9 d63b 2e1b b7bd
00000270: 8ddc 9bbd f2ea 70bd 3bdd 9fbd ddcf 2c3b
00000280: 9a03 bdbc 99aa a43c 4a23 c83b 4575 e1bc
00000290: 9254 99bc 0227 ecbb 08cd bbb8 8976 19bb
000002a0: fb0c 103d 0f7a c1b9 0cef 163d 0b35 6a3c
000002b0: f003 873d b841 703d 9f04 9cbc 8a7c 853c
000002c0: 034e d13c f290 5bbd 7dce 81bc 3b19 253c
000002d0: e651 b03b 5518 373d 207d 993d 31fc b8bc
000002e0: d5d6 283d 01c2 203d b7fc 51bc 7ea1 683d
000002f0: b807 9d3b d639 8d3a 2125 ad3d cd68 cc3d
00000300: dc8c 7dbd 394d 6f3d 9389 863d f118 35bd
00000310: 1a84 09bd e4cd 543d 4f7b 81bd 7cd8 4f3d
00000320: 304c 863d 7459 49bd 5551 67bd be3a 8ebc
00000330: 3ff1 0a3d 31f8 80bd 28bc e33c 1aaf 653b
00000340: c446 0d3c 37b6 b83c 4b2b a9bd 47ec 98bd
00000350: d284 843d 6b45 36bc f6cd edbb 1844 e63c
00000360: 3ebe d6bc 9f4a a7bc a2a0 643d 2c10 e5bd
00000370: b39c 0dbd 687b c7bc 43b3 48bc 79d2 82bd
00000380: 6ac6 c63c 0258 b93c 441d b6bb 8312 9cbb
00000390: 969e d9bd 1ea9 93bd 591b 74bd f587 c5bd
000003a0: 2414 d6bd e7e0 10bd 2c0e 8b3d 8460 613d
000003b0: 1324 4b3d 3574 04bd a3b9 5bbd 6d77 2cbc
000003c0: f8ae b9bc 1237 acbd dd3f 50bd 84ba 24bd
000003d0: f07e 193b b426 903d 5752 03bd fffe 49bd
000003e0: 77fd d83b 8690 45bd fdd5 31bd 6979 313c
000003f0: 701d f23b 5d00 5cbd 1d2c 813d 9ff7 c5bd
-0.032617237 -0.07367406 -0.052005675 -0.09897217 -0.09548703 -0.0020037652 -0.08497508 -0.07148728
0.027523374 -0.057699833 -0.04103137 0.06026947 -0.030435847 -0.02074393 -0.041135993 0.0020689452
0.01594613 -0.008151305 -0.0639539 -0.08836281 0.05741266 -0.07091068 0.0058249515 0.038787577
-0.019046977 0.023616342 0.0076404493 -0.08705518 -0.07211641 0.028740183 0.011573496 -0.032543167
0.10003705 -0.035104573 -0.029476134 0.09007477 -0.09149489 -0.091872774 0.008705175 0.030630253
0.050535277 0.04777626 0.03584685 -0.008979416 0.09013831 -0.026709257 -0.0735286 0.038830712
-0.019236175 0.024024421 0.06368434 0.052497495 0.08464658 0.103776686 -0.07529529 -0.07915813
0.0750459 -0.042407155 -0.009480819 0.05999963 0.057990313 0.08141621 0.1317967 -0.06784491
-0.07274975 0.045019116 -0.01933598 -0.060875036 0.0021846716 -0.0020304979 0.0808223 0.059541963
-0.03848662 -0.08473671 0.022366384 0.0009199095 0.001550099 0.008585654 0.036695313 0.048527338
0.065897554 0.06429376 -0.048728693 0.02358598 0.0021986782 -0.009843409 -0.01545305 0.051092174
-0.031273983 -0.017775021 0.0834595 -0.015066969 0.033608425 -0.008428764 -0.10944965 -0.0125460075
0.03749122 -0.024434935 -0.007790915 -0.0039265375 -0.0077858763 0.009738677 -0.00090785534 -0.013922423
-0.014959507 0.055647586 -0.052426077 -0.04659863 0.024273891 -0.030260786 -0.018760422 -0.003644952
0.019144058 -0.0068607153 0.018817846 0.008087297 -0.0488589 -0.046576187 0.0008452156 -0.028415298
-0.0027205597 -0.011517362 -0.016280957 -0.021655058 -0.036627643 0.022285322 -0.03535257 -0.037967287
0.03274139 -0.014134339 0.01627197 -0.027983773 -0.08031945 -0.09168518 -0.06988373 -0.036547445
-0.05780394 0.045505572 -0.010968601 0.006054392 -0.036791787 -0.06482682 -0.04632256 0.038752966
-0.010227848 -0.019140154 -0.06893388 -0.107388884 -0.029822284 -0.0105807725 -0.032408845 -0.03931114
-0.03560574 -0.025535015 0.0065528494 -0.08940731 -0.07610426 -0.05881781 -0.07805868 0.0026369013
-0.023073006 0.020100879 0.0061077224 -0.027521739 -0.018717084 -0.0072067985 -8.955045e-05 -0.00234166
0.03516863 -0.0003690277 0.036849067 0.014294873 0.06592548 0.058656424 -0.019045172 0.016294736
0.025549894 -0.053605027 -0.015845532 0.010076816 0.005380857 0.04470094 0.07494569 -0.022581192
0.041220505 0.039247517 -0.0128166 0.056794636 0.00479218 0.0010774683 0.084543474 0.09980927
-0.061901912 0.058423255 0.06569209 -0.04421324 -0.033573247 0.051954165 -0.063223474 0.050743565
0.065575 -0.049157575 -0.05647405 -0.017361995 0.033921476 -0.06297339 0.02779968 0.0035046996
0.008622829 0.022547824 -0.082602106 -0.07466941 0.06470646 -0.011124949 -0.0072572185 0.028108642
-0.026213761 -0.020421324 0.055817254 -0.11184725 -0.03457327 -0.024350837 -0.012249771 -0.06387801
0.024264533 0.022624973 -0.005557688 -0.004762949 -0.10625951 -0.07209991 -0.059596393 -0.09645072
-0.1045306 -0.035370734 0.067898124 0.055023685 0.04959495 -0.032337386 -0.053643834 -0.01052652
-0.02266644 -0.08408941 -0.050842155 -0.040216938 0.0023421608 0.07038632 -0.032060947 -0.04931545
0.0066220122 -0.04823353 -0.043416966 0.010832169 0.007388763 -0.053711284 0.06307242 -0.096663706

encoder.0.bias f4 [60]
00000000: 05e0 ea3d 3858 bb3d 6af0 2ebe 3106 533d
00000010: ebd5 6d3e f24a 7cbd 4dd9 06be 467f 31bd
00000020: 1754 14bd 9ef6 8b3d 8b09 31bd 20d3 31bd
00000030: c2fa 4a3e 61c0 0b3e 4f81 2cbd 21c2 443e
00000040: caf6 0a3e 6588 293e b7d0 883e 8c13 54bd
00000050: 449b b73d 1dc0 80bb d8b5 a73d 44e5 87bd
00000060: fc26 56bd 1225 b6bc 8d3a 04bd 0be3 acb9
00000070: 27f4 6a3e 2ad4 ac3d 2871 d43d 0ad1 b33d
00000080: dd6c 273e 7131 023d f054 453e 43ae f7bd
00000090: 3e2a 3a3c 47f0 8b3d c0bd 813d cb9d b0bd
000000a0: 4323 3a3e 72ba c13d 20c6 203e 08cd acbd
000000b0: a35c 1abe 7f8b 4a3e acf9 313d ddc8 6abd
000000c0: 9744 f73d 6a8a 753d 5ab5 163e d905 1a3e
000000d0: c955 993c 4ea3 69bc d1dd 0b3e 34d1 d43d
000000e0: 5507 e13c 054c 083e 5543 643d 17b4 32bd
0.114685096 0.09147686 -0.17083898 0.051519576 0.23226134 -0.06159491 -0.13168831 -0.043334268
-0.036213007 0.06834148 -0.04322199 -0.043414235 0.19822219 0.13647605 -0.042115506 0.1921468
0.13570705 0.16555937 0.26721737 -0.051776454 0.089651614 -0.0039291517 0.08188981 -0.06635526
-0.052283272 -0.022234473 -0.0322824 -0.00032975557 0.22944699 0.084389046 0.10373145 0.087801054
0.16350122 0.031785432 0.19270682 -0.12093785 0.01136261 0.06832939 0.0633502 -0.086238466
0.18177514 0.0945939 0.15700579 -0.08437544 -0.150744 0.19779776 0.043450996 -0.057320464
0.12073629 0.059946455 0.14717618 0.15041293 0.018717663 -0.014260126 0.13658835 0.10391465
0.027469316 0.13310249 0.055728275 -0.04362878

encoder.3.weight f4 [32, 60, 3, 3]
00000000: 081e 243b dd89 b9bc 974d 90bd 4330 ed3c
00000010: 3bfb 0abd 4f00 84bd a618 acbb 2bea 9bbc
00000020: 08de f83c d7ca 2a3d 9a37 e23c 284f 093d
00000030: 020c c73b f196 3eba 40eb f53c 74b4 1dbc
00000040: 94e3 d13c 3601 c3bc dc4d 573c 4741 4a3d
00000050: 1959 09bd 232f 133c 6843 353d 4bc2 52bb
00000060: f0d3 31bc 4376 e9bc b2d4 003d 6fa1 803c
00000070: b88f 2ebd c16c 0fbd a5ed f0bc d07f a73d
00000080: 2599 3a3d 167a 80bd a23c 7d3c df40 9b3c
00000090: 9c9d 7b3d 0c47 133a 32b9 1dbd 60d8 ac3c
000000a0: 192f d9bd dbb0 a4bc 877a 4f3e 7c69 fd3d
000000b0: 52ee b53d 22aa 6b3c d526 fd3c 28ab 10ba
000000c0: 0c4d 93bb 2e5d 1dbd eebf 2bbb 6ba4 cabc
000000d0: 9a4d f63c b6c8 92bc d058 f2bc 246b a8bd
000000e0: aa8a 69bc ddb2 79bd 22b4 9cbd d774 52ba
000000f0: 5d3a 013a ddeb a1bc bb4c 45bd 2e50 433c
00000100: bf8b 423c 1654 743c e169 4ebc e1e4 62bc
00000110: a540 a7bc 9c5e 253d 658d 0cbd 18b0 7dbb
00000120: 2bb5 45bd 3171 1fbd cd5e 7abd a362 83bc
00000130: cf21 443c dbb9 70bd 13bf c13c f37a ad3b
00000140: 5cd0 75bb 4b59 82bc 8a0c e3bb 0881 193a
00000150: 6eba 86bd b130 31bd a41d 94bd d662 b6bc
00000160: cc95 d13c af11 8fbd 91a0 0dbd b8c1 48bc
00000170: eca6 8fbc 0fe4 8dbc beb7 55bc 7329 05bc
00000180: 2db9 663b c0d8 0b3c 8473 aabc dc7b f9bc
00000190: 5ade 46bc 5ad0 29bc 333a aabc cc1a c8bc
000001a0: 3a6d dabc b7e8 2bbd 9022 a4ba 5008 463c
000001b0: c0aa 9e3c 05d4 8f3c ca19 2a3d c036 083d
000001c0: 559f 0d3a ea1d cb3a 43ca 82bc 100c c4bc
000001d0: 098d 58bc bc32 4d3c c033 c73c c1c0 cb3c
000001e0: c406 23bc 3cd6 b43c 764d 233c 3e9a 18bd
000001f0: 0973 8cb9 53f8 153d e7fc 27bd d9d7 47bc
00000200: 095c 21bb d25c 3bbd 2cf3 0fbd e8c4 733c
00000210: 18bd 02bc f446 26bd 080c 953c d1aa 12bc
00000220: bcbc a0bd 7560 9e3c 4cb2 b3bb 02d1 9cbc
00000230: a4ce ba3d cd4c 3a3c a8ac 68bd 90c8 d23d
00000240: e680 ebbc a9dd 3cbd 51bd 4e3c fb50 fbbc
00000250: 7146 b7bc a642 09bb 2c10 aabc 847e 7e3c
00000260: e809 9a3c 9cca 533d 8a9e acbc 6071 e7bb
00000270: b6de 073d e263 8e3d 5f6b 8f3c ff92 283c
00000280: 5a57 88bc 8340 2abd 007e 603d e724 88bc
00000290: 91f5 933e 9835 9a3d 7d9d 02bf 0b7f 8b3c
000002a0: 3253 153e 2a63 27bd 0f26 d03c f39e 99bc
000002b0: d098 11bd 6c32 bdbb f5ed 403c 5a39 05bd
000002c0: 0637 48bc 4dd5 493c 59b0 ccbc cf82 58bc
000002d0: e456 00bd 19be 243c 1a25 de3c 110e 593c
000002e0: 4def 6e3d 551c 373d bce8 95bc 9488 b0bb
000002f0: 3a19 c63b 88cb 8e3c d6b6 2eba 628f 25bb
00000300: fc1c 5bbd c006 b0bd e7f0 c6bd 4ad3 07bd
00000310: 2c63 3cbd bb53 85bd 08c5 b0bd ca51 923a
00000320: 6d4f 84bb 6950 97bd 7841 30bd 718c ff3b
00000330: f4bb 9c3c d147 e13d f911 9dbd bda7 973d
00000340: 03df d0bc a998 08bd 9905 fcbc 07c1 0abd
00000350: d551 11bc 37d9 58bd d781 95bc 3b85 af3b
00000360: 2488 373c 1f25 90bc ab21 373c a55c 14bc
00000370: 731f 29bb 5fe5 babc 4f5b b73b d610 31bd
00000380: 972b 123d 8b16 0cbc f840 aeb9 1d76 3ebd
00000390: f3b9 14bd 26d6 e7bc d7be 37bc 5b81 f93c
000003a0: e240 66bc e30f dbbc d903 0dbc fc6f e0bc
000003b0: 67e8 203d 11df 7fba 0c66 9fbb 39df 733c
000003c0: 56a4 e83b 1bb9 9c3c c5ac 913d ca62 11be
000003d0: 02f0 10be b4b0 563d 343b 88bd abe0 7abe
000003e0: bdc0 70bc d974 6dbd 000a f6bd a382 adbd
000003f0: 8f7f 333e c234 6abd 0aa9 273e 555c a4bd
0.0025042314 -0.022648746 -0.07046049 0.028953677 -0.033931 -0.06445371 -0.0052519618 -0.019032558
0.03037931 0.04169735 0.027614404 0.033522755 0.0060744295 -0.0007270417 0.030019403 -0.009625543
0.025621213 -0.023804288 0.013141122 0.04937866 -0.033532236 0.008983406 0.044253737 -0.0032159265
-0.0108537525 -0.028498774 0.031452842 0.015701978 -0.04261753 -0.035015825 -0.029410193 0.08178675
0.045556206 -0.06273286 0.0154563505 0.018951831 0.061429605 0.0005618192 -0.038506694 0.02109927
-0.10604686 -0.020103863 0.20261584 0.12373635 0.088833466 0.014383825 0.030902306 -0.00055186683
-0.0044952687 -0.03841894 -0.0026206928 -0.024736604 0.0300663 -0.017917972 -0.029583365 -0.082235605
-0.0142542515 -0.060961593 -0.07651545 -0.0008028275 0.0004929656 -0.019765789 -0.04816888 0.011920972
0.011874138 0.014912626 -0.012598486 -0.013848514 -0.020416567 0.04037343 -0.03431453 -0.0038709696
-0.04826848 -0.038926307 -0.061125565 -0.016038245 0.011970951 -0.058770996 0.023650682 0.0052941977
-0.0037508225 -0.015911719 -0.006928985 0.0005855714 -0.065785274 -0.043259326 -0.07232216 -0.022263926
0.025584124 -0.06985795 -0.034576956 -0.012253217 -0.01753565 -0.01732066 -0.013044296 -0.008127558
0.0035205588 0.008535564 -0.020807035 -0.030454569 -0.012137974 -0.010364616 -0.020779705 -0.02442684
-0.026663411 -0.04196998 -0.0012522507 0.012086943 0.01936853 0.017557153 0.0415285 0.03325534
0.00054024655 0.0015496586 -0.015965587 -0.023931533 -0.013217219 0.012524303 0.024316669 0.024872186
-0.0099503435 0.022074811 0.009967199 -0.03725647 -0.0002678859 0.036613774 -0.04101267 -0.012197458
-0.0024621508 -0.045742817 -0.035144016 0.014878489 -0.007979654 -0.04059501 0.018194214 -0.008951859
-0.07848498 0.019333104 -0.005483901 -0.019142631 0.09121445 0.01137085 -0.056805283 0.102921605
-0.028747987 -0.04610983 0.012618379 -0.030678263 -0.022372456 -0.0020944267 -0.020759664 0.015533093
0.018803552 0.051706895 -0.021071691 -0.007063076 0.033171378 0.06952645 0.017507253 0.010288953
-0.016643215 -0.04156543 0.054807663 -0.016619159 0.2889829 0.075297534 -0.5102156 0.017028352
0.14582518 -0.040866055 0.025408773 -0.01875255 -0.035546124 -0.005773833 0.011775483 -0.032525398
-0.01222015 0.012318921 -0.024986433 -0.013214781 -0.031332865 0.010055088 0.0271173 0.013247983
0.058333684 0.044704754 -0.018299453 -0.005387375 0.0060454877 0.017431036 -0.0006664818 -0.0025262465
-0.05349444 -0.085950375 -0.09713917 -0.033160485 -0.045993015 -0.06510111 -0.08631331 0.0011163291
-0.0040377886 -0.07388384 -0.043031186 0.0077987243 0.019132592 0.11000026 -0.07669444 0.074050404
-0.025496965 -0.033348713 -0.030764388 -0.03387549 -0.008869608 -0.052941527 -0.018250389 0.0053564585
0.011201892 -0.017595826 0.011177461 -0.009055291 -0.0025806099 -0.02281445 0.0055956016 -0.043228947
0.0356861 -0.008550297 -0.00033236272 -0.04649936 -0.036310147 -0.028300356 -0.011214933 0.03045719
-0.014053555 -0.026740974 -0.008606874 -0.027397148 0.039284136 -0.00097607175 -0.00486446 0.014884763
0.0070996685 0.019131234 0.07113031 -0.14197841 -0.14154056 0.05241461 -0.06651917 -0.24499767
-0.01469439 -0.057972763 -0.12013626 -0.084721826 0.17529128 -0.05717922 0.16373077 -0.080254234

encoder.3.bias f4 [32]
00000000: d6e5 aabd b9d6 8e3b 2a52 343e 8a70 26bd
00000010: befe 213e 4fed 9a3d c6f2 c6bd 3b50 91bd
00000020: d104 cbbd 0820 b53d 6ee5 0d3e 5a0e 153e
00000030: b358 6e3d d00b c23d 7750 753d 8eff ce3d
00000040: ca1e 123d fd29 e83d 9e3e 353e d726 ab3d
00000050: f6b9 153e 2e2f 2c3e d39f 1b3e e989 383e
00000060: 7228 183e 482e da3d 554a 043e fa1e e93d
00000070: ab30 dd3c b7db fd3d 8454 963d 566d 0e3e
-0.08344619 0.004359093 0.17609468 -0.04063467 0.15819833 0.07564794 -0.09714274 -0.07095381
-0.09913028 0.08844 0.13857052 0.14556256 0.05819006 0.09474909 0.05989119 0.10107337
0.035673894 0.11336134 0.17699668 0.083570175 0.1462172 0.16814873 0.15197687 0.18021359
0.14859179 0.10653359 0.1291898 0.113828614 0.027000746 0.12395423 0.07340339 0.13908896

encoder.7.weight f4 [60, 1568]
00000000: 0d37 693d 51f1 893b ffc9 8a3b c7d6 e0bc
00000010: b4ac 02ba 5068 b8bc 430b 863c 1a47 fa3b
00000020: b1e9 8fbb 5d5a 133d 000f c6bc 5462 edbb
00000030: 22e6 493d 0ac6 ef3b d3c9 d7bc 17e7 8a3d
00000040: f8b1 0b3c f68c 86bd c6f7 b8bc 1788 d13d
00000050: fa6f 083d 753e 213d ee4a 2abb 9606 06bd
00000060: 27b2 2abd 8789 fdbb 9749 3e3d ff56 6d3d
00000070: 2ae9 a03d d6be 8b3c 7f6b 8dbd c6b8 1cbe
00000080: 8e75 38bd 6101 113d 3009 8e3d b988 97bc
00000090: 4662 ffbb ab64 b8bd b7fb 16be 4888 bfbd
000000a0: ff7e fd3c 9b6a 263d 4905 f0bc 1843 12bb
000000b0: d38b d2bc 1a7b a0bd 9afe aebc 7056 ab3d
000000c0: 99b0 193d a721 a4bd 57ff 8d3d 29f1 b73c
000000d0: de37 0a3e 785e e73d 14bf 84bd 39fa d13c
000000e0: a481 8bbd 2270 6abd 574d a0bd 1ef7 793c
000000f0: 4484 153d 17c8 ffbc ff6d a53d 211c b83d
00000100: b0d1 9e3d d31c 9e3d bb51 943d c443 433c
00000110: 788c 38bd cf61 043e 434f f53d 38df 113e
00000120: e63c 1dbe 0383 c53b fe09 fe3c ab3c eabd
00000130: 6f4d 053e 440f b5bd c873 b7bc e176 8fbd
00000140: abfe abbd b45d 89bd 3469 93bd d6be 72bd
00000150: dd04 3bbd 3974 a73c 20e6 c33d 5d34 9d3d
00000160: 537d 22bd 86f7 d83d 62cc eaba 8b3f 6ebc
00000170: 24b9 1fbe 47cd 6dbd ed81 603e 995e 3a3e
00000180: c4bb 9fbd e1ff 653d 1593 f1bd f583 bf3d
00000190: 8f22 32bd 64cb 7f3d 162b 893d 13e7 4a3d
000001a0: 5027 07bd cf41 abbc bdfe 5dbd 358a 42bc
000001b0: bc59 1e3b e0bc d23c 4231 9d3d e807 543d
000001c0: c97a 143d d7ec 3cbd a738 93bd 761e 4e3d
000001d0: fc7f a03c a26e cc3c 292b 4f3d 11b6 41bd
000001e0: 7b2c 57bd 90ac 38bd 7865 de3b 161d 3c3d
000001f0: cec2 c6bb f9ec 86bd 3844 eabd 4881 3fbc
00000200: f7f9 3f3d 1150 573c 93f6 17bd add1 27bd
00000210: 5c6b dfbd f71c 8d3b e3fa 93bc f24d ca3d
00000220: 4c95 da3d 4af5 0ebc f6f9 95bd 28dd a9bc
00000230: 3b8e 9a3c 64e4 b2bd 8c47 343d 82c6 053e
00000240: 6f3e f8bc a21e b6bd 486c c2bd dce3 ca3c
00000250: 5068 f33c 4413 7abc 5502 83bc 92fe a8bb
00000260: 2bb8 eebb a8a9 9bbc 7ec8 9a3c 32a7 9e3c
00000270: cde5 773c f007 173c 001e a03b 61ea f4ba
00000280: 8ad9 c03c 0415 263d 7aaa 393d 1c41 d13c
00000290: b2ca 703c 44c4 a53c 445f 0c3d 1ebb 9abc
000002a0: 138d 0f3d b201 debb c348 d1bb 1ec3 993c
000002b0: 3ec5 1d3d c197 64bb 419b 0dbc 7eb8 4b3d
000002c0: 9081 023d 89f0 fcbb f822 ca3b f17b ec3c
000002d0: c6a9 bfb9 d6c0 0b3d 834f aa3c 1e49 8abc
000002e0: 2d94 893c da08 07bc 4123 47bc 556b 453c
000002f0: b4f5 ac3c 82a6 213d f187 423b 2cb3 743c
00000300: 3a8c a63c 079f 833c 8bff babc 2b28 523c
00000310: 54d7 6b3d bd38 adbb d263 6ebd b944 4abd
00000320: e39a 67bc 098a 413d 0020 1c3b 27bf 52bc
00000330: 93bd 443c dc70 b73d ca71 0a3d cca8 efbb
00000340: ee2c c63b caec e83c 8643 87bd 2c45 97bd
00000350: e8a7 873c 0dac 3e3d d7cd a4bc a50a 91bc
00000360: 7092 283d a58a 07be 8655 20bd 2419 00bd
00000370: eee4 003d 74f9 55bd 267c 3d3c ca25 f0bd
00000380: 6f85 4fbd 2ae6 7a3d 6029 26bd 8f31 433c
00000390: 77b0 d73d 5cb0 bd3b 7481 3fbe 42db 0ebd
000003a0: 1c70 2b3c 7ecf 1c3d ceaf 133e 332d 943d
000003b0: d079 943d 3cbc 273d a72b 9abd d43b 78be
000003c0: b9a7 08be 0f69 d3bc 521d 13bd fb52 35bd
000003d0: 2d9f 67bd d614 8bbb 0d6e 033d e736 52bc
000003e0: 52c7 5f3c 6602 5d3d 5a47 0cbc c631 bfbc
000003f0: 31dd e5bc 7298 dfbc e143 803c d560 893d
0.056937266 0.0042096754 0.0042355056 -0.027446164 -0.0004984841 -0.022510678 0.016362792 0.0076378705
-0.004391872 0.03597485 -0.024177074 -0.0072443876 0.049291737 0.0073173093 -0.026341354 0.06782358
0.008526318 -0.06569855 -0.022579085 0.10231035 0.033309914 0.039366204 -0.0025984603 -0.032721125
-0.041673806 -0.007737342 0.0464569 0.057944294 0.078569725 0.017058771 -0.06905269 -0.1530486
-0.045033984 0.035401706 0.06935346 -0.018497812 -0.0077936975 -0.09003576 -0.14744459 -0.093521655
0.030944346 0.04062901 -0.029299395 -0.0022317823 -0.025701439 -0.0783598 -0.021361638 0.08366096
0.037521932 -0.08014231 0.06933468 0.022453861 0.13497874 0.11297315 -0.06481758 0.02563201
-0.06811836 -0.057235844 -0.078272514 0.015256671 0.03650309 -0.03122334 0.08077621 0.0898974
0.077548385 0.077203415 0.07242151 0.011918012 -0.045055836 0.12927936 0.119780086 0.14245307
-0.15355262 0.0060275807 0.031010624 -0.11437353 0.1301782 -0.08840802 -0.022394076 -0.07005096
-0.083981834 -0.067073256 -0.071978 -0.059264027 -0.045658935 0.020441161 0.09565377 0.07676003
-0.0396703 0.10594086 -0.0017913694 -0.014541517 -0.1559797 -0.058057096 0.21924563 0.18200149
-0.07799485 0.05615223 -0.11795632 0.09351341 -0.04348999 0.062449828 0.06697671 0.049536776
-0.032996476 -0.020905403 -0.054198015 -0.011873771 0.0024162373 0.025724828 0.07675411 0.051765352
0.03624991 -0.046124306 -0.0718854 0.05032202 0.019592278 0.024955098 0.05057827 -0.047292773
-0.052532654 -0.045086443 0.0067869984 0.045926176 -0.006065703 -0.06588168 -0.11438793 -0.011688538
0.046869244 0.013141648 -0.037100386 -0.040971447 -0.10909149 0.0043064314 -0.018063968 0.09878148
0.10673007 -0.008725474 -0.07323067 -0.020735338 0.018866649 -0.08734968 0.044013545 0.13064006
-0.030303208 -0.088925615 -0.09493309 0.024766855 0.029712826 -0.015263382 -0.015992323 -0.0051573003
-0.007285138 -0.019001797 0.01889443 0.019366834 0.015130472 0.009218201 0.004886389 -0.0018685573
0.02354123 0.040547386 0.045328595 0.025543742 0.014696764 0.020235188 0.03427054 -0.018888053
0.03504665 -0.0067751044 -0.0063868477 0.018769797 0.038518183 -0.0034880491 -0.008642972 0.049736492
0.03186184 -0.0077191037 0.0061687194 0.028867694 -0.0003655685 0.03411945 0.020789867 -0.016880568
0.016794289 -0.0082418565 -0.012154401 0.012049516 0.021113254 0.039465435 0.0029683078 0.014935296
0.020330537 0.016067041 -0.02282693 0.01282696 0.0575784 -0.0052863047 -0.058200665 -0.049381945
-0.014136049 0.04725078 0.0023822784 -0.012862957 0.012008089 0.08957073 0.033799924 -0.0073138233
0.0060478365 0.028433222 -0.06604676 -0.0738624 0.016559556 0.0465508 -0.020117683 -0.017705271
0.04115528 -0.13236482 -0.03914406 -0.031273976 0.031468324 -0.05223985 0.011565244 -0.11725958
-0.05066436 0.061254658 -0.040566802 0.011913671 0.10531705 0.005788846 -0.18701726 -0.03487707
0.010463741 0.038283817 0.14422533 0.072351836 0.072497964 0.040951 -0.07527857 -0.24241573
-0.13345231 -0.025806932 -0.035916634 -0.04426859 -0.056548286 -0.004244427 0.032087374 -0.012830473
0.0136583615 0.053957365 -0.008561933 -0.023339164 -0.028059574 -0.027294371 0.015657367 0.06707922

encoder.7.bias f4 [60]
00000000: 6357 4c3d 314d c93d a963 3d3e 41ee 1cbe
00000010: 570e dcbd 1040 943d 5a4e f3bc 6989 2fbe
00000020: 619f b93d 69d1 1b3e 46da c9bd 3227 f8bd
00000030: 0441 ccbd a9a2 97bd e538 d83d 8ac9 e13d
00000040: 768b fdbd fb58 debd 37b2 943d 10a5 0abe
00000050: e00d f13d 1552 b5bd b1df c93d 162a 09bd
00000060: 3f8a 763d a800 1c3e 1388 743d 50eb 06be
00000070: 57a8 08be 5478 8fbd a91e eebd a2c2 05be
00000080: ff8f 2fbe f0c6 2abe f4a0 2dbe bfdf 1fbe
00000090: 7833 18be a00b 40be a14e 24be 7ed9 49be
000000a0: 0551 e3bd 7933 1ebe 0b20 03be 8863 29be
000000b0: ec04 40be e047 fdbd 8ede 1bbe b78f f1bd
000000c0: a3a3 f3bd 78a7 18be eb1a ffbd 3f9e 23be
000000d0: 5610 00be 255f 07be 3d9e d5bd 08ba 0cbe
000000e0: a959 0bbe 000b 0ebe c84f 3bbe 73a5 1ebe
0.049888026 0.09829176 0.18495049 -0.15325262 -0.107449226 0.072387815 -0.029700447 -0.17142262
0.09063602 0.15216602 -0.098560855 -0.12116851 -0.09973338 -0.07404072 0.10557727 0.11024769
-0.12380116 -0.108568154 0.07260554 -0.13539529 0.117702246 -0.088535465 0.09857119 -0.033487402
0.060190435 0.15234625 0.059700083 -0.13175702 -0.13345467 -0.07005373 -0.11626942 -0.13062528
-0.17144774 -0.16677451 -0.1695593 -0.15612696 -0.14863384 -0.18754435 -0.1604562 -0.19711873
-0.110994376 -0.15449323 -0.12805192 -0.16541874 -0.18751878 -0.12367225 -0.15221617 -0.117949896
-0.118964456 -0.14907634 -0.12456306 -0.15978335 -0.12506232 -0.13219889 -0.10430572 -0.1374284
-0.13608421 -0.13871384 -0.18292153 -0.15492801

decoder.0.weight f4 [1568, 30]
00000000: 4638 753e d2e3 6d3d 4b9c 7b3e d3ff 81be
00000010: 452d 6d3e 5dd2 783e 88a7 633c a95f d7be
00000020: d6d6 b03d 5482 973c be2e 9abe 108e 1bbe
00000030: d0de 883e 70fb ddbe 9f53 8b3d 46dc 673e
00000040: cdae e4bc cd83 58be 747b fd3d 8310 bbbe
00000050: 8cea 253e 1d1b 8f3d 2176 70bc 711b dfbd
00000060: ef5f 2d3e b6e5 563e 882b 4a3e 748a f8bd
00000070: ab16 093e e339 8ebd 41e7 963d be40 9bbd
00000080: c0e4 2e3e ffd1 c2bd ef04 7b3d dcfa 4a3e
00000090: e41c 37bd 1166 833d 0a71 f9bd b587 1fbd
000000a0: a532 ddba c44e 83bc e02e 123e 377b 05be
000000b0: 5a33 50bd 294a dbbd 60cf dabc 97a2 35be
000000c0: 38d2 eeba fea3 3bbd 5be8 0e3e 66de 86be
000000d0: 2504 02bd 67bf d23c f6c1 ab3d e645 8cbd
000000e0: 59ec 08be 110a 0b3d ef8b 14be 9e72 ed3c
000000f0: ea8e b73d 750d c5bd 3ed5 b43e 0f65 ec3d
00000100: 2107 013c dab9 5ebe 274c cc3c 65e2 893e
00000110: 3e99 ab3d f94f 7fbe 05e7 3f3e dc02 983c
00000120: 2d4c 90bc e7a7 84bd 208a dabc a9b8 cdbc
00000130: a777 f53d c2b6 813d 0abd 25be 2d75 5a3e
00000140: 20aa debc ded9 99bd c484 473d 092f 30be
00000150: 9199 7dbe 8951 3b3e ebf3 0dbe 61cb 14bd
00000160: a001 02be a80e babd b426 b03d e4f0 75bd
00000170: ccd2 023e ae75 22be 2083 e53d 443a c5bd
00000180: dfa4 35be d384 ca3c 37d5 543d 06b7 b8bd
00000190: 516b 213e 71db 3f3e 9a1c b63d 35c0 7e3c
000001a0: 1811 8dbd 5e39 15bd 9fc3 033d c924 1d3b
000001b0: 86c9 883d 6773 d03c b134 61bd 43c3 d43d
000001c0: 1b91 933d cf63 923d 58f4 26bd 99f3 e43d
000001d0: 7e5a 183e cbfe a33d 78ed ee3b b5db 43be
000001e0: 2959 033e 89be 67bd 6cbe 5d3e 1488 0abc
000001f0: a2c3 b5bd 88ed 933d 6452 193d ab61 e63c
00000200: 61f2 973d 2933 86bc cac0 1d3d e6ad ef3d
00000210: 7e67 8c3d ffb8 57bc a43a 12bd 0a2e 883c
00000220: f2a5 da3c 03ee 253e 4cd5 323d 7e85 96bd
00000230: f03a a3bd 61af 1fbe 2285 de3d 0dec b9bc
00000240: 0e13 ff3d be57 1a3e a72e 02bd fe36 843d
00000250: 96f8 bc3d 6c89 dabd 1cf1 2f3d 80fd 00be
00000260: 4c7d af3d b5c5 0dbe 021f 9cbc 3151 74bb
00000270: d32f a6bd 212a 56bd 3820 e33d 27f0 0d3e
00000280: 36d3 1b3d f8bf 923d 9ed5 e73d e95c 8fbd
00000290: 1797 8bbc 50b2 aabc 382d dabd 2bfd 4fbd
000002a0: 8219 9c3b 6e3e 2e3d c4c5 65b9 23b0 003d
000002b0: 75d3 01bb 7d49 d6bd 491f 4fbe 3541 6d3d
000002c0: b611 1e3d 0346 d9bd 2ef0 a2bc 800c eebc
000002d0: 6673 b2bc 1aa3 5fbe 3402 63bd cf50 cb3c
000002e0: 53c9 ccbc cc7a 203e e79d 113c 83b4 a83d
000002f0: 682e 503e d078 8b3c d521 a7bd de4d 17be
00000300: 1840 2b3c 4988 67bd 5dcd 4d3e 3dc9 533e
00000310: 6a96 90bd e6de 7d3e 145e 1fbe 79c2 853d
00000320: d377 63bd 5d80 1bbe 6e78 0bbe 8e18 02bd
00000330: e013 0d3b 1580 da3d da08 3a3d 10ee 06be
00000340: 67ae 203d 339d 4dbd d589 b83e 5f3f f13c
00000350: a468 df3e 00e2 aabe 20b3 833e 09a7 cf3e
00000360: 61f4 263e a110 cbbe 306e b53e 7ab7 2cbd
00000370: e23e 2abe 9a79 d63a 5686 b13e fb3d a1be
00000380: 5b66 343b 4875 6a3e 75f3 983d b9c5 76be
00000390: 8435 863e 1afa 8dbe 5e2c 433e 7cee 0ebe
000003a0: c50a 24bd eee7 1a3d 199d 793e 56fa 563e
000003b0: cda8 8c3e 49fc ccbd 0664 ef3c 0c16 7cbd
000003c0: b283 ac3d cce2 47be 09a1 b6bc fee6 37bc
000003d0: 873d 3abd aecc 52bd f898 93be 30e8 31be
000003e0: ab41 e23d 64e9 d53d 14fd 37bd 9f31 6939
000003f0: 7b6d afbd 9df4 5dbb 21af 8fbb 9665 033d
0.23947248 0.058078595 0.2457134 -0.2539049 0.231618 0.24298997 0.013894923 -0.4206517
0.08634727 0.018494762 -0.30113786 -0.15190911 0.26732492 -0.43355894 0.06803059 0.22642621
-0.027915383 -0.21144028 0.123770624 -0.36536035 0.16202754 0.06987593 -0.014676602 -0.10893906
0.16931127 0.20986065 0.19743168 -0.12135783 0.13387553 -0.06944635 0.07368327 -0.07580708
0.17079449 -0.0951271 0.061284002 0.19822258 -0.044705287 0.06415952 -0.121797636 -0.03894778
-0.0016876055 -0.01602877 0.14275694 -0.13035284 -0.050830223 -0.10707504 -0.026710212 -0.17737804
-0.0018220609 -0.045810692 0.13955824 -0.26341552 -0.031742234 0.025726033 0.083866045 -0.068492696
-0.1337141 0.033945147 -0.14506505 0.028985318 0.089628056 -0.09621707 0.3531894 0.11542713
0.007875235 -0.21750584 0.024938656 0.26930538 0.08378838 -0.24932851 0.1874047 0.018556051
-0.017614448 -0.06477337 -0.026677191 -0.025112467 0.119857125 0.063336864 -0.16185394 0.21333762
-0.027180731 -0.07512258 0.0487106 -0.17205442 -0.24765612 0.18292822 -0.13862579 -0.03632677
-0.12695932 -0.09084827 0.08601132 -0.060044184 0.12775725 -0.15865204 0.11206651 -0.09630254
-0.17738675 0.024721539 0.05196115 -0.09019284 0.15763594 0.18736054 0.08892174 0.015548755
-0.06888026 -0.036431663 0.03216898 0.0023978224 0.066790625 0.025445653 -0.05498189 0.10388806
0.07205411 0.07147943 -0.040760368 0.11179275 0.1487827 0.08007582 0.007291492 -0.1912678
0.1282698 -0.056578193 0.21654671 -0.008455295 -0.088752046 0.0722304 0.03743209 0.028122744
0.07419277 -0.016381817 0.038513936 0.1170309 0.06855677 -0.013166665 -0.035700455 0.016623516
0.026690457 0.16204076 0.043660447 -0.0734968 -0.07970226 -0.15594245 0.10865237 -0.022695566
0.12454806 0.15072533 -0.031782772 0.064558014 0.092271015 -0.106707424 0.04295455 -0.12596703
0.0856882 -0.1384495 -0.019057754 -0.003727984 -0.081145905 -0.05228627 0.110901296 0.13861142
0.038043223 0.071655214 0.11320041 -0.07000143 -0.017039819 -0.02083698 -0.10653156 -0.05077855
0.004763783 0.042540006 -0.00021912815 0.031417977 -0.0019809876 -0.104632355 -0.20226778 0.057923514
0.03859111 -0.10609057 -0.019889917 -0.029058695 -0.021783542 -0.21839562 -0.055422023 0.024818806
-0.024998343 0.15671843 0.0088877445 0.08237555 0.20330203 0.017025381 -0.0816075 -0.14775798
0.010452293 -0.056526456 0.20097871 0.20682235 -0.07059939 0.2479206 -0.15563232 0.06531233
-0.055534195 -0.15185685 -0.13620159 -0.0317617 0.002152674 0.10668961 0.045418598 -0.13176751
0.039228823 -0.050198745 0.36042657 0.029449163 0.43634522 -0.3337555 0.257226 0.40557125
0.1630416 -0.39661124 0.3543563 -0.042167164 -0.1662555 0.0016363144 0.34672803 -0.314926
0.002752683 0.22896302 0.07468311 -0.24098863 0.26212704 -0.27729875 0.19059893 -0.13958162
-0.040049333 0.03781884 0.24376334 0.20993933 0.27472535 -0.10009057 0.0292225 -0.061544463
0.084235564 -0.1952011 -0.022293584 -0.011224506 -0.045468833 -0.05146473 -0.28827643 -0.17373729
0.110476814 0.10444906 -0.04491909 0.00022239097 -0.085658036 -0.0033867725 -0.0043848907 0.0320793

decoder.0.bias f4 [1568]
00000000: f4c7 6f3f e650 c23e 68df 38be 28aa 203e
00000010: bc2d 783e 4077 c13e edeb 22bf c142 1e3f
00000020: 73da 493e 3f6c 313d da53 133e 9a86 ce3d
00000030: 2881 92bc 0abf 043a 0332 333f c4e3 96bd
00000040: 4636 82bc 9446 403e 571a afbc 36fa 533e
00000050: 5b1b 79be 2c0c 773f 6baf 1bbe 5a69 bcbe
00000060: c6bd fcbe 84e2 973e d0aa 333e fcb9 d8bd
00000070: 3d38 4f3f 7398 10be 2f99 853d 32ba 403e
00000080: dab1 903e 4482 153e 941e 8d3e e984 0d3f
00000090: 6024 023f dfd5 67be a453 a43e db18 2d3e
000000a0: 9e29 d03d 6509 d63e 9ef9 953f 673f dd3e
000000b0: 66e7 283f c4b8 6a3f 183a 653f e61c 333f
000000c0: d005 293f 544d b53e cf24 163e 0d03 fd3d
000000d0: cc97 97be b039 d3bd d644 58bd 0b0a fb3d
000000e0: 13a4 7b3e 9182 aa3e c61b 6d3e eac3 583e
000000f0: 5618 e9bc d642 24bc 8471 893e 90b6 043d
00000100: 7ba5 6d3e 03af e43d c19f 003e e21f 4b3e
00000110: 0d86 6abd e968 a9bb d842 023e 1377 123e
00000120: c683 70bc 6a67 733e b44a 233e 9f9e 38bd
00000130: 980e 9a3e 91e7 3b3e 2747 6e3e 6d05 a93e
00000140: 36dd a13e 3aac 563e 9c4f 6c3e 53ba da3e
00000150: c67a f63d d454 a03c a6c6 3d3e c055 7b3e
00000160: 66ad cb3e 7fd2 603e 9be0 123f 84c8 0e3f
00000170: 5667 b43e 4d1b 743e 9220 d23e 5620 d63e
00000180: b487 b33e 3452 813e a188 f43e a2e4 cc3e
00000190: 048e 743e a9f6 a53e 4c20 103f 98e5 fe3e
000001a0: aa42 c23e 00a5 923d 16b7 133e 0e98 043f
000001b0: 79c2 723d 0bbb 083f 37cf dc3e ca3e 8fbe
000001c0: d814 13be 37d7 d13e b86d dd3e 41a2 233e
000001d0: 5405 8fbc 1808 d93e 9abc 073f 2470 233e
000001e0: e43f e53e 7f0e e93e a4f9 a83e 96ae 6e3e
000001f0: 9a09 143f 2bf0 4f3f ff4d 8dbe 1808 043f
00000200: 1fdc c03d d6d0 dabd 0463 aabe 372b 533e
00000210: 51f3 313d 4d41 c73e c748 0bbe 730a da3e
00000220: 0d00 993e 9d2f 923e 7d5f 0d3f c9ea fd3e
00000230: 10d8 ae3e 7611 733e dab4 c43e 2387 e93e
00000240: 784d 203f 42f3 6f3e 725d 0a3f dd10 8e3f
00000250: 83e5 023f d942 8b3e c521 f83d ec62 d73d
00000260: f6df 84bd 0d66 013f 6c4a 053f a6b6 ba3e
00000270: 1fef b8be a86e c0be 8543 15bf 6966 6f3c
00000280: 7b2f ea3e 328c b43e fd66 9c3d 28fd 10bd
00000290: f83e d7bd 9bb5 a9be bc36 973d 0806 c73d
000002a0: bcf0 ba3e a602 12bd b6ec 98bc cd37 f5bd
000002b0: fa3e 16bf 7210 09bf 8e0c 0a3e 7204 d03e
000002c0: 67d2 3e3c 8d16 b53d 8a81 65be b5aa 47be
000002d0: af2f 1dbe f018 e93e f707 bb3e 79b3 46be
000002e0: 7647 76be a012 ea3d 21c9 2b3e 3817 6f3a
000002f0: c418 d03e 62f8 253f 6f0d 4d3e fae4 b13e
00000300: ee57 80be 321d 14bd 4151 913e dc4d e33c
00000310: 0539 10be 5000 003f 17a8 9b3e 125c 1c3e
00000320: 1249 1f3e 7130 dd3e df8e 003f 5181 2a3e
00000330: 8e83 913e a00f 053f 8ac4 253e 1ec7 4b3e
00000340: 98a1 873e ddd1 01bd ecd4 28be d065 903e
00000350: 4948 283e 220c c53e 1330 883e 9362 87be
00000360: 1699 37bd e270 ebbe fe34 163f 9a74 2b3e
00000370: 39d8 b93e 69a6 993d 2c07 353e eb26 cd3d
00000380: 5283 573d 8ae9 b33e ee44 343d 42fd 4c3e
00000390: c4c5 9a3e 2762 ed3d 33dd 723c 6483 3c3d
000003a0: 5aad 383e 19ea d03d e694 593d 7964 bf3e
000003b0: 8b32 513e c751 be3e b589 4f3f 237d 8f3e
000003c0: b2a5 473e 8998 163f 1717 ff3e 8950 bb3e
000003d0: d506 1b3f 5b4d 6e3f 3e48 8d3e 52e1 073e
000003e0: afd0 b03e 9a9e 273e 63d0 8e3d 04e8 283f
000003f0: 2a6b c53e 06a3 3b3e d7f8 523e e1ad d03d
0.9366448 0.37952346 -0.18053973 0.1568991 0.24236196 0.37786293 -0.63641244 0.6182061
0.19712238 0.043316122 0.14387456 0.10084267 -0.017883852 0.00050638674 0.69998187 -0.073676616
-0.01589502 0.18776923 -0.021374865 0.20700917 -0.24326842 0.9650295 -0.15203635 -0.36799127
-0.49363536 0.29665005 0.17545629 -0.10582349 0.8094519 -0.14120655 0.06523358 0.18821028
0.2826069 0.14600474 0.27562392 0.5528093 0.50836754 -0.22640179 0.32095063 0.16904013
0.10164188 0.41804042 1.1716802 0.43212435 0.65978086 0.9168818 0.8954177 0.6996597
0.66024494 0.3541056 0.14662479 0.123540975 -0.29608 -0.103137374 -0.052800022 0.12257775
0.24574308 0.3330274 0.23155126 0.21168485 -0.028453987 -0.010025701 0.26844418 0.032400668
0.23207657 0.11166193 0.12560941 0.19836381 -0.057256747 -0.005169977 0.12720811 0.14303236
-0.014679855 0.23769918 0.15946466 -0.045073148 0.3008926 0.18350054 0.2326933 0.33011952
0.31614083 0.20964137 0.23077244 0.4272028 0.12035136 0.0195717 0.1853281 0.2454443
0.3978073 0.21955298 0.5737397 0.5577471 0.3523509 0.2383854 0.41040474 0.41821545
0.3506447 0.25258029 0.4776049 0.40018183 0.238823 0.3241475 0.5629928 0.4978454
0.37941486 0.071603775 0.1442531 0.5179452 0.059267495 0.53410405 0.43126842 -0.27977592
-0.1436342 0.40984508 0.4324777 0.15979864 -0.017458595 0.42388988 0.5302216 0.15960747
0.44775307 0.45518872 0.3300296 0.23308787 0.5782715 0.8122584 -0.2759857 0.5157485
0.09416985 -0.106843635 -0.33278668 0.20621954 0.043444935 0.38917008 -0.13601981 0.42586097
0.2988285 0.2855195 0.5522383 0.4959319 0.34149218 0.2373713 0.3841923 0.45610914
0.6261821 0.23432639 0.54048836 1.1098896 0.5113146 0.27199438 0.12115816 0.10516915
-0.0648803 0.5054634 0.52066684 0.36467475 -0.36119935 -0.37584424 -0.5830615 0.014611819
0.4573935 0.3526321 0.07636831 -0.03539768 -0.10510057 -0.33146366 0.07383487 0.09717947
0.3651179 -0.035647057 -0.01866756 -0.11973534 -0.58689845 -0.5354072 0.13481352 0.40628392
0.0116468435 0.08842192 -0.22412696 -0.19498713 -0.15350221 0.45526838 0.36529514 -0.19404401
-0.24050698 0.11429334 0.16775943 0.00091205863 0.40643895 0.6483213 0.20024656 0.34745008
-0.25067085 -0.036160655 0.28382304 0.027747087 -0.14084251 0.50000477 0.3040168 0.15269497
0.15555218 0.4320102 0.50218004 0.16650893 0.2842068 0.51976967 0.16188255 0.19900176
0.26490474 -0.03169428 -0.16487473 0.28202677 0.16433825 0.3848582 0.26599178 -0.26442394
-0.04482373 -0.4598456 0.5867461 0.16743699 0.36297777 0.07502443 0.17678517 0.10017189
0.05261547 0.35139114 0.04401105 0.20018485 0.30229008 0.11590987 0.014823246 0.04602374
0.18034878 0.102009006 0.053120516 0.37381342 0.20429437 0.37171766 0.810695 0.2802516
0.19496801 0.588265 0.49822304 0.3658488 0.605573 0.93086785 0.2759418 0.13269547
0.34534213 0.16369095 0.0697334 0.6597903 0.38558322 0.18323907 0.20602737 0.10189415

decoder.3.weight f4 [32, 60, 3, 3]
00000000: b593 e238 b3e8 2ebe c7e5 02be 6ac4 45bd
00000010: 3b6a 84be 4d0d 45be f0f4 99bd 0136 76be
00000020: ec5c 45be 81be 633e 5f64 293e 1799 973d
00000030: d4e8 df3e 7f8e dd3e cb91 393e 7e2a c53e
00000040: 65e2 fb3e 4100 893e e5ad 2b3b f294 24bd
00000050: 8600 8fbd f511 08bd 31ae 74bd 09a0 7ebd
00000060: 35e5 053d eb53 9abc 8e42 163d e874 94bc
00000070: 5750 d4bb 10a7 3ebc 9c76 ed3b 850c 4f3c
00000080: a2b4 a03c fd61 87bc 7850 663d ee4a 4d3d
00000090: 8a42 b33d 335a 953d 9246 df3c 1adf e13d
000000a0: f3d8 003e 8678 a53d 2b9f 693d 0111 1e3e
000000b0: fd4b 8d3d 7b20 013d c2a3 bb3c 11af 3c3c
000000c0: 7d60 f13c 93fa 9b3d fd50 3b3d 48ac 753d
000000d0: 1b84 013e db4e 2a3d 4e7c aa3d 7158 13bd
000000e0: a2cf 9fbd a60b a53d ec9b 96bd b545 16be
000000f0: fc6b 973d 0f79 45bd 0890 08be 8534 6cbd
00000100: ed14 0fbe c80b b9bd 3711 5c3b 1440 cfbd
00000110: 7b15 e7bd 307b b93d 1128 033d b7c6 52bb
00000120: d026 473d 77db 9639 d6c5 d13b 415f 973d
00000130: f2fd d4ba c632 cabc 1bbe 123d b8bb a73d
00000140: 6650 2e3c 1260 b9bd cf68 14be ddff a0bd
00000150: 082e 07be f166 37be a48d 98bd 095b 83bd
00000160: 2fec c1bd e144 acbc 3dc4 5a3d fcab b93c
00000170: f573 583d e788 07bc e71a e8bb 2ed3 5a3d
00000180: 18dd 4ebb 55bd b43c a6de 26bc f02e 423d
00000190: 9b68 523d 42c4 3a3d 0ff7 433d ed6e d03d
000001a0: aa44 a43d 8d83 343d bff4 013e 7603 c33d
000001b0: cd5a bebd fff3 afbd f355 b2bd 54e5 21be
000001c0: 72a2 2dbe 887f e4bd 9a76 51be 77dc 1fbe
000001d0: d8f1 d9bd 6223 873d 1fdd ab3d 6316 f43c
000001e0: 8fdf a43d 4dbd fe3d 07b0 8d3d 52f7 8f3d
000001f0: 74bc 183e a7f8 553d d1d3 253c d743 6bbc
00000200: 88e2 c83d d421 74bc 2f33 303d 9c7f a5bd
00000210: 5555 c33d 60a8 ad3d 3888 f33d 41f7 95bf
00000220: 3a42 f0bb a9cb 54be dd89 ee3d a231 203d
00000230: c17f 18bd 7f23 f1bd e1fe 253e b490 cd3d
00000240: 4ced 063c 14d6 0c3c 2374 a0bc 1f89 d33c
00000250: 67ea 523d fa22 b83c dedc 423d 4647 b13d
00000260: 9a77 1d3d bfee 51bc cadc 783d d5aa c13d
00000270: 7b69 67bd 5b01 b03c 15df b83d d15d 1dbc
00000280: 2299 b83b 0947 4a3d cc7b 5fbc 2309 853c
00000290: 6388 643d 2d76 e3bd 60dd ceba 5e3b cf3d
000002a0: 079d fabd 1793 b83b 5fae be3c b460 c83c
000002b0: 8dca 0b3d f228 133c ba73 4f3d 77e8 2e3c
000002c0: 8bec 8e3a 58f5 633d b497 043d 04da 45bc
000002d0: 78a5 0b3d 2c83 b43c b84e 0d3d 3f04 ab3d
000002e0: a5af ba3d 6506 cd3d 999a 533d 669c 143e
000002f0: 140d ae3d d506 b0bd 7fc9 87bd a283 68bd
00000300: f8a8 a4bd a540 80bd afd6 2fbd d7cd b53b
00000310: 0d59 983d 4eef 1e3d b0ea 22bd b567 87bd
00000320: af3a 0abd 0fd9 bb3c 93bd 70bc ba6f c7bc
00000330: 0e3a 8d3d 97e9 143d b7cc af3c 121c eabc
00000340: ca8b e13c cac6 a33c ed9d 27bc d612 853d
00000350: 5f40 d23d 9103 3a3c 750f 0f3e 32b8 003e
00000360: 3752 ac3c 8f4a 9abe 0222 40be 236e 713b
00000370: f150 5b3c d6d1 673e b49c ec3d 705d 41be
00000380: 8f31 0abf a884 59bc f9eb f1bd 8926 92bd
00000390: a3c7 703d e382 a7bd 497e dabd ada4 983d
000003a0: 6202 9c3d 1db0 9fbc 30f3 afbc f1c0 18bd
000003b0: a16f 9b3c 911a 10bc 46bf 13bd cac7 043d
000003c0: 1c92 043d 2768 673c 7b1a 763c 5202 b43d
000003d0: 77b3 cc3d e131 893d 4169 333d ad59 ef3d
000003e0: 3a0a c13d 1bf3 a4bc 5830 ac3d f83e 313d
000003f0: 2893 d0bd e4b5 1abe a416 97bd baec 18be
0.00010804032 -0.17080955 -0.12782966 -0.04828302 -0.25862297 -0.19243355 -0.07517421 -0.24044038
-0.19273728 0.2224064 0.16542195 0.074022464 0.4373232 0.43272778 0.18122022 0.3850898
0.49196163 0.26758006 0.0026196179 -0.040181108 -0.06982522 -0.03322025 -0.059736434 -0.06216434
0.032689292 -0.018838843 0.036684565 -0.018122151 -0.006479304 -0.0116365105 0.0072468054 0.012637262
0.019617382 -0.016526217 0.056229085 0.050120287 0.08752926 0.07292595 0.02725533 0.11028881
0.1258276 0.08079629 0.05703656 0.15436174 0.06899259 0.031525116 0.022905234 0.011516348
0.029464955 0.076161526 0.045731533 0.059978753 0.1264805 0.04157911 0.083244905 -0.035973016
-0.07803275 0.080588624 -0.073539585 -0.14675029 0.07393643 -0.048211154 -0.13336194 -0.057667274
-0.13972826 -0.0903545 0.0033579597 -0.10119644 -0.11283394 0.09056699 0.032020632 -0.00321619
0.048621 0.00028773744 0.0064017577 0.07391215 -0.0016249998 -0.024682414 0.03582583 0.081901014
0.010639286 -0.09051527 -0.14493106 -0.07861302 -0.13201153 -0.17910363 -0.07448891 -0.06413848
-0.094688766 -0.021028938 0.053409804 0.022665016 0.05284496 -0.008272386 -0.007083285 0.053424053
-0.0031564888 0.022062937 -0.010184919 0.047408044 0.05136929 0.045597322 0.047843035 0.101774074
0.08020909 0.04407077 0.1269102 0.095221445 -0.092946626 -0.085914604 -0.087078 -0.15810138
-0.16956499 -0.11157137 -0.20455399 -0.15611444 -0.10641831 0.065985456 0.08391785 0.029795831
0.08050453 0.1243845 0.0691834 0.070295945 0.14915639 0.052239086 0.010121302 -0.014359436
0.098088324 -0.014900643 0.043017562 -0.0808098 0.0953776 0.084793806 0.11891216 -1.1716081
-0.0073321136 -0.20780815 0.11647389 0.039109834 -0.03723121 -0.117743485 0.1621051 0.100373656
0.008235287 0.008595962 -0.019586628 0.02582222 0.051493075 0.022477616 0.047573917 0.086561725
0.03844414 -0.012813269 0.060757436 0.09456412 -0.05649708 0.021485021 0.090269245 -0.009604887
0.005633489 0.04938415 -0.013640355 0.016239708 0.05579413 -0.111065246 -0.0015782528 0.10118745
-0.12236982 0.005632769 0.023276506 0.024460174 0.034128714 0.00898193 0.050647475 0.010675541
0.0010904236 0.0556539 0.032371238 -0.012075905 0.03409335 0.022035204 0.0344989 0.08350419
0.09115533 0.10010985 0.051661108 0.14512786 0.08498588 -0.08595053 -0.06630229 -0.05676616
-0.08040041 -0.0626233 -0.042929348 0.0055482197 0.0743886 0.038802437 -0.039774597 -0.066115774
-0.03374737 0.02293065 -0.0146936355 -0.024345268 0.06895839 0.03635558 0.02145992 -0.028577838
0.027532477 0.019992251 -0.0102305235 0.06497733 0.10266184 0.011353389 0.1397074 0.12570265
0.021035297 -0.3013501 -0.18762973 0.0036839328 0.013385997 0.2263864 0.11553326 -0.188833
-0.5398187 -0.013276257 -0.11812586 -0.07136256 0.05878414 -0.081792615 -0.10668618 0.074532844
0.07617642 -0.019493157 -0.021478266 -0.03729338 0.018974127 -0.008795396 -0.036071084 0.032417096
0.032365903 0.014123953 0.015020962 0.08789505 0.09995168 0.06698967 0.04380155 0.11687026
0.09425779 -0.020135453 0.08407658 0.043272942 -0.10184318 -0.15108448 -0.07377365 -0.14934054

decoder.3.bias f4 [60]
00000000: ba4b 9abe 67c9 9d3d 532f 863e 3e44 31bd
00000010: de1f a33b f101 6f3b 1c9b 843c ed47 cbbd
00000020: d04e b73d 4e52 24be 52dc 2dbd 5f1f 213e
00000030: f548 a73d 6c00 8e3d f029 933e d96a a63d
00000040: 1f92 eb3c 54ee b63d 442c a5be b0e1 90bd
00000050: 9d63 fdbd e44c 8cbd ae9b 8a3d 4a50 17bb
00000060: c2c5 a33d 0273 42be 7a20 2d3e 0c31 c5bd
00000070: 5f4c 42bd 4c68 c5bd 5fd2 b0bd a90f cd3e
00000080: b492 063d 0d2d 35bd 88eb 253e 1e8b 89bd
00000090: c0b0 9b3e 7c5f dd3d 8e65 51bd 22ed 943d
000000a0: 6327 113e 5ad8 a0bc f08c 7b3e 880a 0dbd
000000b0: 9011 e6bc 657d 523c a6dd fcbd 061f 16be
000000c0: b6b1 63bd a28f 90bd a423 db3b c822 2e3e
000000d0: 7ed5 34bd 9619 7d3d 72fb 333f 868a 67bb
000000e0: 1793 37bd 7296 8c3d d046 0abd 0683 163e
-0.301359 0.0770443 0.2620798 -0.04327797 0.004978164 0.0036469663 0.016187243 -0.09925828
0.08950579 -0.16047022 -0.042446442 0.15734623 0.08168212 0.06933674 0.28742933 0.08125848
0.0287562 0.08932176 -0.32260334 -0.070742965 -0.12372515 -0.06850603 0.06767975 -0.0023088627
0.07996704 -0.18989184 0.1690692 -0.096284956 -0.047436114 -0.09639034 -0.08633875 0.4005101
0.03285475 -0.044232417 0.1620313 -0.067159876 0.30408287 0.10809228 -0.05112224 0.07271792
0.14175181 -0.019634414 0.24565482 -0.03443387 -0.028084546 0.012847279 -0.123469636 -0.14660272
-0.0555894 -0.07058646 0.0066875983 0.17005455 -0.044148915 0.06179198 0.7030555 -0.003533037
-0.04481801 0.06864633 -0.03375894 0.14698419

decoder.5.weight f4 [60, 40, 2, 2]
00000000: 12e0 4e3e a299 503e 0d58 5a3e 6b11 543e
00000010: e86b ed3d df9a e73d 1d3c e43d b8a4 f93d
00000020: 0672 863b f9aa a3bb 43ce 223c 899c 9cbb
00000030: fee3 dcbd d8e5 eebd 5719 ddbd d675 eabd
00000040: 8aa8 4abe 37bb 49be f459 41be d08d 46be
00000050: 5c7c 0bbe 9689 22be 8a6a 01be c35f 03be
00000060: 8de1 9bbc f91b 0dbd 00b5 80bc 29e9 bbbc
00000070: 59ba aa3c 673f 403c 0248 fd3c 62c5 e83c
00000080: a19c ee3c 018e 573c e180 ef3c a95f 353c
00000090: a2c0 c43b 228d a5bb 04c9 ef3b e50c 03bc
000000a0: 54ad 3ebc 03e4 d2bc 0ea1 1ebb d4f5 cabc
000000b0: b8ad f73b cf9a 03bc a72e 613c 66c0 debb
000000c0: 54d2 323d e761 bd3c dacc 323d d8ba c53c
000000d0: dc59 873d 1770 2e3d 6c18 923d 2428 523d
000000e0: f4d4 0e3d d0d6 233c 4ade 1b3d c112 bb3c
000000f0: 4bb8 a53a 4d73 6fbc 7e23 b23b 10ce 55bc
00000100: 3484 273d eb63 cf3c 091b 193d 6c2f d73c
00000110: fb1b 293e fc7c 1c3e 7bbe 223e de4a 1d3e
00000120: ead1 8e3e 11da 893e d5b5 8b3e ed4c 8a3e
00000130: c509 083d add2 cf3c 1d64 ec3c 998d c73c
00000140: db05 a9bf 84fc a8bf 46d0 a7bf 92c6 a7bf
00000150: 87a8 8a3e ea49 873e b6a9 8a3e 873d 863e
00000160: b433 ff3e 5aca f83e ada3 fc3e 7af6 f93e
00000170: 8450 7f3e eb4a 723e 8e47 7e3e a492 733e
00000180: ae1a af3b 7b60 0dbc 5463 2d3b 3996 4dbc
00000190: ca8f b2bd f759 e8bd 1fab 9bbd 3e83 cbbd
000001a0: 775c 51bd 32e0 a0bd b94c 1bbd e1a6 80bd
000001b0: 3e98 04bb 8ded a1bc ab82 3e3c e16b 27bc
000001c0: 5062 c1bc 4758 13bd b8b0 41bc a474 d4bc
000001d0: acdf 77bd 69a8 9bbd b887 5dbd f05e 7dbd
000001e0: 8e0a 89bd 33b5 a7bd 14a3 79bd 7288 83bd
000001f0: 9e11 99bc 55aa e0bc 8688 36bc f328 bebc
00000200: 15d8 173d e976 c33c 4edf 403d 79d7 253d
00000210: 2c48 8e3d f837 793d 5e12 a03d 9b8b 863d
00000220: 3535 153d 597c fb3c f3b8 623d e6e3 273d
00000230: 7a41 47bd 2f83 70bd 881f 12bd d5f3 53bd
00000240: 0d9e b1bd 9870 c4bd 9028 a1bd b0ff b4bd
00000250: dd00 76bc 9e78 cbbc 89c3 38bc c3a0 5dbc
00000260: 06e3 bf3d 24dc ae3d 35b8 c13d f9d6 b93d
00000270: 35c9 5f3e c740 573e 8eb0 613e 63b6 5e3e
00000280: f968 34be d554 3dbe 55cc 28be b5c9 1fbe
00000290: db45 ddbd 7b8e ffbd 5e93 f7bd 4999 03be
000002a0: 1ea8 90bd 7284 5cbd bd1d c5bd a568 bdbd
000002b0: 7a8d 39bd 7af2 81bd 5ce2 25bd 6bec 1ebd
000002c0: 9774 3e3c f6e8 603c e686 8e3b 8e30 6f3c
000002d0: 59fd 8c3d ed1a a33d c541 bc3d db9f 843d
000002e0: 3950 1b3e e4b1 083e 4c45 203e 03b9 203e
000002f0: a8e4 423e a2ef 353e 703a 363e 5e2a 4b3e
00000300: ebde 743e b418 683e 6620 813e b7a3 7c3e
00000310: b71e 943e 0c72 7b3e ec0d 9d3e f2e8 8a3e
00000320: 7703 a43e 7eef 963e 9a55 b33e e071 aa3e
00000330: de76 b53e 0a2a a83e 7398 d03e 4ea6 d03e
00000340: 83ec b03e c930 ab3e ec03 bc3e 4e3a b63e
00000350: f323 843e df63 833e 3ec3 933e 80f3 923e
00000360: e121 2a3e 8b7c 1b3e e578 223e d1ac 1f3e
00000370: efd5 363d 9761 a23d 5095 0b3d c486 f53c
00000380: 2fec 64bd f26c 4bbd eb63 b0bd 1e4e a6bd
00000390: 4c25 28be 097a 12be c00e 45be 9616 4bbe
000003a0: 69bd 77be 8b20 79be 040e 78be d473 7fbe
000003b0: 8905 8dbe b31b 92be 0736 8cbe ef36 93be
000003c0: ea14 a9be ed25 aabe 9491 9abe 2246 a0be
000003d0: 6aa4 96be e497 a3be 290e 92be 6579 9cbe
000003e0: 0772 90be 2470 96be 38e3 8bbe 7224 90be
000003f0: 9009 6cbe 6deb 71be 7ae1 75be b3d9 85be
0.20202664 0.20371106 0.21322651 0.2070977 0.11592847 0.11308836 0.11144278 0.12189621
0.004102948 -0.0049947468 0.009936872 -0.0047794026 -0.107856736 -0.11664933 -0.10795849 -0.11448257
-0.19790855 -0.19700323 -0.1888197 -0.19390035 -0.13621658 -0.15872797 -0.12638298 -0.12829499
-0.01902845 -0.034450505 -0.015711308 -0.022938328 0.02084081 0.011733866 0.030918125 0.028414432
0.02912742 0.013156415 0.029236259 0.01107017 0.006004409 -0.0050522247 0.007317664 -0.00799868
-0.011638004 -0.02574349 -0.0024204883 -0.024775423 0.0075585507 -0.008032515 0.013744033 -0.006797838
0.043657616 0.023117973 0.043652393 0.024136946 0.06608936 0.042587366 0.07133564 0.051307812
0.034871057 0.009999946 0.03805379 0.022836091 0.0012643425 -0.014614892 0.00543636 -0.013049617
0.040897563 0.0253162 0.0373793 0.02626773 0.1651458 0.15282053 0.15892975 0.15360591
0.27894527 0.26924184 0.27287164 0.27011815 0.033212442 0.025369013 0.028856331 0.024359511
-1.3204912 -1.3202062 -1.3110435 -1.3107474 0.270817 0.2642358 0.27082604 0.26218817
0.49844134 0.48591882 0.49343625 0.4882086 0.24933058 0.23661391 0.24831983 0.23786408
0.0053437566 -0.00862896 0.002645691 -0.012548023 -0.08718832 -0.113452844 -0.07600998 -0.09937142
-0.051113572 -0.07855262 -0.037914965 -0.062818296 -0.0020232345 -0.019766593 0.011627833 -0.010218591
-0.02360645 -0.03597286 -0.011821918 -0.025934525 -0.060516044 -0.07600481 -0.05408451 -0.061858118
-0.06691466 -0.08188858 -0.06094654 -0.06422509 -0.018685158 -0.02742497 -0.011140948 -0.023212885
0.037071306 0.023860412 0.04708796 0.040488694 0.069473594 0.06084439 0.07816003 0.065695964
0.036427695 0.030698942 0.055352163 0.040988825 -0.048646428 -0.058718856 -0.0356746 -0.05174621
-0.08672724 -0.09591788 -0.07869065 -0.08837831 -0.015014854 -0.024837788 -0.011277088 -0.013527098
0.09369473 0.08538082 0.09458963 0.09074206 0.21854098 0.21020804 0.22040007 0.21749263
-0.17618169 -0.18489392 -0.16484196 -0.15604289 -0.108043395 -0.12478348 -0.12088655 -0.12851442
-0.07063316 -0.053837247 -0.09624813 -0.09248475 -0.04530094 -0.06345077 -0.040499076 -0.038799684
0.011624477 0.013727417 0.0043495772 0.014598979 0.0688426 0.0796412 0.09192232 0.064758025
0.15167321 0.1334911 0.15651435 0.15695576 0.19032538 0.17767194 0.1779573 0.1984038
0.23913161 0.22665673 0.2522003 0.24671827 0.28929684 0.24555224 0.30674684 0.27130848
0.32033893 0.29479593 0.35026246 0.33290005 0.3544225 0.32844573 0.4074131 0.4075188
0.34555444 0.33435658 0.36721742 0.35591358 0.25808677 0.25662133 0.28859895 0.287014
0.16614486 0.15184228 0.1586643 0.15593268 0.044637617 0.0792877 0.034077942 0.029971488
-0.055889305 -0.049664445 -0.08612808 -0.081203684 -0.16420478 -0.14304365 -0.19243908 -0.19832835
-0.24193348 -0.2432882 -0.24224097 -0.24946529 -0.27543285 -0.28536758 -0.2738497 -0.28752849
-0.3302377 -0.3323206 -0.30189192 -0.31303507 -0.29422313 -0.3195182 -0.28526428 -0.30561367
-0.28211996 -0.29382432 -0.27321792 -0.28152806 -0.23050523 -0.23624964 -0.24011794 -0.26142654

decoder.5.bias f4 [40]
00000000: 0bfb 65be 4e17 f0bd b97b 81bc 40c2 763d
00000010: f624 b73d 2358 853d ada0 003d 23cc b83c
00000020: 927d bd3c b704 113d 5560 8e3c a42d 0bbd
00000030: f7f0 60bd 3c88 0cbd d50a a9bd 630e 14be
00000040: 1f16 f0bd e9cb a4bd fa80 febd 1d14 b7bd
00000050: a097 f23d 443c ea3c 22a9 f63c 2e13 bb3d
00000060: 2762 1f3d a1c6 80bd 620d afbd a641 d1bd
00000070: 9f72 0bbe 2acc 05be 2fcd 9abd f233 94bc
00000080: 7cb6 3b3d 8f38 ed3d 7a1f 4b3e 7549 913e
00000090: 4e7c b33e 1759 b73e fada a03e 1079 7a3e
-0.22459047 -0.11723195 -0.015806066 0.060243845 0.089425966 0.06510951 0.031403232 0.022558277
0.023131166 0.035404887 0.017379919 -0.033979073 -0.054917302 -0.03430961 -0.08254019 -0.14458613
-0.11722969 -0.08046705 -0.12426944 -0.08939383 0.118453264 0.02859319 0.030109946 0.091345176
0.038911965 -0.062878855 -0.085474744 -0.102175996 -0.13617943 -0.13066164 -0.07558667 -0.018091176
0.045828328 0.11583053 0.19836226 0.28376356 0.35055774 0.35810158 0.31417066 0.24460244
