model/NN_multiple_GW_600000.pth (torch, 139726 bytes, 5 tensors)

dftlayer.0.weight f4 [120, 203]
0	0xbb08e3e3	-0.0020887784
1	0x3e3333ae	0.17500183
2	0x3bb7fdb0	0.0056149587
3	0x3d8838c5	0.06651453
4	0x3d245b00	0.040125847
5	0x3d89754f	0.06711828
6	0x3c060bd8	0.008181535
7	0xbcb5da0c	-0.0221987
8	0x3cbf1a64	0.023328014
9	0xbd239ef5	-0.039946515
10	0xbcf57cf7	-0.029966814
11	0x3cf96f7c	0.030448668
12	0xbcb1af06	-0.021689903
13	0xbcc4ba27	-0.024014546
14	0xbcda660f	-0.026659993
15	0xbd6b3a75	-0.057428796
16	0xbcb8e05d	-0.022567922
17	0xbd136696	-0.035986505
18	0xbda5e8a8	-0.08101016
19	0x3d8199d1	0.06328166
20	0x3c5a1bbd	0.013312277
21	0x3d8918e1	0.066941984
22	0xbd3ea0c3	-0.046540033
23	0xbcdc2ca6	-0.026876759
24	0x3c26f047	0.0101891225
25	0x3c904559	0.017611193
26	0x3ca9f0dc	0.020744734
27	0x3cfc371f	0.030788003
28	0xbcc39c09	-0.023878114
29	0x3d0672dd	0.032824386
30	0x3c864dc4	0.016394503
31	0x3e003315	0.12519486
32	0x3b8f23ff	0.0043683047
33	0xbd53f9bb	-0.051751833
34	0xbd80c3ab	-0.06287321
35	0x3cb1acd1	0.02168885
36	0x3d01e4fe	0.031712525
37	0xbc1de82a	-0.009637872
38	0xbca7de3b	-0.02049171
39	0xbd1980db	-0.0374764
40	0xbce263e0	-0.027635515
41	0xbd70aca0	-0.058758378
42	0x3da04ccb	0.07827147
43	0xbce6cf3e	-0.028174993
44	0xbcc6fad5	-0.024289528
45	0xbd91be4d	-0.07116375
46	0x3d71d672	0.0590424
47	0xbcb04234	-0.021515943
48	0x3d4f30c5	0.05058362
49	0xbd83d895	-0.06437794
50	0xbd1f0be8	-0.038829714
51	0xbd0138be	-0.031548254
52	0x3d292528	0.0412952
53	0xbd6e91c8	-0.058244497
54	0x3c83b768	0.016078666
55	0x3b932963	0.0044910177
56	0xbd8a4a44	-0.06752446
57	0xbd1104ca	-0.035404958
58	0xbd1f4cec	-0.038891718
59	0x3d970a27	0.07374983
60	0xbd56a314	-0.052401617
61	0xbd298fad	-0.041396786
62	0x3d227214	0.039659575
63	0xbca83837	-0.020534618
64	0x3d008345	0.03137519
65	0x3b12c2ba	0.0022393898
66	0xbd7e89d3	-0.06214316
67	0x3b0a4cbc	0.0021102866
68	0xbd771e40	-0.060331583
69	0xbcb15f89	-0.021652
70	0x3d14d949	0.03634003
71	0xbc43bd6b	-0.011947016
72	0xbcaeffcc	-0.021362208
73	0xbd8a28d9	-0.06746072
74	0x3d879dbd	0.06621883
75	0xbce5a292	-0.028031621
76	0x3d0d23d0	0.03445798
77	0x3d6e6a4b	0.058206838
78	0xbdac32a9	-0.084081
79	0x3c7f5377	0.015583864
80	0xba580b20	-0.0008241404
81	0xbaa688e1	-0.0012705588
82	0x3c2331d9	0.009960615
83	0xbc042994	-0.008066554
84	0xbd2b2c9d	-0.041790593
85	0x3d6c4355	0.0576814
86	0xbc961842	-0.018322114
87	0xbd835401	-0.06412507
88	0x3cd58dc2	0.026068572
89	0x3cd66b51	0.02617422
90	0xbd3c0302	-0.045901306
91	0x3d904b7a	0.07045646
92	0xbd665ef9	-0.056242917
93	0x3cc53b5e	0.02407616
94	0x3d4c4f56	0.04988035
95	0xbca1d51e	-0.019754943
96	0x3d9d9e24	0.076961786
97	0xbc0704c1	-0.0082408795
98	0x3b71a6a7	0.0036873014
99	0x3c762d4d	0.015025449
100	0x3d827393	0.063697
101	0xbd3523d6	-0.04422363
102	0xbc2fbf7e	-0.010726808
103	0xbd1e4b14	-0.03864582
104	0x3d8efae0	0.06981444
105	0x3d472636	0.048620425
106	0xbcce2a7d	-0.025166744
107	0x3ba03a98	0.0048897974
108	0xbd49dd34	-0.04928322
109	0x3d7ed726	0.0622169
110	0xbdb09eb9	-0.08624024
111	0xbca6ca3d	-0.020360107
112	0x3c99205e	0.018692192
113	0xbd8adc91	-0.06780351
114	0x3d2eacc4	0.04264523
115	0xbd453f2b	-0.048155945
116	0x3dad85b2	0.08472766
117	0xbd6f3357	-0.05839857
118	0xbdb328e2	-0.08748032
119	0xbd5dd4a7	-0.05415788
120	0x3d223d66	0.039609335
121	0x3d49d08e	0.04927116
122	0xbdaadf1c	-0.08343336
123	0xbd296982	-0.041360386
124	0x3cf0845d	0.02935999
125	0xbd9a3291	-0.07529176
126	0xbd957e67	-0.072995
127	0x3cd3eaef	0.025868861
128	0x3d8fb809	0.07017524
129	0xbd33bad2	-0.043879338
130	0xba567e22	-0.00081822474
131	0xbd80bb05	-0.06285671
132	0xbd5ee8b3	-0.054421138
133	0x3d604fa7	0.054763462
134	0x3cc59d97	0.024122996
135	0x3c77dd86	0.015128499
136	0x3d77faa8	0.06054178
137	0x3d01d6bb	0.031698924
138	0xbc76de04	-0.015067581
139	0xbd89af6b	-0.067229114
140	0x3dab38b6	0.08360426
141	0x3dc41b8a	0.09575565
142	0xbb4c994f	-0.0031219309
143	0xb894b154	-7.09022e-05
144	0x3d2c17c1	0.04201484
145	0x3d142cdb	0.03617559
146	0x3cf71978	0.030163512
147	0xbc448727	-0.011995113
148	0x3cbebf79	0.02328466
149	0xbca32c6f	-0.019918649
150	0xbd71eca8	-0.059063584
151	0xbd7aa250	-0.06118995
152	0x3d9debb0	0.077109694
153	0xbd3cfeb1	-0.04614133
154	0xbd6c0da9	-0.057630215
155	0x3d447599	0.047963712
156	0x3d7ca3ef	0.061679777
157	0xbd2bc037	-0.041931357
158	0xbd3a5932	-0.04549522
159	0xbd81ec94	-0.06343952
160	0x3d4a7abf	0.049433466
161	0xbd74a917	-0.05973157
162	0x3d85be77	0.06530469
163	0xbc8d9408	-0.0172825
164	0x3ccced99	0.02501564
165	0xbce1932e	-0.027536001
166	0xbd8d10f0	-0.06887996
167	0xbc90d637	-0.01768027
168	0xbd5ed8f5	-0.054406125
169	0x3d8c95bf	0.06864499
170	0x3c09e978	0.00841748
171	0x3c2bad20	0.010478288
172	0x3cd04c36	0.025426965
173	0xbd5431f9	-0.05180547
174	0x3d36759b	0.04454575
175	0x3cfc4002	0.03079224
176	0xbd349014	-0.044082716
177	0x3cc13d00	0.023588657
178	0xbd21f248	-0.039537698
179	0xbd391d7d	-0.045194138
180	0x3c85507b	0.016273728
181	0x3d786a9b	0.060648542
182	0xbcb57650	-0.022151142
183	0xbd17dbff	-0.03707504
184	0x3cdf9688	0.027293459
185	0x3d2a5b2b	0.04159085
186	0xbba93438	-0.0051636957
187	0xbc1f58ef	-0.009725793
188	0x3cc140d5	0.023590485
189	0xbce19fd4	-0.027542032
190	0x3d029bfa	0.031887032
191	0xbbdbe91e	-0.0067111393
192	0xbc9eafe8	-0.019370988
193	0x3d8ee8f5	0.06978027
194	0xbd964bc8	-0.07338673
195	0x3d574dab	0.052564304
196	0xbc60e2aa	-0.013725916
197	0x3c80629a	0.015672017
198	0xbcc9b55e	-0.024622615
199	0xbd774d48	-0.060376436
200	0xbd733f9c	-0.059386835
201	0xbb3b3bad	-0.0028569505
202	0xbd20c157	-0.039246883
203	0x3c5db5ed	0.013532144
204	0xbd713306	-0.05888655
205	0x3d85b353	0.06528344
206	0x3c196f90	0.0093649775
207	0x3bca7b03	0.006179215
208	0xbd9141dc	-0.0709264
209	0xbd6ddda1	-0.05807269
210	0x3cb6378e	0.022243287
211	0xbd195242	-0.037431963
212	0x3cc3f2e7	0.023919536
213	0xbd414a9d	-0.047190297
214	0x3d4edb86	0.050502323
215	0xbc2c023b	-0.010498579
216	0x3b7cec58	0.003859302
217	0x3d5c9da0	0.05386126
218	0xbd901380	-0.07034969
219	0xbd257b21	-0.040400628
220	0xbbbb6020	-0.005718246
221	0xbca994e7	-0.020700885
222	0xbbd619de	-0.0065338453
223	0x3aa93c3d	0.0012911629
224	0x3cec30d7	0.028831882
225	0xbdcc9746	-0.099897906
226	0x3c463631	0.012097881
227	0x3ca7f9b9	0.02050482
228	0xbd39bec1	-0.045347933
229	0xbc8b3cb1	-0.016996713
230	0x3d67bf1a	0.056578733
231	0xbb1fdd66	-0.0024393438
232	0xbbacd17b	-0.0052739955
233	0xbcb11033	-0.02161417
234	0x3d1aa95b	0.037759166
235	0xbc09bbf1	-0.008406625
236	0xbd7191c6	-0.05897691
237	0xbdbb5ac5	-0.09148172
238	0x3d9098fa	0.07060428
239	0xbcd8bf77	-0.026458485
240	0x3cb2ae21	0.021811547
241	0xbd23f226	-0.040025853
242	0x3c90a532	0.017656896
243	0xbc890071	-0.016723843
244	0x3d6f5ba0	0.05843699
245	0xbd10c378	-0.035342664
246	0x3d87539c	0.06607744
247	0x3d00c0a6	0.031433724
248	0xbcd522a7	-0.0260175
249	0x3cc6920e	0.024239566
250	0x3d9c8091	0.076417096
251	0xbc2e8a41	-0.0106530795
252	0xbcf88ec8	-0.03034152
253	0xbd1a22dd	-0.037630904
254	0xbd3c080b	-0.045906108
255	0xbd7b9f10	-0.06143099

dftlayer.0.bias f4 [120]
0	0x3d17f6c8	0.037100583
1	0x3d7946d3	0.06085856
2	0xbd914cb6	-0.070947096
3	0xbd65c799	-0.056098554
4	0x3d4e9046	0.05043056
5	0xbd5a78bb	-0.053337794
6	0x3b990fed	0.004671088
7	0x3b8469eb	0.0040409467
8	0x3d26ec3d	0.040752638
9	0x3d119567	0.03554287
10	0xbd4a1751	-0.049338643
11	0xbd136fae	-0.035995178
12	0x3d07be68	0.03314057
13	0x3b951359	0.0045494256
14	0x3d0db8e1	0.034600142
15	0xbb8bb463	-0.004263447
16	0x3cfdbbeb	0.030973395
17	0x3d2c85fa	0.042119958
18	0xbd89263e	-0.06696747
19	0xbd82b157	-0.06381481
20	0x3c2eb6c8	0.010663696
21	0x3d5a6c2b	0.053325813
22	0x3bdf1f01	0.006809116
23	0x3ce6998a	0.028149385
24	0x3d743b28	0.05962673
25	0xbc84b940	-0.016201615
26	0xbbdb92ba	-0.006700841
27	0xbca20b92	-0.019780908
28	0xbccfa06a	-0.025345046
29	0x3d7ae2e5	0.06125154
30	0x3d03b9b8	0.032159537
31	0xbd3ffd37	-0.046872344
32	0xbd0f0ceb	-0.03492443
33	0xbcd5a5c1	-0.026080014
34	0x3d7985ce	0.06091862
35	0x3d0b1495	0.033955175
36	0x3c3076b9	0.010770493
37	0xbb4ecfef	-0.0031557044
38	0x3d1f4707	0.038886096
39	0xbd4b8bfc	-0.049694046
40	0x3ba4e9f8	0.005032774
41	0xbc507edc	-0.012725558
42	0x3c0506a4	0.008119259
43	0xbd58aa8a	-0.052897014
44	0x3d13337e	0.03593778
45	0xbd520443	-0.051273596
46	0xbd1e0377	-0.038577523
47	0xbd88f4e3	-0.066873334
48	0xbc034f09	-0.008014449
49	0xbd063c9b	-0.03277264
50	0x3c07a2ce	0.008278562
51	0x3d82603b	0.06366011
52	0xbc5a7204	-0.0133328475
53	0x3ca17b58	0.019712135
54	0xbd55042d	-0.052005935
55	0x3d29859b	0.04138718
56	0x3d8b0452	0.067879334
57	0x3cb47f31	0.022033306
58	0x3d7cc5a1	0.06171191
59	0x3c5702c7	0.013123221
60	0xbd1730ec	-0.03691189
61	0xbc5fe364	-0.013665054
62	0xbc61798e	-0.013761891
63	0x3a4c7737	0.0007799747
64	0xbca2433e	-0.019807454
65	0x3cd85b2d	0.026410664
66	0x3cd66c63	0.02617473
67	0x3d501dad	0.05080955
68	0x3cbc7613	0.02300552
69	0x3cabc5c6	0.02096833
70	0x3d40b9fb	0.047052365
71	0xbd4450ca	-0.04792861
72	0xbcedd253	-0.029030954
73	0xbba674cd	-0.0050798417
74	0xbc62c195	-0.013840099
75	0xbcf323f1	-0.029680224
76	0xbb5dc4c6	-0.003383921
77	0x3c88b056	0.016685646
78	0xbaa61186	-0.0012670017
79	0x3abf0a52	0.0014575219
80	0x3d33b194	0.043870524
81	0xbd6dd434	-0.0580637
82	0xbceb4d5e	-0.028723415
83	0x3d3402fd	0.043948162
84	0x3d7dace9	0.061932478
85	0xbb741763	-0.0037245385
86	0x3c9f101a	0.019416858
87	0x3c621cd5	0.013800819
88	0xbd803968	-0.062609494
89	0x3d09231f	0.03348076
90	0xbcd0c485	-0.025484333
91	0x3d2b7cd4	0.041867092
92	0x3d87b755	0.06626765
93	0xbc88ec06	-0.016714107
94	0xbd31c1d0	-0.043397725
95	0xbd81e94e	-0.063433275
96	0x3c030121	0.007995875
97	0xbd82c3d7	-0.0638501
98	0xbd3651a9	-0.04451147
99	0x3c530309	0.012879142
100	0xbd484bde	-0.048900478
101	0x3ca855ef	0.020548789
102	0xbbc4ed06	-0.0060097007
103	0x3c50d782	0.012746694
104	0x3d31a9f8	0.043374985
105	0xbd27601d	-0.040863145
106	0xbd14e205	-0.03634836
107	0x3bf743b1	0.0075459112
108	0xbc425638	-0.011861376
109	0xbd0dd438	-0.034626216
110	0x3d4f2681	0.05057383
111	0x3cca97a4	0.024730511
112	0x3d04e464	0.032444373
113	0xbd384823	-0.04499067
114	0x3c0c1126	0.00854901
115	0x3d46bbd1	0.04851896
116	0x3d483427	0.04887786
117	0xbd8c551c	-0.06852171
118	0xbd6bb13c	-0.05754207
119	0xbc035afb	-0.008017297

dftlayer.2.weight f4 [80, 120]
0	0xbddeb3d7	-0.108741455
1	0x3d96391e	0.07335113
2	0xbcab00b5	-0.02087436
3	0xbc472b87	-0.012156374
4	0xbdb8c1a1	-0.09021307
5	0x3d937f75	0.07202045
6	0xbd43cda4	-0.047803536
7	0x3d654388	0.055972606
8	0xbcd11494	-0.025522508
9	0xbd2872f6	-0.04112526
10	0x3d5c2f3c	0.053755984
11	0x3ca6661d	0.020312363
12	0xbc931659	-0.017954992
13	0xbd3de92d	-0.046364952
14	0xbd570878	-0.05249831
15	0xbd2ecb4d	-0.04267435
16	0xbd6d6d6d	-0.057965685
17	0x3dac78ee	0.08421503
18	0x3bf2794e	0.0073997146
19	0x3d2d8c98	0.04237041
20	0xbd4cb1c2	-0.04997421
21	0xbce3dcb7	-0.027815206
22	0x3c887924	0.016659327
23	0x3cd4ae18	0.02596192
24	0xbd0d7e28	-0.03454414
25	0xbd7e3efc	-0.062071785
26	0x3d2995df	0.041402694
27	0x3c4f2cc6	0.012644952
28	0xbd511f8c	-0.051055476
29	0xbbaaf880	-0.005217612
30	0x3d9c9d82	0.0764723
31	0xbdb29e46	-0.087215945
32	0x3cfa28bb	0.030537
33	0xbb60643a	-0.0034239427
34	0x3ca27b38	0.019834146
35	0xbd9be82d	-0.076126434
36	0x3d5886d3	0.052862953
37	0xbd35546a	-0.044269957
38	0x3c3733a7	0.0111817485
39	0xbc5e7a9c	-0.013579037
40	0xbd0fd234	-0.035112575
41	0xbb24e320	-0.002515979
42	0xba6cd0ec	-0.00090338173
43	0x3d0c2af4	0.03422065
44	0xbda111b8	-0.07864708
45	0x3d3d9380	0.046283245
46	0x3d8e0d4d	0.06936131
47	0x3d5e4a41	0.054270033
48	0x3c8fa53f	0.01753485
49	0x3d8a0d29	0.06740791
50	0xbd07a6ea	-0.033118166
51	0x3ce93ff9	0.028472887
52	0xbdb029e1	-0.08601738
53	0xbd8b80aa	-0.0681165
54	0x3d853560	0.06504321
55	0x3d0a1912	0.033715315
56	0xbd86447a	-0.065560296
57	0x3cd343a9	0.025789099
58	0xbced1be3	-0.028943961
59	0xbdbca371	-0.092108615
60	0x3d342f96	0.043990694
61	0xbb333cc1	-0.0027349445
62	0x3bc83b2d	0.00611057
63	0xbb082ee8	-0.0020779911
64	0xbaa158d0	-0.0012309793
65	0xbbc49ed3	-0.0060003786
66	0xbd88f479	-0.066872545
67	0x3d116a9d	0.035502065
68	0x3d3d663c	0.046240076
69	0x3d10cc54	0.035351112
70	0xbdae2686	-0.085034415
71	0xbce51d7a	-0.027968157
72	0x3dec37e0	0.11534095
73	0x3c9203b4	0.017824031
74	0x3cccff0e	0.025023963
75	0x3d155fed	0.036468435
76	0xbd7943e2	-0.060855754
77	0xbcc6f14a	-0.024284977
78	0x3d8709b8	0.065936506
79	0x3cfe5b4a	0.03104939
80	0xbc1cc127	-0.0095675355
81	0x3d83a9e7	0.06428891
82	0xbcaf3a8a	-0.021390218
83	0xbdadc77f	-0.084853165
84	0xbd892537	-0.06696551
85	0x3ddbec39	0.10738415
86	0x3cbcc02d	0.023040855
87	0x3ca1ec24	0.019765921
88	0x3cf62e4d	0.030051375
89	0x3cfbfe7c	0.030760996
90	0x3c755fb9	0.014976435
91	0xbdb82b07	-0.08992582
92	0xbd232db5	-0.03983851
93	0xbc66d54b	-0.014088939
94	0xbd1a626c	-0.03769152
95	0x3d4656bf	0.04842257
96	0xbd04aae5	-0.03238954
97	0x3c162004	0.009162907
98	0xbb965c73	-0.0045886575
99	0x3c3e7112	0.011623638
100	0xbc41dfb2	-0.011833118
101	0xbd900714	-0.070326
102	0x3da89bda	0.08232851
103	0xbd48bb17	-0.049006548
104	0x3dbb711a	0.09152432
105	0x3da0f519	0.07859249
106	0x3de0836e	0.10962568
107	0x3c8cacbc	0.01717221
108	0x3ac94fb3	0.0015358835
109	0xbcb8ea27	-0.02257259
110	0xbc8c56d5	-0.017131248
111	0x3c62771a	0.013822341
112	0xbdb3ef90	-0.08785927
113	0xbd3ed742	-0.046592005
114	0xbccb5805	-0.024822244
115	0x3c9b0d64	0.018927284
116	0xbcca2a60	-0.02467841
117	0xbd635732	-0.055503078
118	0xbd4acf86	-0.049514316
119	0x3dbc6cdb	0.0920045
120	0xbd841cf0	-0.06450832
121	0xbd4298c4	-0.04750897
122	0xbcd78f34	-0.026313402
123	0x3cafe62d	0.021472061
124	0x3d85de10	0.06536496
125	0x3c59b6d3	0.013288218
126	0xbdba1a24	-0.09087017
127	0x3d87a314	0.066229016
128	0xbd3ce29d	-0.046114553
129	0x3bc6b2a1	0.0060637747
130	0xbc96d167	-0.018410398
131	0x3d43d397	0.04780921
132	0xbd775c40	-0.06039071
133	0x3c459128	0.012058534
134	0x3d98222f	0.07428395
135	0x3c830ca4	0.015997238
136	0xbd110955	-0.03540929
137	0xbd8a2faf	-0.06747376
138	0xbb5ba4a6	-0.0033514886
139	0xbd48d86f	-0.049034532
140	0x3d62cc24	0.055370465
141	0xbd8d2ace	-0.0689293
142	0x3c507cb2	0.012725042
143	0xbab5bdb1	-0.0013865737
144	0x3d708fdd	0.05873095
145	0x3c810c3d	0.015752906
146	0xbc044043	-0.008071962
147	0x3b47f930	0.0030513518
148	0xbd803617	-0.06260317
149	0x3da331ec	0.07968506
150	0xbc5ebd07	-0.013594872
151	0xbd2166f6	-0.03940483
152	0x3da8cc4a	0.0824209
153	0xbd5be753	-0.053687405
154	0x3d430ffb	0.047622662
155	0xbcf26089	-0.029587047
156	0xbda17d89	-0.07885272
157	0xbd485e57	-0.048918094
158	0xbcd02ae2	-0.025411073
159	0x3d9bd705	0.07609371
160	0x3d6fbad7	0.058527794
161	0xbb2b3908	-0.0026126523
162	0xbc9560e4	-0.018234678
163	0xbcfe6cf8	-0.03105782
164	0x3d343030	0.043991268
165	0xbd9f6b82	-0.07784177
166	0x3d296c44	0.041363016
167	0xbd6fcf54	-0.058547333
168	0x3d1ecaf7	0.03876778
169	0x3cea98e8	0.028637365
170	0xbd8c9bcd	-0.06865654
171	0xbd102c2c	-0.035198376
172	0xbd4d9aa8	-0.05019632
173	0xbb0018df	-0.0019546074
174	0x3d849fae	0.06475769
175	0xbdaf95cb	-0.085734926
176	0xbd9beb67	-0.07613259
177	0x3d43af17	0.0477744
178	0x3d485312	0.048907347
179	0x3c0a9b37	0.008459858
180	0xbbe7d21a	-0.0070746066
181	0xbc904948	-0.017613068
182	0xbd96b889	-0.07359416
183	0xbd46ce73	-0.04853673
184	0xbd5541b4	-0.052064613
185	0x3cdc4de6	0.026892614
186	0x3cf06ec8	0.0293497
187	0x3d73164b	0.059347432
188	0xbcfc1584	-0.030771978
189	0x3db01aae	0.08598839
190	0xbdb14a4c	-0.08656749
191	0x3d977c9e	0.07396816
192	0x3c54faf0	0.012999281
193	0xbd6f8d56	-0.058484398
194	0xbd978f0c	-0.07400331
195	0x3d1c89df	0.03821742
196	0xbd92b009	-0.07162482
197	0x3bd302f2	0.00643956
198	0x3c052fd5	0.00812908
199	0xbda7cf33	-0.08193817
200	0x3d9294bb	0.07157274
201	0xbc9125bf	-0.017718194
202	0x3d76d2e2	0.060259707
203	0x3db7a05a	0.089661315
204	0x3d7cf6a4	0.061758652
205	0x3d3621b5	0.04446574
206	0xbd05ae6c	-0.032637045
207	0x3d4f386e	0.050590925
208	0xbd50384c	-0.05083494
209	0xbce70b5c	-0.028203659
210	0xbb148fc3	-0.0022668696
211	0xbce6caff	-0.028172968
212	0x3d244e6f	0.040113863
213	0xbcf5f3cc	-0.030023478
214	0x3d1a6a36	0.037698947
215	0xbc50689b	-0.012720252
216	0x3db50a0d	0.08839808
217	0xbdb26141	-0.08709956
218	0xbbcdd064	-0.0062809456
219	0xbdac3c48	-0.08409935
220	0xbbb3497f	-0.005471408
221	0xbd3bf3b1	-0.0458867
222	0x3d9cfb74	0.076651484
223	0xbc16bcc7	-0.009200281
224	0x3ba6930a	0.0050834464
225	0xbac589db	-0.0015070991
226	0x3d079c32	0.033107944
227	0x3d66f88f	0.056389388
228	0xbdab76df	-0.08372282
229	0x3d283e47	0.041075017
230	0x3b97ea20	0.004636064
231	0x3d22a0a1	0.03970397
232	0xbd5792b7	-0.052630153
233	0x3db50fa4	0.08840874
234	0xbd439e6e	-0.047758512
235	0x3d986310	0.0744077
236	0x3db9acbb	0.09066149
237	0xbd1db9dc	-0.038507327
238	0xbd17eb79	-0.0370898
239	0xbdbbcf93	-0.09170451
240	0x3cddf6a5	0.027095148
241	0x3c659823	0.014013323
242	0xbb2f8c05	-0.002678634
243	0xbda9dd4d	-0.08294163
244	0xbd71af93	-0.05900533
245	0xbd8d4125	-0.06897191
246	0xbcbc5b70	-0.02299282
247	0xbcfb1c05	-0.03065301
248	0xbda6f040	-0.08151293
249	0xbda67da0	-0.0812943
250	0xbda27183	-0.07931807
251	0x3da2a1b6	0.07941
252	0x386caa94	5.6425648e-05
253	0x3d11667c	0.035498127
254	0xbd53893c	-0.05164455
255	0x3d797ee1	0.060912017

dftlayer.2.bias f4 [80]
0	0x3d47e60d	0.048803378
1	0x3d765ee1	0.060149077
2	0x3cd2166b	0.025645455
3	0xbda6c3b0	-0.08142793
4	0x3d232a07	0.039835002
5	0x3d454f67	0.048171427
6	0x3c376403	0.011193278
7	0x3daa4401	0.08313752
8	0x3c730a9e	0.014834074
9	0xbd0699f6	-0.032861672
10	0xbd7662b5	-0.060152728
11	0xbca38f83	-0.019965893
12	0x3cac7cf8	0.021055683
13	0xbd501129	-0.050797615
14	0xbda06618	-0.07831973
15	0xbdaef758	-0.08543271
16	0x3c028893	0.007967132
17	0x3cfcd85a	0.030864883
18	0xbca4f32b	-0.020135483
19	0xbbcef576	-0.0063158823
20	0x3c2d58a4	0.010580216
21	0xbd77332f	-0.060351547
22	0xbd66c1ff	-0.056337353
23	0x3d91a0c4	0.07110742
24	0x3d10dcc5	0.035366792
25	0x3d2e6340	0.04257512
26	0x3d71382e	0.058891468
27	0x3da4d109	0.08047683
28	0x3d1e3b1d	0.038630594
29	0x3cc807f0	0.024417847
30	0x3d30aaea	0.043131746
31	0xbcfc85d8	-0.03082554
32	0xbd419786	-0.047263645
33	0xbd8a410d	-0.06750689
34	0x3d9f518d	0.077792265
35	0x3bb81fd3	0.005619028
36	0x3d96848e	0.073495016
37	0xbcc3595c	-0.02384632
38	0x3b2ea076	0.0026645935
39	0x3d58a03d	0.05288719
40	0x3da7d63f	0.08195161
41	0x3d566f4a	0.052352227
42	0x3cbcd2e1	0.023049774
43	0x3d073e8e	0.03301864
44	0x3cfafbd9	0.030637668
45	0xbcb65a27	-0.022259785
46	0x3d8a1c3b	0.06743666
47	0x3bfe1d8c	0.007754987
48	0x3b82ecd9	0.0039955196
49	0x3cd2427d	0.02566647
50	0x3db110a0	0.08645749
51	0x3db55f00	0.088560104
52	0xbd9be258	-0.07611531
53	0x3d94254f	0.072336785
54	0x3d37736a	0.0447878
55	0xbba4b63b	-0.0050266064
56	0x3d923c70	0.07140434
57	0xbd253ae7	-0.040339377
58	0xbc2c7fd4	-0.0105285235
59	0xbd861abc	-0.06548068
60	0x3cb78f82	0.022407297
61	0xbd1b1410	-0.03786093
62	0xbbd58d62	-0.0065170983
63	0x3db09077	0.086213045
64	0x3db6270a	0.08894165
65	0x3d3db20f	0.046312388
66	0xbd464b17	-0.048411455
67	0x3d9093ce	0.070594415
68	0xbd3169e1	-0.043313865
69	0xbd41fea2	-0.047361977
70	0xbb9c249b	-0.004765106
71	0xbd079f18	-0.033110708
72	0xbd666d7a	-0.05625675
73	0x3b2becb2	0.002623361
74	0xbd3c250d	-0.045933772
75	0xbdb11ee5	-0.08648471
76	0x3db5248e	0.08844863
77	0xbdbe8929	-0.09303505
78	0x3d3ae6f5	0.045630414
79	0xbdabdb9a	-0.08391495

dftlayer.4.weight f4 [1, 80]
0	0x3e121aa9	0.14267983
1	0xbcf3e5e0	-0.029772699
2	0x3ccebcd5	0.025236527
3	0x3db1ef72	0.08688249
4	0xbe3a8b8e	-0.18217298
5	0xbcb91c32	-0.022596452
6	0x3e01ff97	0.12695156
7	0x3bc72d53	0.006078401
8	0xbd9a39d5	-0.07530562
9	0x3e9b7c7e	0.30368418
10	0x3ddae6f3	0.10688581
11	0xbed75436	-0.42056435
12	0xbef0c58e	-0.47025722
13	0x3e61a094	0.22033912
14	0x3e5ff0c0	0.21869183
15	0xbe07c6d3	-0.13259439
16	0xbd93506d	-0.071930744
17	0xbe106a63	-0.14103083
18	0x3dbf4e0e	0.093410596
19	0xbdc2fd4b	-0.09520968
20	0x3d501906	0.050805114
21	0xbefcacb1	-0.49350503
22	0x3ef1a5f9	0.4719694
23	0x3dcf8195	0.10132138
24	0xbe1f098e	-0.15530989
25	0x3de6e43e	0.112740025
26	0x3de0422b	0.109501205
27	0xbea0f3d7	-0.31436035
28	0x3eda02c0	0.42580223
29	0xbd055d13	-0.032559466
30	0xbe409ff9	-0.18811025
31	0xbe2240bf	-0.15845011
32	0xbe1f5823	-0.15560965
33	0xbeccd0b1	-0.4000297
34	0xbcc094a8	-0.023508385
35	0xbd9642e8	-0.0733698
36	0x3efc17c5	0.49236885
37	0xbdfeb784	-0.124373466
38	0xbd16e918	-0.03684339
39	0x3ddf73f2	0.10910787
40	0x3e390aec	0.18070573
41	0x3e1ee061	0.15515281
42	0x3d14756e	0.036244802
43	0xbeaaded5	-0.33373132
44	0xbeae77ad	-0.3407568
45	0x3ecb8372	0.39748722
46	0xbf087038	-0.5329623
47	0x3ee9a12f	0.45630786
48	0x3e7166c4	0.23574358
49	0xbe2498da	-0.16073933
50	0x3de18f51	0.110136636
51	0x3d85c57c	0.06531808
52	0xbd133b8d	-0.035945464
53	0xbed74167	-0.42042086
54	0x3e9f1aa7	0.31075022
55	0xbd9fb004	-0.07797244
56	0x3c5a5812	0.013326662
57	0x3d97ce81	0.07412434
58	0xbd314463	-0.04327811
59	0x3d8b269d	0.06794474
60	0xbe6f194d	-0.23349495
61	0x3e4e75d1	0.20162131
62	0xbde2f203	-0.11081316
63	0x3d89c4f5	0.0672702
64	0x3dc545b4	0.096324354
65	0x3d437b77	0.047725167
66	0x3e8d6c1a	0.27621537
67	0xbe541390	-0.20710588
68	0x3e973263	0.2953063
69	0xbded5b86	-0.11589722
70	0x3f17cd28	0.5929742
71	0x3dea9575	0.11454288
72	0xbccad9fb	-0.024762144
73	0xbe9f5264	-0.31117547
74	0xbce511d5	-0.027962605
75	0xbd2b60d8	-0.041840404
76	0xbeaf5a04	-0.34248364
77	0x3daf6dce	0.085658655
78	0x3e7410ca	0.2383453
79	0xbd37fa19	-0.044916246
