model/VAE_model.pth (torch, 839378 bytes, 12 tensors)

encoder.0.weight f4 [60, 40, 3, 3]
000000 54 b5 22 bf cc f6 23 bd be ca ce bd d2 35 a5 bd
       -0.63557935 -0.040030286 -0.10097264 -0.08066906
000010 bd 3f 57 3e 71 c8 16 3e e5 f6 c4 bc 2f a9 27 3e
       0.21020408 0.147249 -0.02404351 0.16373132
000020 73 4f fc 3d e9 e1 01 bf 3e 97 dd bd d8 2f dc bd
       0.12319841 -0.50735337 -0.10819863 -0.10751313
000030 79 48 4a 3d 23 ff 2c 3e d3 98 ee 3d ec 5f 86 3d
       0.04938552 0.16894202 0.11650243 0.065612644
000040 35 b4 35 3e b2 f9 ab 3d 32 4b bc be 8f c6 e7 bd
       0.17744525 0.08397235 -0.3677612 -0.11317169
000050 f7 29 03 be 24 ec 9f 3d 73 46 e2 3d 30 02 4f 3d
       -0.12808977 0.07808712 0.11048593 0.050539196
000060 fd 63 aa 3d 79 ee cd 3d 2f 16 02 3d 58 ef 4a be
       0.083198525 0.10055251 0.031759437 -0.19817865
000070 5e ed d0 bd e0 c1 5f be 41 d5 8a 3d a8 60 6a 3d
       -0.10201524 -0.21851301 0.06778956 0.057221085
000080 a7 01 ed bc 6e 94 b6 3d d6 d5 a5 3d f4 d2 f9 bb
       -0.028931452 0.089150295 0.080974266 -0.0076240245
000090 e7 3b 3d bd af 30 66 be b7 aa 50 be d3 92 ab 3d
       -0.046199705 -0.22479509 -0.20377623 0.08377614
0000a0 cb b4 0d bc 94 0b 7c bd f8 56 8d 3d 21 4b a2 bc
       -0.008649061 -0.06153448 0.069013536 -0.019811215
0000b0 c7 eb b1 bd 6c d9 13 3e 5d e1 52 be e6 da 4b be
       -0.08687549 0.14438409 -0.20593782 -0.19907722
0000c0 95 cb 17 3e 81 93 9a 3c f5 54 5b bc 29 33 62 3d
       0.14823754 0.018869163 -0.013386955 0.05522457
0000d0 ff 01 c9 3b 5c 0a 9b bd 3e b8 80 3c 2b f9 08 be
       0.006134271 -0.07570335 0.015712854 -0.133763
0000e0 f5 27 5b be 16 b7 9e 3d df 5b 39 bd b3 c0 a3 bd
       -0.21401961 0.077497646 -0.04525363 -0.07995739
0000f0 ed 30 d4 3c 39 15 6b bd 67 6b 7a bd 42 5f 14 be
       0.025902236 -0.057393286 -0.061137583 -0.14489463
000100 87 c1 45 ba 42 0f 08 bc 3d 04 95 bb b7 48 cc bc
       -0.00075437914 -0.008304419 -0.0045476244 -0.024937017
000110 01 4a 7d bc c3 ee ef 3b 38 1d 9b bd 6f 70 e3 bd
       -0.015459538 0.007322164 -0.075739324 -0.111054294
000120 0a 2f 6a be ae ec 1c 3d 58 7d cb 3c fe c5 7d bc
       -0.22869506 0.038311653 0.024840042 -0.0154891
000130 00 4a 5b 3d 5d 43 ab ba a8 e7 5a bd ee 44 45 bd
       0.05353737 -0.001306634 -0.05344358 -0.04816144
000140 31 5d d7 bc df 4c 82 be 3f 77 ed 3d d2 f1 e5 3b
       -0.026289554 -0.25449273 0.1159501 0.0070173526
000150 1a 7e 45 bc a5 98 c3 3d 73 4d 10 3e cf d2 bb bd
       -0.012053991 0.09550599 0.14092045 -0.09171068
000160 9e 05 bf 3b aa 14 18 3d c2 2d 9b be 6b 73 15 3d
       0.005829527 0.03712908 -0.30308348 0.036487024
000170 11 a9 43 bc 83 f9 95 3c a6 73 1e 3e 2b 31 e2 3d
       -0.011942164 0.018307453 0.15473804 0.11044534
000180 7d 4d cb bd b7 27 bd bc 67 3c 27 3d f2 7a 8c be
       -0.09926889 -0.023090227 0.04082909 -0.2743755
000190 d5 cd 15 3d 08 94 4e be d8 87 ca bc 0d 53 88 3d
       0.03657325 -0.20173657 -0.024722978 0.06656466
0001a0 13 79 95 3b 0c 44 29 be cc 2c bf bc 50 3d fe bc
       0.0045615523 -0.16529864 -0.02333679 -0.031035095
0001b0 14 ad 24 be 79 0e b3 bc 5a d0 45 be a5 f4 3c 3d
       -0.16081649 -0.021857487 -0.19317761 0.04613175
0001c0 d4 a6 09 3e 94 e8 f6 3c ec 35 c4 bd 62 9a c0 bc
       0.13442546 0.030140199 -0.09580597 -0.023511115
0001d0 64 a0 e9 bd 12 8b ef bd 61 67 83 bd c5 05 2d be
       -0.11407545 -0.116964474 -0.06416202 -0.16896732
0001e0 47 75 61 3d a9 12 6a 3d 51 02 b2 bd ae a5 b4 bd
       0.055043485 0.057146702 -0.08691848 -0.088206634
0001f0 b1 c6 64 bc 99 c1 31 be 7a a0 ac 3d 6b 9c 74 3d
       -0.013963387 -0.17359008 0.08429046 0.059719484
000200 18 5f 22 bd 75 ee 04 bd 5e 81 2c 3d 21 4c 8f bd
       -0.03964147 -0.032453973 0.04211556 -0.06996942
000210 c1 fa 06 be 93 e5 a5 bc f8 d9 91 bd 89 3f 8e 3d
       -0.13181593 -0.020251071 -0.07121652 0.06945712
000220 07 b3 0c bc e9 51 33 3a 9f d6 75 bd 20 03 b5 3d
       -0.008587605 0.00068405137 -0.06001913 0.08838487
000230 fe 4a bd 3c 5f d9 05 be 2d 56 ba 3a ec 45 e1 bd
       0.023107048 -0.13071202 0.0014216356 -0.10999665
000240 fc bd 5d 3d 4e dd 3e bd e8 d0 39 bd 50 c8 ba bd
       0.05413626 -0.04659777 -0.045365244 -0.09120238
000250 20 81 96 39 9e 1a 2a bd 80 07 13 be 07 c9 03 3d
       0.00028706435 -0.04152929 -0.1435833 0.032174136
000260 48 f5 b1 bd 27 34 a1 bc cc bc 8d bd a8 c0 14 bd
       -0.08689362 -0.019678188 -0.06920776 -0.036316544
000270 70 66 86 bd 67 c7 2d bc 0c 35 87 3d 5b a5 d1 bd
       -0.06562507 -0.010606623 0.06601915 -0.10236617
000280 e3 2b 51 3d 1b f4 d7 3c ec 59 e7 bc 9d 26 93 bc
       0.051067244 0.026361516 -0.02824112 -0.017962748
000290 83 25 26 bd 0e 06 c6 3d a3 f9 80 3c e1 a5 cc 3c
       -0.040563118 0.096691236 0.015744036 0.024981441
0002a0 b5 a3 bb bc 83 03 5e bc e0 af 52 3c 8a 3a dc bd
       -0.02290521 -0.013550642 0.012859315 -0.10753353
0002b0 a0 2c 19 3d f5 f1 9f bc c0 8d aa 3d 20 8c 1d 3d
       0.037396073 -0.019524554 0.08327818 0.03846371
0002c0 e5 10 a7 bb f3 67 da 3c 04 fc 9c ba 0d 6f 82 bd
       -0.0050984495 0.026660895 -0.0011976962 -0.063688375
0002d0 4f 55 cf bd a4 00 ac 3c 11 28 a0 3c e0 c1 99 bd
       -0.10123693 0.0209964 0.019550355 -0.07507682
0002e0 b6 86 07 bd 77 f2 8a 3c 4c 60 4c bd 53 82 36 bd
       -0.033087455 0.01696132 -0.049896523 -0.04455788
0002f0 99 0b b4 bd 37 50 84 3d 90 a4 8c 3c 98 f1 29 3d
       -0.087912746 0.06460612 0.017168313 0.041490167
000300 7e 0b 83 bb 29 2d 5e bc d8 08 13 3d 00 c4 64 3d
       -0.0039991727 -0.013560572 0.035897106 0.055850983
000310 a2 27 de 3c 47 54 90 3c 79 48 33 3c 8e 66 f8 3c
       0.027118508 0.017618312 0.010942572 0.03032234
000320 d2 0e 84 bc 04 7a 11 bd c2 38 5b bc f5 fa 5e 3d
       -0.016120348 -0.035516754 -0.013380231 0.05443855
000330 70 f1 ad 3d 77 e1 37 3d 5c 1e c1 bc 5d 10 39 bd
       0.08493316 0.044892754 -0.023574047 -0.04518162
000340 14 31 81 bd 40 2a bc bd d6 cd f7 bc 2b 72 c0 3c
       -0.06308189 -0.09187746 -0.030249517 0.02349194
000350 2d 75 99 3d 5f d9 1a 3d af 19 ab 3d 26 89 94 3b
       0.07493053 0.037804957 0.08354508 0.004532951
000360 5b 14 65 bd 64 48 2d bd cb cd 3e bd 80 48 5a bd
       -0.055927616 -0.042305365 -0.04658298 -0.053291798
000370 fa 43 13 3d 72 f8 0d 3c eb 3b 5e 3d 3f 65 d2 3d
       0.0359535 0.008665191 0.05425636 0.102732174
000380 2b bd 68 3d 3b 17 21 3c 52 1b 52 bd dc d8 ae 3d
       0.05682103 0.009832199 -0.051295586 0.085374564
000390 3e 90 83 bd 21 1a 28 3d ce c6 cf 3c b8 6c 03 3b
       -0.064239964 0.041040543 0.025363352 0.0020053815
0003a0 4c a5 a6 3c 11 8b 4d 3c 03 3c 9f 3d df f0 ad bd
       0.020342492 0.012545363 0.07775118 -0.08493208
0003b0 a4 c3 58 3d 5e 92 57 bc 34 bc a2 3d cc 94 5f bb
       0.052920952 -0.013157455 0.07946053 -0.003411579
0003c0 a1 24 75 bd 9d ba 19 3c 57 e0 c8 3b 45 1b b2 3d
       -0.059849385 0.009382871 0.006130259 0.086966075
0003d0 4b b3 2c be 9c ea a1 3c af 67 09 3d 44 ee 25 3c
       -0.1686527 0.01976519 0.033546146 0.010127608
0003e0 a8 68 11 bb 58 66 ac bd aa bb df bc fb 1b ad bd
       -0.0022187624 -0.08417958 -0.027311165 -0.084526025
0003f0 9d 12 00 3e f1 9b d5 bd 37 9a 17 3d 35 fd 23 3d
       0.125071 -0.10430134 0.037012305 0.0400364

encoder.0.bias f4 [60]
000000 43 ac 11 3e 63 91 d2 bc 2e c7 22 bc 09 bc e5 3d
       0.14225869 -0.025704091 -0.009935183 0.112175055
000010 ed 16 64 3e 66 c2 24 be 46 a2 e0 bd a4 4c 95 bc
       0.2227437 -0.16089782 -0.10968451 -0.018225022
000020 25 ad 0f bd f4 1c fe 3d fe 31 75 3c 24 74 b1 3d
       -0.035077233 0.12407866 0.014965532 0.0866473
000030 a6 4c c3 3d bd 1d 3c 3c 20 b5 03 bd 92 de 8d 3d
       0.09536104 0.0114816995 -0.032155156 0.069272175
000040 24 14 61 3b 09 6e 29 3d 1f a2 b9 3d c9 f5 a4 bd
       0.003434428 0.041364703 0.09064125 -0.08054692
000050 11 e3 39 bc 2e 4b 54 3e 87 cc 0a bd 14 17 41 bd
       -0.011345641 0.20731804 -0.03388646 -0.04714115
000060 37 24 28 3e 03 e4 71 3e 86 68 b1 bc 25 a5 0d 3e
       0.16420065 0.23622136 -0.021656286 0.13832529
000070 4d 89 b4 bc 23 6f 20 bb af f8 65 3c 92 47 f4 3d
       -0.022038126 -0.0024480305 0.014036342 0.119277135
000080 23 a2 bc 3c 8f d0 57 bc 9b ad 8b 3e 23 ac a8 3c
       0.023026532 -0.013172283 0.27280888 0.020589894
000090 8e a9 09 3b 97 13 5e bd dd d2 14 3e bc b3 20 bd
       0.0021005603 -0.0542179 0.14533563 -0.039233908
0000a0 10 d1 c2 3d f1 ab 81 3e 89 bd bd bd 42 06 82 3e
       0.09512532 0.25326493 -0.092646666 0.253954
0000b0 1d 66 0d 3d 97 35 88 3e 28 65 3f 3c 8a 4e 69 3e
       0.03452121 0.26603386 0.011681832 0.22783867
0000c0 0a 30 04 3e 60 0f fd 3d aa fc 17 3e e4 e1 ff bc
       0.1290895 0.12356448 0.14842477 -0.031235643
0000d0 91 6f 70 3d 41 8d 59 3e c9 fd 4b 3e 1e fc 39 3e
       0.058700148 0.2124529 0.1992103 0.18162581
0000e0 cf f0 55 3e b0 3f 45 3e 0b d6 5b 3e b4 d8 3d be
       0.20892642 0.19262576 0.2146837 -0.18539697

encoder.3.weight f4 [32, 60, 3, 3]
000000 f7 bb 74 3d 06 1f bc bc 08 21 97 3c bf 0d c5 3d
       0.05974957 -0.022964012 0.018448368 0.096217625
000010 b0 38 20 bd 17 0c a3 3c c4 65 ad 3d ec ff 93 bd
       -0.03911656 0.019903226 0.08466676 -0.072265476
000020 78 2b 4b bc 50 19 48 3b 28 0d 81 bd 00 ca 58 bd
       -0.0124005005 0.0030532666 -0.063013375 -0.052927017
000030 3c ec 55 bc 6d 03 2f 3c 53 2f d4 bc b5 8a b4 3a
       -0.013056811 0.010681969 -0.025901472 0.0013774248
000040 d4 e0 ca 3c 54 f7 11 3d 41 b8 83 3c bc 1f f8 bc
       0.02476541 0.03563626 0.01607907 -0.03028857
000050 5a 32 38 3d 9c 16 10 3d cf bf 84 bc e0 d4 06 bd
       0.044969894 0.035177812 -0.016204743 -0.032917857
000060 9e b5 03 bc b0 a3 3d 3c 9f 6c f6 3c c4 6f bc bc
       -0.008038906 0.011574671 0.030081091 -0.023002513
000070 86 db a7 bd 2b af 8b bc c7 87 58 3d 53 4c a4 3c
       -0.08196168 -0.0170513 0.052863862 0.020055925
000080 37 13 ea 3c 30 77 f4 bc fa 28 9e bc 5b 96 3e bc
       0.028573615 -0.02984199 -0.019306649 -0.011632527
000090 f3 8e 7a be d4 e3 f6 3c 7a 33 4f bd f9 88 33 be
       -0.24468593 0.030137934 -0.0505862 -0.1753272
0000a0 67 2a 51 3e d0 28 25 3e b1 cc 85 be 15 fe 0b be
       0.20426331 0.1612885 -0.2613273 -0.13671143
0000b0 0d 58 fb 3d b1 57 37 3d df ac e8 bc de 46 13 bc
       0.12272654 0.044761363 -0.028402744 -0.008989064
0000c0 8f 35 85 3c 70 ab 0e 3b 01 a0 b1 bb 2b 5a 0f 3d
       0.01626089 0.0021769665 -0.0054206853 0.0349981
0000d0 9d 05 d5 bc cf 45 aa bc 30 ea 9c 3b 84 26 df bc
       -0.026003653 -0.02078524 0.0047886595 -0.027240045
0000e0 af bf 90 3c ba 55 76 3d 12 e7 57 bd f7 4e e4 bd
       0.017669527 0.06014035 -0.0527106 -0.11147874
0000f0 ce f2 7b 3d 20 fd 61 3d 80 0d 93 bd f2 af 43 3c
       0.061510853 0.05517304 -0.07180309 0.011943804
000100 47 32 8c bc a3 66 cf 3c 64 1a 05 bc 5b be d5 3c
       -0.017113818 0.025317496 -0.008123968 0.026091745
000110 52 2f e0 3b 8e 67 04 bc 13 9b bd 3c e8 1c 0e 3d
       0.0068415785 -0.00808133 0.023145234 0.034695536
000120 b7 8b 97 3c 19 bc fe bc 47 8f bd 3c a7 71 93 bc
       0.018499238 -0.031095551 0.023139609 -0.01799853
000130 a8 45 00 bd e2 a7 11 3d d7 53 a5 3c e7 69 f5 bc
       -0.03131643 0.035560496 0.02018158 -0.029957725
000140 e8 01 b0 3c 2b f6 66 3b 55 13 21 bd 04 95 ad 3a
       0.021485284 0.0035241942 -0.039325077 0.0013243263
000150 d5 ed c7 bd 62 98 66 bd 99 8c 58 bd aa 3c a7 3d
       -0.0976216 -0.056297667 -0.05286846 0.081658676
000160 95 eb 49 3c bf a7 94 3c 41 ad 24 ba ac c6 7a bc
       0.012324234 0.018146394 -0.00062819204 -0.015306156
000170 01 1c dc 3c b9 35 2e 3d c5 8f e9 3c 06 be ab 3c
       0.026868822 0.042531703 0.028510937 0.020964634
000180 6f 63 c0 bb 6a ea b7 bc 85 84 47 bd a6 0d bb 3d
       -0.0058712284 -0.022450645 -0.048710365 0.091334626
000190 4e 72 5f 3d 53 ba 29 bd 28 25 eb 3d c9 59 09 3d
       0.05455237 -0.04143746 0.11481696 0.03353289
0001a0 65 6a c0 3a 6d 08 2f 3d 71 41 b2 3d 05 8f ed 3d
       0.0014680146 0.042732645 0.08703888 0.115995444
0001b0 fa 2a ae bb 70 86 38 3d 36 69 29 3d cb 5b 85 bd
       -0.005315182 0.045050085 0.041360103 -0.06511649
0001c0 8a 1c bf bd 9d d2 0c bd c7 ff 59 bd 36 dc 30 bd
       -0.09331615 -0.034380544 -0.053222444 -0.04317876
0001d0 5c dc 99 bd 7d 53 a7 bc 8c 50 d1 bc ff 64 2b 3c
       -0.07512733 -0.020425553 -0.025551103 0.010461091
0001e0 b5 d5 e6 bb fe 05 9c bc 8a b3 dd 3c 12 bf 27 3d
       -0.007044519 -0.019045826 0.02706315 0.040953703
0001f0 62 0a 5b bb f0 5f 90 3b a7 12 b1 bb 19 c8 fe bb
       -0.0033422937 0.004405968 -0.005403835 -0.0077753183
000200 56 0c 24 bc 0c 27 df bc 4d 6d 03 3d 61 31 e4 3c
       -0.010012707 -0.027240299 0.03208666 0.027855577
000210 80 ee c0 bc 25 8d e8 3a 85 a9 18 3d 46 46 43 3c
       -0.023551226 0.001774226 0.03727104 0.01191861
000220 f8 5d 0f 3d bc 28 b6 bb 3b 37 3b bd 4d 09 cd bc
       0.035001725 -0.005559055 -0.04570697 -0.025028849
000230 1a 57 17 bd 8c 47 dd bb 08 0c 69 3d 80 9b f5 3c
       -0.0369483 -0.006752914 0.05689624 0.029981375
000240 0e ac 7d 3b 73 21 d9 bd 56 50 ce 3d 86 23 e6 bb
       0.003870729 -0.10602083 0.100739166 -0.0070232777
000250 51 e6 81 be e5 78 c9 bb 24 42 75 3d ed 73 93 bd
       -0.2537103 -0.006148445 0.05987753 -0.071998455
000260 b1 e0 b6 bd cb 64 8b bc 99 eb e6 bd 2f 08 8f 3d
       -0.08929575 -0.017015835 -0.112754054 0.06983983
000270 ee e6 b7 3b cd 3b 86 bd 51 24 d1 bd 24 32 af bd
       0.0056122458 -0.06554375 -0.10212005 -0.085544854
000280 42 61 c9 3e e0 42 e6 3d 7b be bd 3d 5f 74 17 3d
       0.39332014 0.11243224 0.09264847 0.036976214
000290 e7 1a 2e bc 48 ab 00 bc ca ed 15 bd 0b 7c 62 bd
       -0.010626531 -0.007853337 -0.036603726 -0.055294078
0002a0 57 c2 ad 3c a7 8c ee 3c e0 dd ed bc 3f 15 90 3c
       0.021210833 0.029119803 -0.029036462 0.017588256
0002b0 e7 63 db bc 05 ab 2e 3d 5e b7 54 3a 02 28 30 3a
       -0.026781036 0.042643566 0.0008114482 0.0006719829
0002c0 1e c9 db b9 12 79 55 bc ac b6 90 bc 8e bb 5d 3b
       -0.0004192078 -0.013029354 -0.01766523 0.0033833715
0002d0 20 f7 35 3d 6f df 01 bc 8c d1 0c 3d 0a 76 2c 3d
       0.04442513 -0.007926806 0.034379527 0.04210476
0002e0 d4 85 8e bc 32 f3 92 3c 8c a0 af bc 35 2b b4 bc
       -0.017397799 0.01793823 -0.02143886 -0.021993259
0002f0 38 80 96 bb b2 cb 40 3d 5d ba f1 3d e3 1b 9c ba
       -0.0045929216 0.04706926 0.11803124 -0.0011910166
000300 87 3a f5 3c 6a a1 ab 3c 43 6f f8 bb d5 30 87 3c
       0.029935135 0.020950992 -0.007581623 0.016502777
000310 7c a9 d3 3d 51 b0 30 3d 83 9d a1 bc 92 d4 2f 3c
       0.10335061 0.0431369 -0.019728428 0.010731833
000320 5f da 2a 3c 0a 35 ea ba 71 06 38 bd bf 41 a4 3b
       0.01042804 -0.001786859 -0.044928018 0.0050127204
000330 f9 2b 07 3c c8 11 9b bd d1 c7 05 bc 9e 44 fe 3b
       0.00825023 -0.07571751 -0.008165316 0.0077596446
000340 d9 31 48 3c f0 8f 1e 3d 63 2f 0b bd 3c 3b 07 ba
       0.012218916 0.03871149 -0.03398074 -0.0005158668
000350 5c 74 c3 bc 73 7b a3 3c 3d e9 19 3d 00 59 e1 3a
       -0.023859195 0.019956326 0.03757595 0.0017192662
000360 64 8f 37 3d 11 cc 01 3c c3 32 7a be b1 41 a3 bd
       0.044814482 0.007922188 -0.24433427 -0.07971514
000370 74 ee 21 3e e9 bf d8 bd 11 5b 1c 3d 5b 85 30 3c
       0.15813619 -0.10583479 0.038172785 0.010773982
000380 36 8b cc bc 4d 5c 18 3d 40 19 48 3c 8a f6 e9 bc
       -0.024968725 0.0371974 0.012213051 -0.028559942
000390 22 22 57 bd 80 1b 09 bd f7 79 69 bc 08 10 64 bd
       -0.052522786 -0.03347349 -0.01425027 -0.05567935
0003a0 fb 62 d8 bd 19 c5 24 bd 0e e0 b5 ba 17 38 4d bd
       -0.10565754 -0.04022703 -0.0013875978 -0.05010232
0003b0 b7 ba f4 3c 0e bf 2a bd 63 ee a7 bd 01 86 ba bc
       0.029874189 -0.04168611 -0.081997655 -0.022768976
0003c0 92 e9 7a 3d 85 6b ed 3c a4 c7 79 bd 55 09 e6 bb
       0.061257906 0.028981933 -0.060981408 -0.0070201554
0003d0 53 49 d1 3d a7 ee 82 bd 4b 2c 8b 3d 1e 8a 07 3d
       0.102190636 -0.063931756 0.067955576 0.033090703
0003e0 e1 8a 0c bd 6f 8f dc bb 09 d6 d1 3c 47 23 38 3d
       -0.034312133 -0.006730966 0.025614755 0.044955518
0003f0 a3 e4 b8 bc 98 4c ff bc d7 1f 30 3d 8b fb 63 3c
       -0.02256996 -0.031164452 0.042999115 0.013914953

encoder.3.bias f4 [32]
000000 fa 69 0f 3e 60 0a 05 bc 5b 7d 04 3e fa 63 e1 bc
       0.1400527 -0.008120149 0.12938444 -0.027513493
000010 54 5f 20 3e 85 12 cb 3d bf 94 26 3e 70 4f 50 bb
       0.15661365 0.09915642 0.1626768 -0.003178563
000020 32 d2 74 3d 9e 73 c3 3d 7f 16 be bc 13 a9 a9 bd
       0.05977077 0.095435366 -0.023204086 -0.082842015
000030 a9 88 76 bd 02 10 26 3e 1d 8c 1c be 17 bd 86 bd
       -0.060188923 0.16217044 -0.15287824 -0.06579035
000040 ba 32 eb 3d 6c f1 2d 3e ac c4 ab 3d b9 e9 ff 3d
       0.11484285 0.16986626 0.083871216 0.12495751
000050 3f a2 85 3d 22 02 15 3e 85 bd e0 3d 2e 8b 3e bd
       0.065250866 0.14551595 0.10973648 -0.04651945
000060 03 40 cd bd 9f 99 23 3e 53 68 64 bd f0 7b 85 bd
       -0.10021975 0.1597657 -0.055763554 -0.0651778
000070 60 62 b3 3c 1b 19 85 3e 4a a9 10 3e 11 86 13 bd
       0.021897495 0.25995716 0.14127079 -0.036016528

encoder.7.weight f4 [60, 1568]
000000 25 bd 78 bd f9 12 17 3c 1f 11 4a 3a 37 5e 3a 3d
       -0.060727257 0.009220832 0.000770824 0.045500007
000010 17 e9 ba 3b 60 b8 12 bd c4 43 f4 bc a2 15 67 3b
       0.005704056 -0.035820365 -0.02981747 0.0035260697
000020 7b 7e 80 3c 24 02 58 bd 75 58 57 3c 88 aa 0a 3d
       0.01568531 -0.052736416 0.013143648 0.033854038
000030 b9 37 61 bc 75 42 d9 bc 4d d4 9b 3a b9 0a 0d 3d
       -0.0137461955 -0.026520947 0.0011888832 0.034434054
000040 68 ef 94 bb 68 c1 68 bc ed c4 c2 bc b4 cb f9 bc
       -0.004545141 -0.014206268 -0.023775542 -0.030492641
000050 43 61 01 bd 17 a2 72 bc 41 ad 4b 3c 4a 91 f8 bc
       -0.031586897 -0.014809153 0.012431444 -0.030342717
000060 8a 8d da 3c 85 8a 2b 3c 1a d5 fb bc 85 0d 04 3d
       0.02667882 0.010470037 -0.030741263 0.032239456
000070 ef 21 84 3d b9 eb 48 bd d2 70 ab bd c4 4a 7e bd
       0.06451785 -0.049052928 -0.08371128 -0.06208302
000080 e7 ab 6f bb 46 a8 e7 bc 85 0d f8 3c 6f bb eb 3b
       -0.0036570968 -0.028278481 0.030279884 0.0071939747
000090 69 ac be bc d8 c1 9e bc 5f 1f 9f 3c 8c 62 1f 3d
       -0.023275571 -0.019379541 0.019424139 0.03891234
0000a0 e1 4f 8a bc 56 b9 31 bd 34 fb 9e bd 04 7e 39 bc
       -0.016883792 -0.04338964 -0.07762757 -0.011321548
0000b0 53 57 ea 3c 61 67 15 bc c6 3c 59 3c ec 85 05 3c
       0.028606093 -0.009118886 0.013259118 0.008149605
0000c0 79 ec 9a bd 18 f2 1b 3c c5 ef 1b bc cb ce a1 bc
       -0.07564635 0.009518169 -0.009517615 -0.019751927
0000d0 50 0f 3a bc 71 85 5c 3c fc 66 dd bc cc c4 17 bc
       -0.01135619 0.013459549 -0.027026646 -0.009263229
0000e0 60 29 e8 3a 45 9b d6 bb a0 a3 0b 3c 17 eb 86 bc
       0.0017712526 -0.0065492713 0.008522898 -0.016469521
0000f0 56 25 89 3c eb dc 39 3c 17 bc 41 3c fd bd a3 3c
       0.016741436 0.011344175 0.011824629 0.019988054
000100 d3 ec 7a 3c 02 d5 51 bc c6 c2 85 3c 8b ed 90 ba
       0.015315252 -0.012807133 0.016328227 -0.0011057121
000110 77 cf e3 bb 1a 8c 13 3c d3 f0 ea bc 3c ba a0 bc
       -0.006952222 0.009005571 -0.028679287 -0.019620053
000120 5f ef 8f bb cf 6f 9e bb 57 dc 90 3c ac 91 b6 bb
       -0.004392549 -0.004835106 0.017683191 -0.0055715647
000130 08 98 78 3c 23 8f ca ba 1d e2 39 3c 36 22 b3 bc
       0.015172966 -0.0015454035 0.0113454135 -0.021866899
000140 f2 fc 07 bb 67 bc d0 bc 4a f2 4a bc 2e 43 c9 39
       -0.0020750132 -0.025480462 -0.012386868 0.0003838776
000150 b7 43 a4 3c 80 08 ae 3b e2 b9 84 ba 50 d3 16 3c
       0.02005182 0.005311072 -0.0010126198 0.009205654
000160 e9 0b 9c 3c 9f 12 20 3c 12 93 5e b9 e1 52 99 3a
       0.019048648 0.009770065 -0.00021226358 0.0011697673
000170 c3 09 8c 3c d5 84 88 bc cf 56 dc bc 6c 91 6d 3c
       0.017094499 -0.016664902 -0.026896862 0.014500003
000180 79 a0 b0 bc fb 12 be bc f7 3c d4 bc 27 0b c6 ba
       -0.021560894 -0.02320241 -0.025907977 -0.0015109525
000190 0e 54 c5 bc c5 1b 39 bd d9 f7 5a 3c 7c 24 8c ba
       -0.024087932 -0.0451925 0.013364756 -0.0010692026
0001a0 cc 49 22 bd 4b 2e 8c bc 9c ff 03 3c c2 79 4f bd
       -0.03962116 -0.017111918 0.0080565475 -0.050653227
0001b0 5b c5 3a bd c8 bf 10 bc 89 bf 13 3d 88 cf 94 bd
       -0.04559837 -0.008834787 0.036071334 -0.07266146
0001c0 a7 85 51 bd ad 37 5b bc 68 f5 78 bc 93 0c fe 3b
       -0.05115285 -0.013379973 -0.015195228 0.007752964
0001d0 a7 bc 83 bb b1 9e d3 bb 52 a0 65 bd ed 62 23 bd
       -0.004020292 -0.0064581265 -0.056061096 -0.039889265
0001e0 9a 17 81 bd 1c 9d 27 3d ed e2 bd 3b 74 65 3b 3d
       -0.0630333 0.040921316 0.005794874 0.04575105
0001f0 c7 be 0e bd b6 52 f5 bb bd fa 29 bc 7e ef 99 bd
       -0.03484991 -0.0074866666 -0.010374722 -0.07516383
000200 8b 3a 23 bd 8c a5 ca 3b 71 35 9e bc a7 44 07 bd
       -0.039850753 0.0061842855 -0.019312592 -0.033024456
000210 ca 78 d7 bc 20 73 09 bd f3 e1 7e bd ad ef d4 bc
       -0.026302714 -0.033557057 -0.0622272 -0.025993193
000220 73 0e 27 bb dc c9 75 bc c1 49 bd bc cf ec 7f bd
       -0.002549079 -0.01500174 -0.023106458 -0.062481698
000230 df 32 84 bd ff ae a8 3c 92 96 03 3c 3f dc ad 3c
       -0.064550154 0.020591257 0.008031504 0.021223186
000240 2f c7 5a 3c 4f 85 af bc 46 b5 a5 bc c5 20 0e 3c
       0.013353153 -0.021425871 -0.02022804 0.008674805
000250 83 77 e7 3b 3c 66 94 3c 6d 78 80 bc 1a a6 69 bb
       0.0070638075 0.018115155 -0.015682423 -0.0035651983
000260 e8 a6 00 bd ec ea 17 3a d7 72 4f bc 5d cf d8 3c
       -0.031409174 0.0005795199 -0.012661657 0.026466066
000270 8a ee 58 3c 40 9e d0 bc a1 08 17 3c e7 04 c6 bc
       0.013240466 -0.025466084 0.009218366 -0.02417226
000280 9d 4f 10 3b 88 c1 4a 3c 02 ff 98 bc 26 31 ea bb
       0.002202011 0.012375243 -0.018676285 -0.007146972
000290 1a bf 35 bc c1 f8 ec bb f9 a5 96 3b e9 0a cd 3b
       -0.011092925 -0.007231802 0.004597422 0.006257404
0002a0 2f ed 05 3b 15 8e 5e 3c ca e4 ab 3c 9b a7 b2 3c
       0.0020435562 0.01358368 0.020983119 0.021808436
0002b0 eb 9d c9 3c 19 fe 6f 3c 9d ed 6a 3c 96 32 86 bc
       0.024611434 0.014647984 0.014338878 -0.016381543
0002c0 0c 32 5d 3c e7 4d 3c bc 52 ba fb 3c cd 0b 94 bc
       0.013500702 -0.011493183 0.030728493 -0.018072033
0002d0 33 c7 8e bb a7 b7 20 3c 8e 81 5a 3c ca 2c c4 3c
       -0.0043572425 0.009809411 0.013336552 0.023947138
0002e0 a8 f7 34 3b 62 0a 35 3c 90 0c aa b9 f8 29 9a 3b
       0.0027613435 0.011049839 -0.00032434287 0.00470471
0002f0 a0 55 73 bc 2a 39 b8 bb 44 c5 1b 3c c9 03 54 3c
       -0.014851958 -0.005622049 0.009507481 0.012940356
000300 76 7c e4 3c ec 0b b3 3c e7 bd 12 bb 06 47 86 bb
       0.027891379 0.02185627 -0.0022391023 -0.004097822
000310 60 3a a7 3c 5a 03 51 bd 93 03 80 bd 7d f2 b6 bd
       0.020413578 -0.051028587 -0.06250682 -0.0893297
000320 7b fb 64 bd d8 f3 54 bd 38 48 74 bc d0 91 1b be
       -0.055903893 -0.05199036 -0.014909796 -0.15192342
000330 5d 83 f4 3c 16 7b 1d bc 77 94 c0 bc 0a c2 8f bd
       0.029847795 -0.0096118655 -0.023508294 -0.07019432
000340 b6 9a a6 bd ce a8 af bc 4b cd fc bd 02 f2 95 bd
       -0.081349775 -0.021442797 -0.12343844 -0.0732155
000350 aa b8 c8 bd 22 ec 2a bd 9f 1f 13 bc cb c7 49 3d
       -0.09800847 -0.0417291 -0.008979707 0.049262803
000360 0c 9a 3a bb 9a 30 9c bd 15 60 a6 bd 41 a7 1e be
       -0.0028473167 -0.076264575 -0.08123795 -0.1549349
000370 ce 99 75 bc 3a 94 1d bc ed e9 c7 ba b3 17 8f bd
       -0.014990283 -0.0096178595 -0.001525221 -0.06986942
000380 f3 1a 4b 3b 30 09 0a bd 53 45 a4 bc cf b2 38 3d
       0.0030991405 -0.033700168 -0.020052588 0.0450924
000390 fc 05 14 bd 5d 1e 9f ba 33 17 3b 3d 30 cb dd bc
       -0.03613852 -0.0012139786 0.04567642 -0.027074426
0003a0 77 81 d7 3b 7a e3 17 be 7e 6d c5 bd 6a f7 8c 3d
       0.0065767127 -0.14832869 -0.096400246 0.06883128
0003b0 e8 a2 70 bd 8c 78 3d bd be 82 e0 bd f1 1c 67 bd
       -0.05874911 -0.04625754 -0.10962437 -0.056424085
0003c0 6e 71 a3 bc ea 42 ba bd 82 12 09 be f5 f9 73 3d
       -0.019951548 -0.09094794 -0.13385966 0.05956455
0003d0 6d e9 66 bd c1 e8 c9 3c ae b9 51 bd 98 eb d7 3a
       -0.056374956 0.024647119 -0.05120247 0.0016473411
0003e0 4a 72 40 bc 7a 6d 35 bd 0b be a2 bd 2d 90 8d bc
       -0.011745999 -0.044293858 -0.07946404 -0.017280662
0003f0 2e 2d c6 3c 67 b3 78 be 1c f6 61 3d 52 ed 74 bc
       0.024191465 -0.24287187 0.05516635 -0.01494916

encoder.7.bias f4 [60]
000000 10 69 88 be fe 8b 85 bd 67 b9 bf bd f3 c9 c6 bd
       -0.26642656 -0.06520842 -0.093615346 -0.097064875
000010 4f 0a 14 3e e7 ff dd 3d 35 20 40 bd 46 e4 17 be
       0.14457057 0.10839825 -0.046905715 -0.14833173
000020 0a 4c da bd 00 18 0b 3e 9a 7c 2a be 58 dc 71 3e
       -0.106590346 0.13583374 -0.16649094 0.2361921
000030 c7 3c 99 3d ab cc 71 3e 41 e2 1c 3e 40 1e 12 3e
       0.074822955 0.23613231 0.15320684 0.14269352
000040 50 e1 9c bd 17 0a 6c be e5 fe d4 bd 89 60 1a 3e
       -0.076601624 -0.23050724 -0.1040018 0.15075888
000050 17 30 bb 3d 8b 81 3d bd 62 3e 49 3e 07 44 c2 bd
       0.09140032 -0.04626612 0.19652703 -0.094856314
000060 37 5f a5 3d 35 3f f2 3d 3c 4a 6a bd 46 78 f9 bd
       0.080748014 0.11828462 -0.0571997 -0.121811435
000070 13 de b2 3b 32 22 3c 3e e7 24 9a be cd db 79 be
       0.005458602 0.1837242 -0.3010628 -0.24400254
000080 d7 84 63 be 38 5e 4e be a9 73 70 be bf 98 7c be
       -0.22218643 -0.20153129 -0.23481621 -0.24667643
000090 63 f9 84 be 0e b5 74 be 5f 3d 72 be 58 38 6a be
       -0.25971517 -0.23897192 -0.23656224 -0.22873056
0000a0 f9 ff 85 be 17 16 86 be 8d a7 5f be c6 3d 91 be
       -0.26171854 -0.26188728 -0.2184126 -0.28367442
0000b0 b9 cb 7d be 66 74 8f be d8 05 66 be 30 b7 a6 be
       -0.24784745 -0.28018492 -0.22463167 -0.32561636
0000c0 14 19 41 be 3a 64 8a be 5d 4e 58 be 8e 7d 7f be
       -0.18857223 -0.27029592 -0.21123643 -0.24950239
0000d0 0e 6a 54 be ab 66 6c be 3f fe 60 be 1b 4f 5e be
       -0.20743582 -0.2308604 -0.21971987 -0.21709864
0000e0 79 5c 88 be 4e c4 71 be 76 1f 81 be 49 68 83 be
       -0.2663305 -0.2361004 -0.25219315 -0.256655

decoder.0.weight f4 [1568, 30]
000000 54 d7 81 be eb 5e 97 be a7 39 39 3e 91 a9 97 bd
       -0.25359595 -0.29564604 0.18088399 -0.07405389
000010 d0 c8 03 be 55 43 86 3e eb 54 37 3e 18 f0 d6 3d
       -0.12869573 0.26223245 0.17903487 0.10495013
000020 69 1e db be d1 10 d9 bd be d8 4e 3e 3c 60 50 be
       -0.4279664 -0.105989106 0.20199868 -0.2034921
000030 27 67 6a bd 6c d5 26 3e bf ee a6 3e bf da 71 bd
       -0.05722728 0.16292351 0.32604024 -0.059046503
000040 63 19 6c bd db d2 4a be 66 06 ec 3d 60 cc 6c 3e
       -0.0576414 -0.19806997 0.11524658 0.23124838
000050 7a f1 fe 3d 74 d4 14 bf 1b a7 3f 3e 63 4c d1 3e
       0.12448402 -0.5813668 0.1871609 0.4087859
000060 37 c6 f9 3d f9 78 8b be 7f e0 52 be 5b a9 d4 bd
       0.121960096 -0.27240732 -0.20593451 -0.103838645
000070 30 e8 b5 bd a9 c1 ea 3d ca a0 22 3e 8e 92 1a be
       -0.08882177 0.11462719 0.15881649 -0.15094969
000080 84 c2 22 bd f5 6f bf bd fe 52 b5 3b e9 1e 4f 3e
       -0.039736286 -0.09347526 0.005533575 0.20226635
000090 d7 9f 00 be 9d 83 01 3e 5d b8 12 3d 60 86 47 be
       -0.12560974 0.12647863 0.035820354 -0.19484854
0000a0 8e 6f f2 3d 38 5e 73 3e 6d f4 30 bc 71 d7 80 3e
       0.118376836 0.2376641 -0.010800463 0.2516437
0000b0 29 84 79 3c 0c ae 47 3e af 70 a0 3c 87 3d d1 3d
       0.015229263 0.19499987 0.019584982 0.102168135
0000c0 f0 ae 6d 3d 2b 50 32 3e aa 37 5f 3e 59 5b 23 3d
       0.05802816 0.17413394 0.21798578 0.039882038
0000d0 3b ad 87 3d 45 be de 3d 8e 22 0e 3e 4e 40 79 3d
       0.06624838 0.10876135 0.13880369 0.06085234
0000e0 2c 6b fa bd 12 74 1d be a1 7c b5 bb bc 5f dd bd
       -0.12227473 -0.15376309 -0.0055385386 -0.108092755
0000f0 48 d7 18 be 2c d3 80 bd cf f1 39 be ae 0c 10 3e
       -0.14925873 -0.06290278 -0.18158649 0.14067337
000100 f3 35 4e be b1 76 5b 3d 20 0f 35 be 6b bc c4 3d
       -0.20137767 0.05357999 -0.17681551 0.096062504
000110 e6 f6 2c be 67 e7 17 3e ef 77 aa bc c4 a6 b8 be
       -0.1689106 0.14834367 -0.020809142 -0.36064732
000120 80 03 19 3e 3c cb 8a 3c e3 e9 08 be f4 ab b8 be
       0.14942741 0.016942613 -0.1337047 -0.3606869
000130 62 dd b6 3d 7b 97 19 3d c9 04 67 bd 8d 78 f5 3c
       0.08928944 0.03749798 -0.056401048 0.02996471
000140 e6 10 e6 3c de 1d 3b 3e ad cb 57 be 15 ef a0 3e
       0.02808423 0.18273112 -0.2107379 0.31432405
000150 7a 2b 4e be 27 54 ea 3d 0a 8c c7 bd 87 03 49 bd
       -0.20133772 0.11441832 -0.09743507 -0.04907563
000160 d2 da 42 be 58 cd 15 bd e8 45 ef be f6 17 78 3e
       -0.19028786 -0.036572784 -0.46733022 0.2422789
000170 4e 71 66 3e 64 47 05 3e 1b 0d 8c bc a7 b1 f0 3e
       0.2250416 0.13015515 -0.017096093 0.47010538
000180 d9 56 87 3d df e8 66 3e 90 8a 75 be e9 7b 11 bd
       0.06608362 0.22549771 -0.23978639 -0.03551856
000190 47 64 cc 3e a0 81 63 3e cf 9c 84 be da 65 03 3e
       0.39920256 0.22217417 -0.25900885 0.12831822
0001a0 f7 eb bf bd b8 f2 83 3e 75 71 ee 3d 04 71 e0 3d
       -0.093711786 0.25771117 0.11642734 0.10959056
0001b0 bc df 7f 3e 44 47 7d 3e f3 ca 23 be 83 a6 50 be
       0.24987692 0.24734217 -0.15995388 -0.20376019
0001c0 aa 00 92 3b ec 86 12 bf 8c 76 08 3e 9b 88 fe 3c
       0.0044556456 -0.57237124 0.13326472 0.031070998
0001d0 b1 b2 a0 3e c7 bc 09 be 69 32 f6 3e b7 8b ef bd
       0.3138633 -0.13450919 0.48085335 -0.1169657
0001e0 7d 20 52 3e 25 68 68 bd 26 d6 2f 3d ea b9 ad bd
       0.20520206 -0.056739945 0.042928837 -0.08482726
0001f0 e2 8f 12 be c5 b5 5c be a8 f4 cf 3d 9f b3 f6 bb
       -0.143127 -0.21553715 0.10154086 -0.0075287367
000200 2b 57 8c 3e 1c b7 90 be cc f7 32 be c6 07 b1 3d
       0.27410254 -0.282647 -0.1747734 0.08644061
000210 47 10 8d 3d 05 e6 15 be 89 19 b8 bd b8 84 0f 3d
       0.0688787 -0.14638527 -0.089892454 0.03503868
000220 7c a5 28 3d 3a 84 26 be 14 e8 14 ba 17 b1 19 bd
       0.041173443 -0.16261378 -0.0005680334 -0.0375224
000230 87 83 06 be 1b 12 06 bd c0 65 84 be 63 48 bc bd
       -0.13136111 -0.03273211 -0.2585888 -0.09193494
000240 f3 ce f9 bd e1 71 40 bd 2e 13 8c bd 8f ff 64 bd
       -0.121976756 -0.046983603 -0.06839596 -0.055907782
000250 99 49 97 3c 3f 43 bb bd dd 72 38 3e 7a 18 cd 3d
       0.018467711 -0.091436855 0.18012567 0.10014434
000260 1b c2 f4 bc a0 2e fb 3a 5c 52 b7 3d 8e 59 90 be
       -0.029877713 0.0019163676 0.08951256 -0.28193325
000270 55 e3 84 bd 82 d9 4c 3b 35 c2 dc 3d 02 29 14 3e
       -0.06488673 0.0031257574 0.107792296 0.14468768
000280 dd 3a c2 bd 48 1f 3c be f5 3b 15 3e 85 1f 6d 3e
       -0.094838835 -0.18371308 0.14573653 0.23156555
000290 73 1a b9 bd e8 cd 92 3c 8b aa 66 3d 01 5f 2c be
       -0.09038248 0.01792045 0.056314986 -0.16833116
0002a0 ed b7 92 3d 6f 09 80 bd 04 19 94 3d dc 03 e7 bc
       0.07163987 -0.06251799 0.07231334 -0.028200082
0002b0 82 26 a9 3d 7b f9 ac 3d 63 e8 6f 3c 29 1b 10 bd
       0.08259298 0.08446022 0.014642808 -0.035182152
0002c0 c1 d5 7e be a6 15 a5 bd e9 6b b8 3c fe a3 6c bd
       -0.24886228 -0.0806077 0.022512393 -0.057773583
0002d0 b3 5a 4d be 17 37 e5 3c e9 7a 01 3e 22 01 98 be
       -0.2005413 0.02798037 0.12644543 -0.29688364
0002e0 c6 59 28 3c c7 c1 43 bc e9 04 b0 be ea 85 f2 be
       0.01027531 -0.011948056 -0.34378746 -0.47367793
0002f0 e7 7c 9e be 9f 4c f5 bd 15 b3 ed be 7c 05 c9 3e
       -0.30954668 -0.11977505 -0.4642569 0.39261997
000300 95 0d 89 3e 52 4f f5 3e ad d4 a6 3d 58 ec d1 3e
       0.26768175 0.4791208 0.081460334 0.41000628
000310 68 fa 83 be 8d 3c 0a bf e9 d1 2e bd 80 83 2a 3f
       -0.25776982 -0.53998643 -0.042680655 0.66606903
000320 69 b3 e6 3e 73 f2 14 bf 98 7d ea bd fa e3 8d bd
       0.45058754 -0.5818245 -0.11449736 -0.06928249
000330 f4 7d 1b 3f b8 a1 01 bd f6 14 02 bf df 5f 02 3d
       0.60739064 -0.031648368 -0.50813234 0.03182971
000340 eb e9 da be 91 4c 37 3d 78 fe bc bc 51 c2 90 be
       -0.4275659 0.044750754 -0.023070559 -0.28273252
000350 b4 0b 29 be fd 2b 33 be b7 87 19 3e ff 66 e0 3e
       -0.1650837 -0.17497249 0.14993177 0.4382858
000360 af d3 b2 3e 94 64 ae bc d3 38 74 be 79 ff 1f bd
       0.34927127 -0.021288194 -0.23849802 -0.039061997
000370 c0 56 07 be 3c da 55 3e 85 3f 0d be e0 71 3b 3e
       -0.13216686 0.20884031 -0.13793762 0.18305159
000380 5c 34 c6 3e fe b7 ac bd 9b 86 29 3d 66 ea 11 be
       0.38711822 -0.08433531 0.041388135 -0.14249572
000390 5e bd 45 be b1 2a df 3d 52 9b f4 3d 72 2a 2f be
       -0.19310519 0.108968146 0.119436875 -0.17106035
0003a0 b6 db 6a 3e 19 ae ed bd c4 95 fd bd 1c aa 38 3d
       0.22935376 -0.11605472 -0.12382081 0.045084104
0003b0 09 39 6a bd 73 61 9e 3c 6d 8c b8 be ce 49 5c 3e
       -0.0571833 0.019333577 -0.36044636 0.21512529
0003c0 29 95 18 3d 21 01 6f 3c 87 7f 28 be 0d 13 93 bd
       0.037251625 0.0145876715 -0.16454898 -0.07181368
0003d0 d5 f7 1b 3e 90 d1 75 3e 17 34 a2 be 6e 09 81 3d
       0.15231259 0.24005723 -0.31680366 0.06300627
0003e0 09 82 ca ba 8f e0 a1 3b 39 3b ac be ba 1a 20 3c
       -0.001545013 0.0049400995 -0.33638933 0.009771997
0003f0 1f 8b 3d 3e df 5d 90 3e a9 4a 6a 3d 72 c0 9c 3e
       0.18510102 0.28196618 0.057200108 0.30615574

decoder.0.bias f4 [1568]
000000 3a f5 93 3d 72 67 c9 bc f3 7a ab be 08 77 05 bf
       0.07224508 -0.02458546 -0.3349224 -0.5213475
000010 7f a8 cf bc 11 9b 3a be a0 fb 71 3f 1e 7d 30 3e
       -0.0253489 -0.18223216 0.94524574 0.17235228
000020 b3 b7 e4 3e ed 5b 22 bb 4a e9 aa bc 0a f3 7e be
       0.446714 -0.002477403 -0.020863194 -0.248974
000030 1c 5e da bc b2 f3 2a 3f 10 6d c5 3e e2 1d b6 3d
       -0.026656203 0.667781 0.3855977 0.088924184
000040 43 b7 ab 3e d0 b1 66 bd fd 65 4e 3e 24 e4 2b 3d
       0.33538255 -0.05632192 0.20156093 0.04196562
000050 1c 5e 03 3f f9 27 f2 3d 70 a3 98 be ee cd 4e bc
       0.51315475 0.118240304 -0.29812193 -0.01262234
000060 a2 1b 57 3d 2a 77 b5 bd 98 f0 06 bf f6 8c 95 3e
       0.052516587 -0.08860619 -0.52710867 0.29209107
000070 e7 5d 33 3e d8 62 17 3e 6b ac b9 3e 08 7c c3 bd
       0.1751629 0.147838 0.36264357 -0.095451415
000080 1b b4 f8 3d 41 20 dd 3e ee 7d ea 3d b6 45 07 3f
       0.121437274 0.4318867 0.114498004 0.52840745
000090 08 f9 bd 3e ac 23 1e 3d 71 4a 5f 3e ed ac de 3e
       0.37104058 0.038608238 0.21805741 0.43491307
0000a0 79 d8 07 3d c0 ce 2e 3f 96 32 a7 3f 1a f7 13 be
       0.03316543 0.68284225 1.3062313 -0.1444973
0000b0 02 cb 79 3e cf 89 d9 3e 9f 60 80 3e 68 27 04 bf
       0.24393848 0.42487952 0.25073716 -0.5162263
0000c0 5c d2 c2 3e 64 9a 7a 3f 91 39 8b 3f 27 a3 7a 3f
       0.38051116 0.9789183 1.0876943 0.979052
0000d0 ad dc 71 3f 78 14 2c 3f 43 b4 5c 3f d8 36 2c 3e
       0.9447735 0.6721873 0.8621256 0.16817796
0000e0 0f e2 d4 3e 07 94 32 3e 60 3b 3a 3f fb 69 09 3e
       0.4157872 0.1743928 0.7274685 0.13419335
0000f0 ea 78 50 bd 9c c1 2b be d5 88 1d be 15 42 c0 3e
       -0.050896563 -0.16773075 -0.15384229 0.37550417
000100 28 1a a7 3e 9c b2 2c 3f f4 72 d7 3e 42 ec 14 3d
       0.32637143 0.67460036 0.4207989 0.036358126
000110 8e c6 d0 be 13 07 f0 be b2 81 84 3d 55 d2 c8 3e
       -0.40776485 -0.46880397 0.0647005 0.3922297
000120 dc 77 8d 3e 6f fa a0 3e 05 43 25 3e 16 c0 85 3e
       0.27630508 0.31441066 0.16138847 0.26123112
000130 a1 67 ca be e7 a0 55 3d 4b 9c 03 3e 44 2b cf 3e
       -0.39532188 0.0521554 0.1285259 0.40462697
000140 cd 80 1e be b8 10 aa 3e de b5 bb 3e 2b 0a 63 3e
       -0.15478821 0.3321588 0.3666219 0.22171848
000150 e6 5b b8 3e 5b 83 e6 bd d9 59 94 be 5b 59 55 3e
       0.36007613 -0.11255523 -0.28974798 0.20834868
000160 5c b3 63 bc 43 1a 24 3f 3b 90 66 bd b0 75 87 3f
       -0.013897743 0.6410257 -0.056289893 1.058279
000170 bf 98 ab bb f4 39 4b 3e d8 46 ae 3d e7 c5 9e 3d
       -0.0052367146 0.19846326 0.08509606 0.077525906
000180 7e 36 44 be d0 21 1a be db 19 a1 3f 16 53 54 3e
       -0.19161412 -0.15051961 1.2586015 0.2073482
000190 98 ec 54 be 19 b8 d1 be 45 33 44 3e de 58 fb 3e
       -0.20793378 -0.40960768 0.19160183 0.49091238
0001a0 0d e6 88 bd 5c 6a 7f 3f 06 aa f4 3d 6a 25 68 bd
       -0.06684504 0.99771667 0.11946492 -0.056676306
0001b0 f2 61 da be c8 ee a8 3d d4 29 2f be a8 cf ff 3d
       -0.4265285 0.08248669 -0.171058 0.12490779
0001c0 6c bd a8 3f 07 b2 e6 3d 2b 14 7d 3e 46 2e ae bd
       1.3182807 0.11264425 0.24714725 -0.0850492
0001d0 c3 2c 90 be 18 24 c4 3e 7e 0b 83 3d 19 16 5b 3f
       -0.2815915 0.38308787 0.06398676 0.85580593
0001e0 13 08 26 be 8b e2 a5 be 40 e7 61 3e 28 c7 a0 be
       -0.16214018 -0.323994 0.22060871 -0.31401944
0001f0 2c 12 1d bf 3b 95 02 bf 49 89 80 3f cc c2 50 bf
       -0.61355853 -0.5100896 1.0041896 -0.81547236
000200 00 76 7b be 75 87 f9 3d 11 b6 28 3e b3 c4 57 bc
       -0.24556732 0.121840395 0.16475703 -0.013169455
000210 ff 60 63 3e 3e 0c 27 3f 54 67 59 be 26 b8 57 bf
       0.2220497 0.65253055 -0.21230823 -0.84265363
000220 47 82 f2 be 96 36 b2 bd b8 54 5a bd 62 19 7f 3e
       -0.4736502 -0.08701818 -0.05330345 0.24912027
000230 6d 7b 4c 3f c9 ec be 3b 69 fa ed 3d 6d a6 6b be
       0.7987583 0.005826567 0.116200276 -0.23012705
000240 e2 d9 a9 3e de aa 03 3f 2e d5 7b 3e 1a 2d 16 3f
       0.33174044 0.514326 0.2459304 0.5866257
000250 05 c9 6c 3f f0 c7 80 3e 16 28 32 3f bd 8d 34 bd
       0.9249423 0.2515254 0.69592416 -0.044080485
000260 b6 f0 39 3f 8f 6d bd 3f 03 cc 71 be 89 79 17 3f
       0.7263292 1.479906 -0.2361298 0.5916982
000270 a2 31 80 bf 84 c1 26 3f 42 c1 b1 3e 1c 29 38 3f
       -1.0015147 0.6513903 0.34717757 0.7193773
000280 86 01 1c 3f cc c9 53 be 51 58 57 3e 67 90 10 3f
       0.60939825 -0.20682448 0.21029784 0.5647034
000290 fc 7c 5d 3e 99 4f f4 3e 80 14 b4 bd 13 04 a1 3e
       0.21629709 0.47716978 -0.087929726 0.3144842
0002a0 e9 15 7a bd 30 9b 2c 3e da bc 17 3f d9 f1 0e 3e
       -0.06105605 0.16856074 0.5927254 0.13959445
0002b0 1a 53 29 3f 4a 86 2a 3f 13 e9 0f 3f 65 d9 90 be
       0.6614243 0.6661116 0.5621502 -0.2829086
0002c0 ce c7 01 bf de 6c b6 3e 6a 78 01 3f aa 90 4b 3f
       -0.506955 0.35629934 0.5057436 0.79517615
0002d0 56 6b 2e 3f 27 8d 1f 3f d4 4e b2 be fd fc c5 3e
       0.6813253 0.62324756 -0.34825766 0.38669577
0002e0 75 b8 12 3f 18 cb c3 be 9a fc c2 3e 90 41 48 3f
       0.5731271 -0.38240886 0.38083345 0.7822504
0002f0 c6 8b 25 3d 56 0b d6 3d 83 66 b3 3e c1 02 a7 be
       0.0404165 0.10451381 0.35039148 -0.3261929
000300 ed f0 f2 bd 0d 92 ee 3d f7 a5 d3 3e 94 06 bf 3e
       -0.11862359 0.11648951 0.4133756 0.37309706
000310 41 7e d3 3f 55 b9 20 3f 25 97 9f 3f 15 0a 9f 3f
       1.6522905 0.62782794 1.2468001 1.2424952
000320 d2 b9 8e 3f 5d dd 47 3f 6e f8 7a 3f 16 71 80 3f
       1.1150458 0.7807215 0.98035324 1.0034511
000330 78 6a 8c be fa 62 e2 be c6 ff 9a 3e 73 4c b0 3e
       -0.2742498 -0.44216138 0.30273265 0.34433326
000340 d2 c8 05 3e 28 bb 0a 3e 03 c0 7f 3f e9 77 8a be
       0.13064888 0.13547957 0.9990236 -0.2704461
000350 6f cb 11 be 3f 21 4b 3e 7e 97 a0 be 63 f0 c6 bc
       -0.1423776 0.19836901 -0.3136558 -0.024284547
000360 07 70 ff bd 49 ec 7f 3f a1 bc 39 be e9 44 34 bf
       -0.124725394 0.9996992 -0.18138362 -0.7041765
000370 43 c8 a0 be b0 ae 40 be 7a 45 b6 3d 03 81 0b 3e
       -0.31402788 -0.18816638 0.0889997 0.13623433
000380 81 8f 7d 3f 27 10 0e bf 55 e3 e4 bd 33 0a 1b be
       0.99047095 -0.55493397 -0.11176173 -0.1514061
000390 e2 aa 10 bf 24 8c ce bd 07 3a 93 3e 2e 39 7e 3f
       -0.56510746 -0.100853235 0.2875521 0.99306
0003a0 24 1b 98 bd 92 e9 3f bf 23 21 ba be e8 6b 05 bf
       -0.07427052 -0.74965775 -0.36353406 -0.52117777
0003b0 62 b9 14 bf 17 df 12 be 6e a9 5b 3f 48 53 2f bc
       -0.5809537 -0.14342915 0.85805404 -0.010701008
0003c0 8b 70 dd bd a7 b0 65 3e ab fa 7c 3e 21 57 43 be
       -0.108124815 0.22430669 0.24704997 -0.19076206
0003d0 fa c0 14 be be 4b 08 bf 2c e6 92 3d af db 88 be
       -0.1452674 -0.53240573 0.07172808 -0.26730105
0003e0 ea 70 e4 3d 7b d8 07 3e b8 9e d1 be a7 d2 36 3f
       0.11154349 0.13266174 -0.40941405 0.7141518
0003f0 8e ee 5c 3e e9 14 7f be ea a3 54 3d 04 b0 a0 be
       0.21575376 -0.2491032 0.051914133 -0.3138429

decoder.3.weight f4 [32, 60, 3, 3]
000000 79 10 93 3e a5 b4 09 be 39 5a 75 be c2 a7 e9 ba
       0.28723505 -0.13447817 -0.23960198 -0.0017826485
000010 ce b9 0d bd b0 12 67 bd 6a 45 df bc 93 1c 10 bd
       -0.034601025 -0.056414306 -0.027254779 -0.0351835
000020 14 0d 7f 3d 8f 3b b6 3d 1a a1 9c 3d 40 b8 70 3d
       0.06226833 0.08898079 0.07647915 0.058769464
000030 5c b8 5d 3e 6e 4a 36 3e 79 07 67 3d b4 44 21 3e
       0.21652359 0.1780183 0.05640361 0.15748864
000040 db cc d5 3d 0c 00 e0 3d 36 2c 20 bd a9 7c 76 bd
       0.10439464 0.10937509 -0.039104663 -0.06017748
000050 26 ef 79 bc 63 a9 3d bd 3b 63 08 bd aa 4a 5b 3b
       -0.015254771 -0.046304118 -0.03329776 0.0033461251
000060 74 bf fe 3c 63 d6 48 bc c9 ad e0 3c 13 90 52 bd
       0.031097151 -0.012258145 0.027426617 -0.05140693
000070 8e ac 2a bb 86 c4 3e 3d 0f b4 de ba b1 fa 42 3d
       -0.0026042792 0.046574138 -0.0016990918 0.04760236
000080 9c a5 59 3d 79 c6 cb 3c a0 42 94 3d bc b8 86 3d
       0.053136453 0.024874913 0.0723927 0.06578204
000090 76 3c 56 bd a8 fd d1 bd 56 3a 7b bd 3e 39 bc bd
       -0.052303754 -0.10253459 -0.06133493 -0.091906056
0000a0 9b e0 1b be b2 e7 ed bd af 01 a0 bd cb fb fb bd
       -0.15222399 -0.11616458 -0.07812821 -0.12303885
0000b0 42 e3 bc bd 04 4c 13 3e bb 17 9b 3d 43 04 2d 3d
       -0.092230335 0.14384466 0.075728856 0.042240392
0000c0 7c 53 ef 3d 8b 9b c6 3d bc f2 c2 3d 7e 44 15 3e
       0.11685845 0.09697636 0.09518954 0.14576909
0000d0 51 6f ba 3d b0 c6 18 3e b6 ff fa bc ac 6d 22 be
       0.09103263 0.14919543 -0.03063951 -0.15862149
0000e0 4d cb 65 bd c2 f9 a6 bd c8 83 24 be 90 51 d8 bd
       -0.056102086 -0.08153106 -0.16065896 -0.10562432
0000f0 44 f8 df bc 14 ea b1 bd cf 80 b0 bc 62 2c d0 3d
       -0.027340062 -0.08687225 -0.021545796 0.10164715
000100 21 c1 ac 3d 7a 33 0e 3e f1 5b 7e bc 49 df 0b 3d
       0.08435274 0.13886824 -0.01552485 0.03414849
000110 5e 5f 8e 3d be 2d 84 bd 9e b6 01 be 46 18 9d bd
       0.069517836 -0.06454037 -0.12667319 -0.076706454
000120 ab e5 11 3c ab 81 d6 bc 20 5f 91 bc 7f 01 0f bc
       0.008904855 -0.026184877 -0.017745554 -0.008728384
000130 6e 45 b6 bc 5a 38 0b bd 2f 89 62 bb 67 9d 4c bc
       -0.022249904 -0.033989288 -0.003456663 -0.0124886995
000140 98 fb 46 bd bf ed 71 3e 6c ac 8e be f6 e1 8d 3e
       -0.048579782 0.23625849 -0.27865922 0.27711457
000150 0d 87 c6 3e 86 86 21 3f bb a5 dd 3e 54 bd 74 3e
       0.3877491 0.6309589 0.43290505 0.23900348
000160 c2 89 0b 3f f2 ae c7 3e d1 03 69 3e 4c ef e5 3d
       0.54507077 0.3900066 0.22755362 0.11227283
000170 89 cf 29 3e 3f 8c 92 3e 8f af e4 3d 88 3e a5 3e
       0.16583075 0.28622624 0.11166298 0.3227427
000180 39 46 e2 3d b8 d8 6d 3e 11 13 db 3d be 32 48 3d
       0.1104855 0.23227203 0.10696996 0.048876517
000190 1e 24 c9 3d 1b 4b 0a 3e 3b 2a 9b 3d 9b e4 b0 bd
       0.09821342 0.13505213 0.07576414 -0.08637353
0001a0 f0 08 0e be 64 52 a2 bd 73 c5 5f be 8c 00 c4 3d
       -0.13870597 -0.07925871 -0.21852665 0.09570417
0001b0 2b ef af bd 2a 72 af be bc 37 0e be f7 1e 00 be
       -0.085905395 -0.34266788 -0.13888448 -0.12511812
0001c0 e0 79 9b be 5a 4a 66 be 6c 32 4f bd c9 3e 14 be
       -0.3036642 -0.224893 -0.050585195 -0.14477076
0001d0 4e 85 15 be c7 7a 9e bd 5f de 14 be 9c 63 87 bd
       -0.14601633 -0.07738262 -0.14537953 -0.06610796
0001e0 c6 57 12 be 87 9f 75 be ad c1 1a be 44 37 7a bd
       -0.14291295 -0.23986636 -0.15112944 -0.06108786
0001f0 93 d6 12 be 49 93 e3 bd 88 f0 20 3e 3f e2 40 3e
       -0.14339666 -0.11112077 0.15716755 0.18836306
000200 6b 75 d6 3b 8b fe 0b 3e 44 03 25 3e c4 49 83 3d
       0.006544759 0.13671319 0.16114527 0.06410554
000210 a2 54 e1 3d c8 65 23 bb 2e 13 85 3d 67 89 39 3e
       0.110024706 -0.0024932493 0.06497799 0.18118821
000220 ac 39 71 3e 80 20 b0 3d 93 95 c5 3e 98 eb 11 3e
       0.23557156 0.08599949 0.3859068 0.14250028
000230 35 07 c4 3e 63 56 1e 3e 91 d3 06 3e 91 fc ac 3d
       0.3828675 0.15462641 0.13166644 0.08446611
000240 34 ef f0 bc 3e 8b 37 bd 74 27 95 bc f4 7a 90 bd
       -0.029410936 -0.044810526 -0.01820729 -0.070547014
000250 b6 a8 03 be 7f 56 98 bd 35 a3 9d bd 21 a5 e8 bd
       -0.12857327 -0.07438373 -0.07697145 -0.11359621
000260 a0 82 72 bd cc fc 3c 3d 1f b0 9d 3d 09 ec 79 3d
       -0.059206605 0.046139523 0.07699608 0.061016116
000270 1d 1e 1e 3d 22 a6 59 3d 71 02 39 3d 62 49 df bb
       0.038602937 0.053136952 0.045168344 -0.006814168
000280 9b fa 8d bb e6 3e cb 3c 01 2a 49 be 01 c2 93 be
       -0.004332853 0.024810266 -0.1964493 -0.2885895
000290 80 da 68 3d d8 c1 4f be e6 c1 3e 3d 87 a7 93 3e
       0.056849003 -0.2028879 0.046571635 0.2883875
0002a0 a4 e8 82 3d 51 96 8d 3e d9 c4 3d 3e 5b e2 f5 3c
       0.06392029 0.27653745 0.18532123 0.030015161
0002b0 ed 47 5a bc 3c 80 87 3d a9 1c 87 bd 9e 2c 44 3c
       -0.0133228125 0.06616256 -0.06597263 0.011973528
0002c0 18 ea bd 3d 42 ed a7 bd 40 bb 53 bd 9a 14 29 3d
       0.092731655 -0.0819955 -0.051692247 0.041279413
0002d0 64 22 4b 3d 65 e8 ec 3d 87 ca 86 3d 76 6c d6 3d
       0.049593344 0.11567763 0.06581598 0.10469906
0002e0 99 04 45 3e b7 00 ed 3d 8a f5 9b 3d ca d0 c2 3d
       0.19240035 0.11572402 0.07615192 0.095124796
0002f0 5f f8 bf 3d f1 1e 4e 39 5b 17 3e 3d 56 30 30 bc
       0.09373545 0.00019657217 0.046408992 -0.010753712
000300 05 18 94 bc 56 5f 93 3d 5e 94 2b 3d f1 87 25 3d
       -0.01807786 0.07195918 0.04188954 0.040412847
000310 05 5e 63 3d cd 8d 0a 3d 6f 5a ac 3d 02 27 fb 3c
       0.055509586 0.033826638 0.08415686 0.030658249
000320 01 35 08 3d 90 88 73 3d 87 5f 13 bc 25 43 7d bd
       0.033253673 0.059456408 -0.008994943 -0.061831612
000330 b3 53 97 b9 84 e3 7e bd 90 dc ba bd 29 ed 17 3e
       -0.00028863325 -0.062228695 -0.091241 0.14836563
000340 a2 48 86 3d 8f 63 f0 3d 16 68 02 3e 0e 19 0e 3e
       0.06556822 0.11737739 0.12735018 0.13876745
000350 8e 95 32 3e c4 c9 94 3d 39 90 2e 3e 8d 3e ba 3d
       0.17439863 0.07265046 0.17047204 0.09093962
000360 a3 10 36 b9 24 5e 00 be e4 a1 0b bd ef 12 0c 3c
       -0.0001736307 -0.12535912 -0.034089938 0.008549436
000370 1c 0e 13 bd a3 aa 8b bd df 76 fd bc af d1 68 bd
       -0.035902128 -0.06819656 -0.030940471 -0.056840595
000380 39 56 15 be 60 60 03 bd a1 76 b8 bd 63 d0 27 3d
       -0.14583673 -0.032074332 -0.09007002 0.040970217
000390 5d c7 54 bd e1 9f a9 bd 07 8c 92 3d fd 21 1c bb
       -0.05194794 -0.082824476 0.07155614 -0.002382397
0003a0 83 56 1c bd fc c4 99 3d 51 3b 41 3d e2 5a 86 3d
       -0.03816844 0.07508275 0.04717571 0.06560303
0003b0 3a 36 07 3e d8 7b 98 3d 0d 10 15 3e c2 63 55 3e
       0.1320428 0.07445496 0.14556904 0.20838836
0003c0 9c a5 06 3d 6e 4c 45 3d 53 81 13 3e 90 31 10 3d
       0.03287278 0.048168592 0.14404802 0.035203516
0003d0 c8 94 04 bd 4d 6d 55 bd 02 a3 32 3d 68 01 3a bd
       -0.03236845 -0.05210619 0.043612488 -0.045411497
0003e0 79 bd 51 bd bc 8a 84 3d d1 fe 3c 3b 11 5c a1 bc
       -0.051206086 0.06471774 0.0028838406 -0.019697221
0003f0 96 9c b2 3c fb f9 15 bc 64 16 ef 3c 1c db fb 3c
       0.021803182 -0.009153838 0.029185481 0.030744128

decoder.3.bias f4 [60]
000000 f9 e6 62 3d 06 09 48 3d 7a 6a 96 3d c6 98 7c b9
       0.055396054 0.04883673 0.073445275 -0.00024089505
000010 30 dd d0 3e e0 c9 b2 3d 64 2c e1 3d e3 19 f8 bd
       0.40793753 0.08729911 0.10994795 -0.121143125
000020 2b 59 02 bd b4 6e fa 3d 16 8f 9e 3e f2 11 30 3d
       -0.03182332 0.12228146 0.3096854 0.042985864
000030 e2 3c 40 3d 37 5e 7c 3e c7 bb 97 3e fc 4e 82 3e
       0.046933062 0.24645315 0.2963545 0.25450885
000040 3f e5 26 3d 18 c3 25 bc 17 2e 79 3c 15 12 b6 bc
       0.04074597 -0.010117315 0.015208743 -0.022225419
000050 8b 25 2a bf 84 e1 7b bd 5d 9e 18 be 69 34 e8 3d
       -0.66463536 -0.061494365 -0.14904161 0.113381214
000060 7e 63 93 3e 57 20 00 be dc 06 ad 3d aa 7a 9f bc
       0.28786844 -0.12512337 0.08448574 -0.01946767
000070 20 7b ec 3d 9a 54 e2 3d 3f b0 9d bd 97 a0 e1 3e
       0.11546922 0.11051293 -0.07699632 0.44067833
000080 91 7f 80 3e e5 e4 88 3d 65 5a 2a 3d 4c 48 15 be
       0.25097325 0.06684283 0.041590113 -0.1457836
000090 64 02 8e bd 66 eb b2 bd 12 ee de 3d 53 71 f7 3d
       -0.0693405 -0.08736305 0.10885252 0.12082162
0000a0 80 67 47 be ef 84 b3 3d bf f0 a1 bc ae a8 2f bd
       -0.19473076 0.087655894 -0.019768117 -0.042885475
0000b0 63 bc 6d 3d e7 17 1b 3e d4 9e 83 3d 7e d5 33 3d
       0.058040988 0.15145837 0.064267784 0.043904774
0000c0 99 1e 29 3d 19 ab ce 3d 81 fc 2a bf dc 64 7e bd
       0.041288946 0.10091228 -0.6679154 -0.062107906
0000d0 b4 8c 88 3c 3a 0c 3b 3d ab b0 4d 3c 48 21 88 3c
       0.016668655 0.045665957 0.012554328 0.016617432
0000e0 df aa 0a 3e d5 8a 38 3e c0 a3 21 3e a0 40 90 bd
       0.13541745 0.1802171 0.15785122 -0.07043576
